model/keypoint_classifier/keypoint_classifier.tflite (tflite, 6456 bytes, 6 tensors)

sequential/dense/BiasAdd/ReadVariableOp f4 [20]
000000 32 6c 2a bd f6 f4 4d bd 99 c9 5a bd ea a9 d1 3d
       -0.04160709 -0.05028244 -0.053414915 0.10237487
000010 30 9e dd bc c0 e2 d2 bb 2b 8a 02 be c9 0e e4 bc
       -0.027052969 -0.006435722 -0.1274802 -0.027839081
000020 12 56 03 3e 23 76 ec 3c ed 7e 55 bd 10 74 48 3d
       0.12825802 0.028864926 -0.052123 0.04893881
000030 f9 2d 3a bd b9 af 93 3d dc c5 bd bd 86 76 d0 bc
       -0.045454 0.07211251 -0.09266254 -0.025447141
000040 b9 61 fa 3d df f8 32 bd 89 a0 0a 3e a7 92 b0 3d
       0.1222567 -0.043694373 0.13537802 0.08621722

sequential/dense_2/BiasAdd/ReadVariableOp f4 [2]
000000 e7 c7 45 bd e5 c7 45 3d
       -0.048286345 0.048286337

sequential/dense_1/BiasAdd/ReadVariableOp f4 [10]
000000 a1 d1 93 3d 62 c4 16 bd c2 f5 2b 3d 42 74 1e 3d
       0.07217718 -0.03680838 0.04198242 0.03868509
000010 a3 3f 62 bd 99 9c 2a 3d f3 fb 1e 3d ec 8b f6 3c
       -0.05523647 0.04165325 0.038814496 0.030096017
000020 cc d7 83 3d 34 bb 03 3d
       0.06437644 0.032160953

sequential/dense/MatMul f4 [20, 42]
000000 52 bd 2a 3e d4 03 fc 3d 33 75 4a be 50 a4 5f 3e
       0.16673782 0.12305418 -0.1977127 0.21840024
000010 40 83 63 3e d6 78 c7 bb 0a 23 18 3e df 36 5c 3e
       0.22218037 -0.006087403 0.14857116 0.21505307
000020 44 13 26 be ce 8b 5d 3e 06 a1 80 bd 89 31 6a bd
       -0.16218287 0.21635363 -0.06280713 -0.057176147
000030 2f de dd bd 2e d9 c8 3d 97 4a 2c 3c 4f 34 3b 3b
       -0.10833394 0.09807049 0.0105158305 0.0028565114
000040 e8 82 1d 3e 9f 52 25 3e fd bb 68 be 75 32 1a 3e
       0.15381968 0.16144799 -0.22727962 0.1505831
000050 62 4a 0c be c9 d5 ee bd c8 47 59 be 6a 2b 98 bd
       -0.1370025 -0.1166187 -0.21218789 -0.074301556
000060 8b 39 f6 be 0d a2 86 be 48 33 b2 be 28 ca d2 3d
       -0.48090777 -0.2629551 -0.3480475 0.102924645
000070 07 00 74 bd 13 19 0c 3e 35 93 c9 3c ce 4c 06 be
       -0.05957034 0.1368144 0.024606327 -0.13115236
000080 a7 bf 02 bf b3 dd dc bc 16 3d ae be 31 d7 aa bd
       -0.5107369 -0.026961183 -0.3403098 -0.08341826
000090 96 64 d0 bd 50 0d 3b 3d 96 ed 0b 3d 89 28 ad be
       -0.10175435 0.045666993 0.034162126 -0.33819988
0000a0 0d f9 e4 3b 78 c3 88 3d 60 13 59 3d a0 d0 9d 3e
       0.006987697 0.06677908 0.052996993 0.3082323
0000b0 80 a0 38 3b e8 65 1d be 12 67 9f 3e b9 39 9e 3d
       0.0028171837 -0.15370905 0.31133324 0.077258535
0000c0 3e dc 46 3e ba fc b9 bd 75 c5 32 bd d5 7d fc 3d
       0.19419953 -0.09081407 -0.04364534 0.12328688
0000d0 c2 54 56 3e 73 25 40 bd 55 a7 2d bd 5b fd 6f be
       0.2093077 -0.046910714 -0.04239591 -0.23436491
0000e0 16 5b 20 be 39 c5 de 3d 1a ea 68 3e 14 31 2e 3e
       -0.15659747 0.10877461 0.22745553 0.1701091
0000f0 ef 5e 9b be f2 ee 35 3b 01 80 2c bc b0 ec 1e be
       -0.30345866 0.002776083 -0.010528565 -0.15519977
000100 03 b7 56 3e c1 e9 2c 3d b6 d7 90 be a3 31 5d 3e
       0.20968251 0.042215113 -0.28289574 0.21600966
000110 d3 5c 84 be 16 54 39 be 3b cb 65 3e 72 a3 6b 3e
       -0.2585207 -0.18098482 0.22440808 0.23011568
000120 89 cd 5e 3e 53 e4 1e 3e 0d 6f 6b 3e a8 63 96 bc
       0.21758093 0.15516786 0.22991581 -0.018358067
000130 36 d8 6f be 1f ff 42 be 23 d0 11 3e 22 3d 69 be
       -0.23422322 -0.19042633 0.14239554 -0.22777227
000140 05 e0 22 3d 4c f9 8e be cb d7 b0 be 68 e5 64 bd
       0.039764423 -0.27924573 -0.34539637 -0.05588284
000150 d4 29 ea bd 84 00 76 3e f6 3b 10 bd 8c 7f 71 3e
       -0.11433759 0.24023634 -0.035213433 0.23583812
000160 c7 15 a1 be e7 23 8d 3e eb 24 e5 3d 76 e4 6d 3d
       -0.31461927 0.27566454 0.11188682 0.058079205
000170 94 8e 74 3d 12 d5 4d be 7d 7d 44 3e cd ca 95 3e
       0.059706286 -0.20100811 0.19188495 0.29256287
000180 b9 6f 76 3e 58 62 32 be b9 c8 4b 3e f3 76 11 3e
       0.24066056 -0.17420328 0.19900788 0.14205532
000190 c2 97 ab 3b 7e 3e d1 bd 00 50 88 be 9f 31 00 3e
       0.005236597 -0.102169976 -0.26623535 0.12518929
0001a0 87 04 14 3e 9b 98 12 be f9 06 64 be c0 98 b6 bb
       0.14454852 -0.14316027 -0.22268285 -0.0055724084
0001b0 58 2e 1e 3e d0 98 52 be c6 a5 03 bd 13 f4 8f 3d
       0.15447366 -0.20566106 -0.032140516 0.07028975
0001c0 ba 11 fb 3b 94 0a 2c be a0 ac 79 bd c8 1b eb 3d
       0.0076620253 -0.1680091 -0.060955644 0.11479908
0001d0 52 0a 6b 3e 8a 83 56 3d 25 eb 85 be 6c dc a9 3e
       0.22953156 0.05237154 -0.26155964 0.3317598
0001e0 de 6b 07 be 2b 45 49 3e 87 56 8c 3d b8 ef 0d 3e
       -0.13224742 0.19655292 0.06852441 0.13860977
0001f0 df e7 44 be 0f 4b 31 3c 94 ba 33 be 6e 5d 15 3e
       -0.19229077 0.010821118 -0.17551643 0.14586422
000200 bb bd 5c be f4 5b 9f be 74 d3 73 be d9 3c ab be
       -0.21556751 -0.31124842 -0.23811132 -0.3344486
000210 b0 0b 26 be 59 9e d3 bd 3b b1 bb 3d 54 5a 37 bd
       -0.16215396 -0.10332937 0.091646634 -0.044763878
000220 bc 69 96 be a6 d1 ed 3a ed 82 3f be b4 5e 5a be
       -0.29377544 0.0018144145 -0.18702288 -0.21325189
000230 1c cd 12 be 1f 97 47 3e 3c d2 0d 3e 6f f6 16 3e
       -0.14336056 0.19491242 0.1384973 0.14742444
000240 5a 71 21 3e b6 dc 0c 3e 13 40 41 bd e2 9d 47 3e
       0.15765896 0.1375607 -0.047180247 0.19493821
000250 99 57 2d bd ce 83 1e be 95 65 7a 3b 0a ca 89 3e
       -0.042319868 -0.15479967 0.003820752 0.26911956
000260 da ea e5 3e a0 81 28 be 2d 3a 91 be 41 4e d6 bd
       0.4490574 -0.16455698 -0.28364697 -0.104641445
000270 a8 8e 56 be eb 06 1c 3c 75 d9 4c 3d 65 cd 4e 3d
       -0.20952857 0.009523134 0.05001207 0.05048885
000280 66 6a 19 3f a2 ea c0 bd 07 43 bc 3d 4d 60 1f be
       0.59927976 -0.09419753 0.09192472 -0.1556408
000290 38 91 8a 3e ce 3d 89 3e 54 cd 7c 3e 92 fa 84 3e
       0.27063918 0.26804966 0.24687701 0.2597242
0002a0 0a 5d 5f be 6f 4a 8e be 4d 6c 90 bd 7a da 1a 3e
       -0.21812835 -0.27791163 -0.07051907 0.15122405
0002b0 ea d9 ba 3d 2d 86 4f 3e 1f 18 db bb fb c3 6b 3e
       0.09123595 0.20266028 -0.006686225 0.2302398
0002c0 e5 6b 59 be c0 c0 a7 be e5 c6 74 be a5 48 d7 3d
       -0.21232565 -0.32764244 -0.23903997 0.10511903
0002d0 d1 a0 a9 be d8 12 a1 3e ac 94 0f 3e 81 af 4e be
       -0.33130506 0.3145969 0.14021558 -0.20184137
0002e0 76 be 2c 3d 28 a6 fc bd 58 a0 e9 3d c3 a5 1b bb
       0.042173825 -0.12336379 0.11407536 -0.0023749925
0002f0 f3 03 b6 bc e1 3d 49 be 49 96 25 3e 3b cd 51 be
       -0.02221868 -0.19652511 0.1617061 -0.20488445
000300 7f 6c ea 3d e3 c0 64 3e f2 21 00 3d 2d 4b e8 bc
       0.11446475 0.22339205 0.031282373 -0.02835616
000310 08 59 76 be 74 26 98 3c bd 97 04 bc 6a e0 76 bd
       -0.240574 0.018573023 -0.008092818 -0.06027261
000320 6b 47 25 bc b0 48 1a be b4 b9 5a bd 66 17 1d be
       -0.010087828 -0.1506679 -0.053399757 -0.15340957
000330 96 ca c5 bd 99 43 2c 3e 3f f8 a3 3e 7c 44 32 3e
       -0.09657781 0.16822661 0.32025334 0.17408937
000340 a7 10 c4 3d f3 39 02 be 00 ec 04 bd d6 b7 24 be
       0.09573489 -0.12717418 -0.03245163 -0.16085753
000350 3c dc d0 bd b4 aa 40 be 71 45 a6 be eb b1 71 be
       -0.101982564 -0.18815118 -0.32474855 -0.23603027
000360 e8 c5 4b 3e 23 7a 47 3e e3 05 23 be 8f 4f 85 be
       0.19899714 0.19480185 -0.15920214 -0.2603726
000370 25 88 8e be 4d 12 7a be 39 12 51 3d b8 78 53 3e
       -0.27838245 -0.24421044 0.05104277 0.2065152
000380 ad 86 94 3d 4e ee a2 3e 31 71 02 3e 18 aa a7 3d
       0.0725225 0.31822437 0.12738492 0.0818674
000390 28 56 35 be fa 27 8e be 47 68 1f 3e c6 a5 d8 bd
       -0.17708647 -0.27764875 0.15567122 -0.10578494
0003a0 12 28 49 be 9b 31 9c 3e a7 74 04 3e 34 dc 05 3e
       -0.19644192 0.30506596 0.12935124 0.13072282
0003b0 de ec 23 3e d3 64 3a be fe 86 62 be 59 d3 27 be
       0.16008326 -0.18202524 -0.22121808 -0.16389216
0003c0 a9 fd b4 3c bc 30 cf 3d e6 92 fe 3d f7 bb d2 bd
       0.02209361 0.10116717 0.124303624 -0.10289758
0003d0 ab 6f 98 3e 90 00 d2 bd 8a b1 b7 bd da 6b 99 bd
       0.29772696 -0.102540135 -0.0896941 -0.07491274
0003e0 04 db 1f 3e e6 0d 07 3e 9a d8 b0 3d 1d da 6b 3e
       0.15610892 0.13188896 0.086350635 0.23032422
0003f0 76 b2 97 3e b4 9d 93 3e 0a 03 c4 bc 51 29 34 3e
       0.29628342 0.28831255 -0.02392723 0.17593886

sequential/dense_1/MatMul f4 [10, 20]
000000 f7 ec fe 3e ad d9 04 be fc f7 0b be 62 77 2b bd
       0.49790165 -0.12973662 -0.13668817 -0.0418619
000010 4c e2 10 be 24 bb c6 be 68 c5 a5 3e a7 00 0e 3f
       -0.14148825 -0.38814652 0.32377172 0.55469745
000020 c0 de df be 72 31 16 be a4 d7 e1 3c 26 0b dc 3e
       -0.43724632 -0.146673 0.027568646 0.42977256
000030 ca 6f 81 be 29 f2 df 3e ab 18 80 be 27 ae 67 3d
       -0.252806 0.4373944 -0.2501882 0.05656257
000040 e2 37 3f 3e 79 1d 01 3f 32 37 49 be 2b eb 3a 3e
       0.18673661 0.50435597 -0.19649962 0.18253772
000050 10 17 89 3e bf 54 97 be 59 e0 99 3e 72 20 ec 3e
       0.26775408 -0.29556844 0.30053976 0.46118504
000060 a6 42 c8 be 8c eb 97 3e 78 ef 7b 3e 2d 3a 1a be
       -0.3911335 0.29671896 0.24603069 -0.15061255
000070 1f b6 b9 be b0 7b 40 3e fc c3 75 3e ba 91 f7 bd
       -0.3627176 0.18797183 0.24000543 -0.12088342
000080 01 78 d8 be 0a 39 09 be 0a be 64 be a8 cd eb bb
       -0.42279056 -0.13400665 -0.22338119 -0.007196147
000090 ed ce 70 bb 1c 51 de bd 4d 31 d2 3e 5f ba af be
       -0.003674443 -0.10855314 0.4105324 -0.34321877
0000a0 cc 99 01 3e d8 49 ae be d9 23 03 3f 87 13 c0 be
       0.12656325 -0.34040713 0.51226574 -0.37514898
0000b0 2d 11 9c 3d f9 33 90 3e 70 74 2d be 6c 8c 6f bd
       0.076204635 0.28164652 -0.16938949 -0.058483526
0000c0 2f 02 0f be 4f cd 5e 3e c1 97 8a bd 04 1f 25 3d
       -0.13965677 0.21758007 -0.06767226 0.040312782
0000d0 6b 03 1a 3f 0c 1b 01 3f c1 87 7d 3e 08 f3 8d be
       0.60161465 0.50431895 0.24758817 -0.2772448
0000e0 6e 02 a3 be 85 fa fc 3e ba 06 3d 3e da 6c 1d 3e
       -0.3183779 0.4940988 0.18459597 0.15373555
0000f0 7c f9 fc be 5a de 8f be 2a c6 a5 be 50 41 f8 3e
       -0.4940909 -0.28099328 -0.3237775 0.4848733
000100 b2 82 11 be e9 c3 cb 3e 1b 33 4a 3d 95 c6 df be
       -0.14210013 0.39797905 0.049365144 -0.43706194
000110 9a 7a fa 3e 4e 5f 23 3e cb 51 a0 3e 22 5d dc 3e
       0.48921663 0.15954325 0.31312403 0.43039805
000120 94 c2 5b be 9c be 7a be 37 e1 83 3e 03 c1 e0 be
       -0.21460944 -0.24486774 0.25757763 -0.43897256
000130 35 13 2a 3f 92 3e 92 be 8b 46 05 3f 16 ac 0c 3f
       0.6643556 -0.28563362 0.52060765 0.5495008
000140 69 d5 3f 3e a8 d8 6f be 1c b8 8c 3e 6f f8 f5 be
       0.18733753 -0.23422492 0.27484214 -0.48041102
000150 16 ef bc 3e c3 1e 8e 3e 1c ee 97 3e e5 91 b7 be
       0.36901158 0.27757844 0.2967385 -0.35853496
000160 38 90 41 3e 2e 5b cc 3e 1d e5 91 bd ec 78 cf be
       0.18902671 0.39913315 -0.07123778 -0.40521944
000170 ea 80 d6 bd 56 ca 26 be 5c af 4c be 10 94 97 3d
       -0.10473807 -0.16288123 -0.1998877 0.074012876
000180 15 93 5f 3d 33 58 6a 3e c1 fb 09 be f5 27 34 3c
       0.054583628 0.22885208 -0.13474943 0.010995855
000190 88 d4 b2 bd 5b 86 15 be 64 2f 9e bd 7b dd 99 bc
       -0.08731943 -0.14602034 -0.07723883 -0.018782368
0001a0 47 aa d5 be a0 c5 84 3e a2 77 46 3e 1d 88 da be
       -0.41731474 0.25932026 0.19381574 -0.4268197
0001b0 74 c5 04 3f 58 cb 90 3e 0b 87 8d 3e 07 b5 a1 be
       0.5186379 0.2828014 0.27642092 -0.31583425
0001c0 fc e3 31 bd fe c5 0f bf b6 22 6a be cf ca 98 be
       -0.043430313 -0.5616149 -0.22864804 -0.2984223
0001d0 64 3f 04 3e 6c e8 81 3e c1 98 0e 3f 38 85 05 3f
       0.12914807 0.25372636 0.55701834 0.521564
0001e0 63 7c 82 be 6b 12 51 be 9d 6d 16 3d f2 51 08 3e
       -0.25485525 -0.20417182 0.03672563 0.1331251
0001f0 23 2e bc 3c 93 c2 95 3e 8c 25 57 be 85 63 82 be
       0.022971218 0.2925001 -0.21010417 -0.25466552
000200 72 99 57 3e 29 74 cb 3e 59 fd 77 be 0a a3 96 3e
       0.21054628 0.3973706 -0.24217738 0.29421264
000210 fb 3a 51 3c 19 89 9d be d7 a7 3c 3d cc 5d bf 3e
       0.01277041 -0.3076866 0.046058502 0.3737625
000220 ea 92 ea 3e 69 d6 02 bd 57 6e c7 3d e4 49 b0 3e
       0.45815212 -0.03194276 0.097378425 0.34431374
000230 f7 c0 d6 3e 57 74 98 bd fc 2d 43 be 9a 24 fb bc
       0.41944095 -0.07444065 -0.1906051 -0.030657101
000240 97 19 64 bd 4b 5c eb 3d 20 c3 c9 be 05 15 24 3f
       -0.055688467 0.11492213 -0.3940668 0.64094573
000250 f0 ec 7a 3d aa a3 ae be a5 00 2b 3e e1 a3 2d be
       0.061261117 -0.3410924 0.16699465 -0.16957046
000260 8f 02 54 be 6f ca e6 3e df 77 24 3e 10 ed 88 3d
       -0.20704101 0.4507632 0.16061352 0.06685841
000270 df 16 32 3e 67 69 24 3f e8 dd 0d 3e 3b 37 be bd
       0.17391537 0.6422333 0.13854182 -0.09287878
000280 65 35 93 bd 84 b5 cc be f0 5f 67 3e 2d 2e 12 3f
       -0.071879186 -0.39982235 0.22595191 0.5710171
000290 ee a4 6b 3e 84 5a b6 bd 4e 9c a8 bb bf 50 df be
       0.23012134 -0.08903983 -0.005145586 -0.43616292
0002a0 81 2d 27 3f b5 1f fa 3d 37 ea 2e 3d eb eb 4a be
       0.6530381 0.12213079 0.042703833 -0.19816558
0002b0 34 cb 86 be af 53 fc be 3e 14 1d 3e 55 f9 a7 bc
       -0.26326907 -0.49282596 0.15339753 -0.020504633
0002c0 b8 74 37 3e 4a 70 09 3e 7b 77 f3 3e a1 e5 1b 3d
       0.17915618 0.13421741 0.47552094 0.038060788
0002d0 41 f4 3e 3e 2e f8 26 be b0 0a c2 bd ff 10 54 3e
       0.18647863 -0.1630561 -0.09474695 0.20709608
0002e0 0d 25 95 bd 54 73 e0 be 6a ac 02 3f b6 c5 1e 3f
       -0.072824575 -0.43837988 0.51044333 0.6202043
0002f0 fb 03 20 be 0d ee 8e 3e 5f 5a cb 3e c9 98 68 3e
       -0.15626518 0.27915993 0.39717385 0.22714533
000300 ba d9 0c 3f 96 0a 20 3e 12 6d f1 3e e6 92 be 3e
       0.55019724 0.15629038 0.47153527 0.3722145
000310 3d 71 a8 3d 55 fe 41 3e d4 fd 40 be 17 21 b0 be
       0.082247235 0.18944676 -0.18846828 -0.34400246

sequential/dense_2/MatMul f4 [2, 10]
000000 17 49 12 bf 22 62 30 3e 83 47 4d bf 3f 96 1a be
       -0.57142776 0.17224935 -0.80187243 -0.15096377
000010 0c 61 af be 0f f4 ff be 5a 4a 31 3f 73 5d 5f bf
       -0.34253728 -0.4999089 0.69254076 -0.8725197
000020 a8 39 da 3d 67 07 34 bf de 93 36 be 1a 6b 90 3d
       0.10655528 -0.70323795 -0.17829844 0.07051678
000030 fa d1 d8 be 24 d5 58 bf 0e e4 1f bf f2 4f 23 bf
       -0.423477 -0.84700227 -0.6245736 -0.6379386
000040 48 f8 f3 be c5 ce 7b bd 8f b4 eb be e1 7f 88 3e
       -0.4765036 -0.061476488 -0.46036193 0.26660064
