model/keypoint_classifier/keypoint_classifier.tflite (tflite, 29616 bytes, 8 tensors)

sequential_3/dense_15/BiasAdd/ReadVariableOp f4 [62]
0	0xbe3faf24	-0.18719155
1	0x3de8b091	0.11361802
2	0x3ded98bf	0.116014
3	0x3d99bf99	0.075072475
4	0x3ef74282	0.4829293
5	0xbddbf18d	-0.107394315
6	0x3e9fe340	0.31228065
7	0x3d561a9b	0.052271467
8	0x3dc354cd	0.09537659
9	0xbccb3416	-0.02480511
10	0xbe47d562	-0.19514993
11	0xbc3cf5c9	-0.011533209
12	0xbe9527e5	-0.29132
13	0xbedecaaa	-0.43513995
14	0x3e6b7628	0.22994292
15	0xbe4eb48d	-0.20186062
16	0x3e79b942	0.24387076
17	0x3df6a3a8	0.12042934
18	0xbd4ace3b	-0.049513083
19	0xbb8f1ba2	-0.0043673078
20	0x3ed319f4	0.41230738
21	0xbe38f335	-0.18061526
22	0xbef730a0	-0.48279285
23	0xbe6b71fa	-0.22992697
24	0x3dc99334	0.0984253
25	0xbdd92632	-0.10602988
26	0x3e41a17a	0.18909255
27	0x3ef02dff	0.46910092
28	0xbe9eb156	-0.30994672
29	0xbc57033d	-0.013123331
30	0x3e950a81	0.29109576
31	0x3ec3a99a	0.38215333
32	0x3f12aed3	0.5729801
33	0x3e3f2f73	0.18670444
34	0xbcdf1116	-0.027229827
35	0x3dcc79e7	0.099841885
36	0x38c7515c	9.504214e-05
37	0xbd1860e9	-0.037201796
38	0x3de649af	0.11244523
39	0x3db582a9	0.08862812
40	0xbe458c6f	-0.19291852
41	0x3cfd2577	0.030901654
42	0x3df6cd62	0.120508924
43	0xbd64d5a1	-0.055867795
44	0xbe5206f0	-0.20510459
45	0xbed46016	-0.41479558
46	0x3e815948	0.2526343
47	0xbedbd7a2	-0.42937952
48	0xbe45c3db	-0.19312994
49	0xbe8529a3	-0.2600833
50	0x3e20eaaa	0.15714517
51	0xbeebdf62	-0.46068865
52	0xbde30c05	-0.11086277
53	0x3d831f6e	0.06402479
54	0x3e45bf02	0.19311145
55	0xbf23ca9f	-0.6398105
56	0x3d5ed64b	0.054403584
57	0xbe9df583	-0.30851373
58	0xbec6d73c	-0.38836086
59	0x3af50187	0.0018692472
60	0xbe64d588	-0.2234708
61	0xbd8370df	-0.06418013

sequential_3/dense_14/BiasAdd/ReadVariableOp f4 [50]
0	0x3f5ba754	0.858022
1	0x3e2ae2cf	0.16688083
2	0x3eb31908	0.34980035
3	0xbe16e754	-0.14736682
4	0xbdc6ead4	-0.09712759
5	0x3e913ca7	0.28366587
6	0x3f282805	0.65686065
7	0x3f079ba6	0.52971876
8	0xbee6c4ee	-0.4507212
9	0x3e225263	0.1585174
10	0x3f14a6ac	0.5806682
11	0xbc2f5ff8	-0.010704033
12	0x3eba13a9	0.36343125
13	0x3edf243e	0.43582338
14	0x3e41626f	0.18885206
15	0xbe37e43a	-0.17958155
16	0xbe53d3ea	-0.20686308
17	0x3f2c6573	0.673423
18	0x3ec9fb64	0.39449608
19	0x3ec6bbfe	0.38815302
20	0xbea4e18b	-0.32203326
21	0xbe05cf2f	-0.13067316
22	0xbd975dec	-0.07390961
23	0x3eb6b1d0	0.35682535
24	0xbe0ff980	-0.1406002
25	0xbeada01a	-0.3391121
26	0x3eb265f7	0.34843418
27	0x3ed195d1	0.40934613
28	0x3eca6418	0.3952949
29	0x3ebe6234	0.37184298
30	0x3e54afcc	0.20770186
31	0x3ed40c6c	0.41415727
32	0xbe3a1231	-0.18171002
33	0x3e467178	0.19379222
34	0xbe9891d9	-0.29798773
35	0x3f3db104	0.7409823
36	0xbede3413	-0.43399104
37	0xbe25c935	-0.16190036
38	0x3e305132	0.17218474
39	0xbe19c426	-0.15016231
40	0x3f30744a	0.68927443
41	0x3e57f402	0.21089175
42	0x3ed52c2e	0.4163527
43	0x3f5e8bcb	0.8693206
44	0xbeb0a388	-0.34499764
45	0xbf116b2c	-0.56804156
46	0xbe70e23c	-0.23523802
47	0x3ea86908	0.32892632
48	0x3e1aa1aa	0.15100732
49	0x3f27e177	0.6557841

sequential_3/dense_13/BiasAdd/ReadVariableOp f4 [120]
0	0x3ecaae57	0.39586136
1	0x3e512b57	0.20426689
2	0x3e67bd85	0.2263089
3	0x3dbe2b25	0.09285573
4	0xbe13a36f	-0.14417814
5	0x3d73f611	0.05956084
6	0xbe2cf791	-0.16891314
7	0x3e72ff9c	0.2373032
8	0x3e0f7cb8	0.1401242
9	0xbe5d4e8e	-0.21611997
10	0x3d1c4cbc	0.038159117
11	0x3e502d8e	0.20329878
12	0x3de5d11e	0.112215266
13	0xbbbd6427	-0.0057797614
14	0xbd05366e	-0.03252261
15	0xbd014b2b	-0.031565826
16	0x3e41f546	0.1894122
17	0x3ed08ca5	0.40732303
18	0x3dc450d5	0.0958573
19	0x3e9feaa7	0.31233713
20	0x3e83be67	0.25731203
21	0x3e921838	0.28534102
22	0xbdf9ac23	-0.121910356
23	0xbd7dec82	-0.06199313
24	0x3d539706	0.0516577
25	0xbc842121	-0.016129078
26	0xbd4d600e	-0.050140433
27	0xbe1fe4b4	-0.15614587
28	0x3dcdd73f	0.100508206
29	0x3df191cc	0.11795387
30	0x3e8295b8	0.2550485
31	0xbdfd38fc	-0.123643845
32	0xbe094a2e	-0.13407204
33	0x3e8e90dd	0.27844897
34	0x3e00bc97	0.12571941
35	0xbda45e26	-0.0802577
36	0x3e912c84	0.28354275
37	0x3ea2f47f	0.3182716
38	0x3d72dd00	0.059292793
39	0x3e27c267	0.16382752
40	0x3d5e0652	0.054205246
41	0xbe46fafa	-0.19431677
42	0x3ee5177d	0.44744483
43	0xbe927b39	-0.28609636
44	0x3e0a3f1c	0.13500637
45	0xbe828d73	-0.25498542
46	0x3d8dec8c	0.06929883
47	0xbe8188be	-0.25299639
48	0x3eec112a	0.46106845
49	0xbd6e5a02	-0.058191307
50	0x3eca02eb	0.3945535
51	0xbe0eee16	-0.1395801
52	0xbe38d2b7	-0.18049131
53	0xbd90cec1	-0.07070685
54	0x3bb8164f	0.0056178938
55	0xbd7c355c	-0.061574325
56	0x3e3dccd9	0.18535174
57	0x3e6a8b56	0.22904715
58	0x3cee3815	0.029079476
59	0x3e1e1841	0.1543894
60	0x3b300300	0.0026857257
61	0xbdfced73	-0.12349977
62	0x3dcad668	0.09904176
63	0xbded5ecd	-0.115903474
64	0x3e350791	0.17678668
65	0xbd84eeb9	-0.06490845
66	0x3e62a9fb	0.22135155
67	0x3dde31cb	0.10849341
68	0xbe617152	-0.22015885
69	0xbd1ad551	-0.03780109
70	0xbd9404f9	-0.07227511
71	0xbe944708	-0.28960443
72	0x3da823bb	0.0820994
73	0x3f055456	0.5208181
74	0x3de061f0	0.1095618
75	0xbe4d02a0	-0.20020533
76	0xbd3449bd	-0.044015635
77	0xbd4bcb0d	-0.04975419
78	0x3dd400c4	0.103517085
79	0x3e64b48a	0.22334495
80	0xbe1ac81b	-0.15115397
81	0x3cb62f6d	0.022239411
82	0xba6954e9	-0.0008900897
83	0x3e994256	0.29933423
84	0x3d9a02d4	0.07520071
85	0xbd32c21e	-0.043642156
86	0x3a6af1d6	0.0008962428
87	0x3db6837e	0.08911799
88	0xbe437d2e	-0.19090721
89	0x3dd728de	0.10505842
90	0x3d3a3d57	0.045468654
91	0xbde4b1b6	-0.11166708
92	0x3e272ffc	0.16326898
93	0x3e305d29	0.17223038
94	0x3eb91d53	0.36155185
95	0x3db9910d	0.09060869
96	0x3e83f2eb	0.2577127
97	0x3e886cc6	0.26645488
98	0x3d9b5d56	0.07586162
99	0xbe14eb01	-0.14542772
100	0xbd88455b	-0.066538535
101	0x3e4d7891	0.20065524
102	0xbd802908	-0.06257826
103	0x3d27cbea	0.040965952
104	0xbdb37533	-0.08762588
105	0x3dab4d89	0.08364398
106	0xbe74649a	-0.23866501
107	0x3dbcc6a2	0.09217574
108	0x3ee14e2c	0.44004953
109	0xbd291f4d	-0.041289616
110	0x3e0b07fd	0.13577266
111	0x3e85416b	0.26026472
112	0x3ecf27b6	0.40459985
113	0x3d8bcd31	0.068262465
114	0x3e242f6a	0.16033712
115	0x3d0e8212	0.034792013
116	0x3d10e445	0.035373945
117	0xbe9a891e	-0.30182737
118	0x3e406b4c	0.1879093
119	0xbded8849	-0.1159826

sequential_3/dense_12/BiasAdd/ReadVariableOp f4 [80]
0	0xbd763959	-0.060113285
1	0xbe3d6cdd	-0.1849856
2	0xbe3f6126	-0.18689403
3	0xbe2f6626	-0.1712881
4	0x3c934574	0.017977454
5	0xbdb1b482	-0.08677007
6	0xbdb504c5	-0.088388
7	0x3cdd0813	0.02698139
8	0xbe528116	-0.20557055
9	0xbe06e410	-0.13172936
10	0xbcabed24	-0.0209871
11	0xbd09a25a	-0.033602096
12	0xbd895959	-0.06706495
13	0xbbb51a40	-0.005526811
14	0xbe85b60e	-0.2611546
15	0xba27c61e	-0.0006400066
16	0xbd8b3863	-0.06797864
17	0xbd46b573	-0.048512887
18	0x3ba04a2a	0.0048916535
19	0xbe115d3e	-0.14195725
20	0xbc95d24f	-0.01828876
21	0xbe6e479a	-0.23269501
22	0xbe1a4811	-0.15066554
23	0xbd394c93	-0.045239042
24	0xbe31689a	-0.17325059
25	0xbd9a09ee	-0.07521425
26	0xbdf1a4da	-0.11799021
27	0xbd34e74e	-0.0441659
28	0x3dd8ffbd	0.10595653
29	0xbeac7b51	-0.33687833
30	0xbe11c855	-0.14236577
31	0xbd5a8cc3	-0.053356897
32	0xbd14d9b5	-0.036340434
33	0x3d685875	0.056724984
34	0xbe24b0c3	-0.16083054
35	0xbe87ff7c	-0.26562107
36	0xbe50427d	-0.20337863
37	0xbe15db84	-0.1463452
38	0xbe3c6a44	-0.18399912
39	0xbd9ae83e	-0.07563828
40	0x3dc89f82	0.09796049
41	0xbe1d537e	-0.15363881
42	0x3d997856	0.074936554
43	0xbe9ec7d2	-0.31011826
44	0xbe5a2827	-0.2130438
45	0xbdfc885d	-0.12330697
46	0xbe5d17e3	-0.21591143
47	0xbe90fe63	-0.28319082
48	0xbe1abcae	-0.15111038
49	0xbe1c70e2	-0.15277436
50	0xbe41269f	-0.18862389
51	0xbcbcb2ed	-0.023034537
52	0x3d114800	0.035469055
53	0xbeab7d7c	-0.33494174
54	0xbe4d556f	-0.20052122
55	0xbde38f96	-0.11111371
56	0xbdca82d0	-0.09888232
57	0xbd6f1acb	-0.05837516
58	0x3dd0b7ee	0.10191332
59	0xbe47fe4e	-0.19530603
60	0xbe215263	-0.15754084
61	0xbddaff27	-0.10693198
62	0xbdbdc5c4	-0.092662364
63	0xbc7153d7	-0.014729462
64	0xbedc6be1	-0.43051055
65	0xbe4ebb2f	-0.20188592
66	0xbbdf1ddc	-0.0068089794
67	0xbd3fa029	-0.0467836
68	0xbca6b8c1	-0.02035177
69	0xbebd61ce	-0.36988682
70	0xbe179802	-0.1480408
71	0xbe092a89	-0.13395132
72	0xbdd257bc	-0.1027064
73	0xbcb56a38	-0.022145376
74	0x3be745dc	0.0070578884
75	0xbe816465	-0.25271907
76	0xbdde90b6	-0.10867445
77	0x3d7e083f	0.062019583
78	0x3d7d24c6	0.061802648
79	0xbda8a9f7	-0.08235543

sequential_3/dense_12/MatMul i1 [80, 86] scale=0.01674082 zero_point=0
0	0x00	0.0
1	0x94	-1.8080086
2	0x0c	0.20088983
3	0xf9	-0.117185734
4	0x02	0.03348164
5	0x05	0.0837041
6	0x01	0.01674082
7	0x06	0.10044491
8	0x07	0.117185734
9	0x05	0.0837041
10	0x00	0.0
11	0x15	0.3515572
12	0x01	0.01674082
13	0x11	0.28459394
14	0xf6	-0.1674082
15	0x09	0.15066737
16	0x06	0.10044491
17	0x0c	0.20088983
18	0x0a	0.1674082
19	0x00	0.0
20	0xfe	-0.03348164
21	0x08	0.13392656
22	0xf9	-0.117185734
23	0x02	0.03348164
24	0xf9	-0.117185734
25	0xf9	-0.117185734
26	0xfc	-0.06696328
27	0xfc	-0.06696328
28	0x08	0.13392656
29	0x03	0.050222456
30	0xfa	-0.10044491
31	0x02	0.03348164
32	0xfe	-0.03348164
33	0x02	0.03348164
34	0xfa	-0.10044491
35	0xf8	-0.13392656
36	0xf9	-0.117185734
37	0x00	0.0
38	0x05	0.0837041
39	0xf6	-0.1674082
40	0xfb	-0.0837041
41	0xf9	-0.117185734
42	0x07	0.117185734
43	0xf5	-0.18414901
44	0xf3	-0.21763065
45	0x1e	0.50222456
46	0xf0	-0.2678531
47	0x18	0.40177965
48	0x04	0.06696328
49	0x1c	0.46874294
50	0x00	0.0
51	0x23	0.5859287
52	0xf0	-0.2678531
53	0x1c	0.46874294
54	0x08	0.13392656
55	0x0d	0.21763065
56	0x23	0.5859287
57	0x01	0.01674082
58	0x1a	0.4352613
59	0xe6	-0.4352613
60	0x03	0.050222456
61	0xd3	-0.75333685
62	0x0e	0.23437147
63	0x01	0.01674082
64	0x15	0.3515572
65	0xf3	-0.21763065
66	0xfe	-0.03348164
67	0xe6	-0.4352613
68	0xe7	-0.41852048
69	0xe6	-0.4352613
70	0x14	0.3348164
71	0x0c	0.20088983
72	0x15	0.3515572
73	0xf0	-0.2678531
74	0xf8	-0.13392656
75	0xec	-0.3348164
76	0xea	-0.36829802
77	0xf9	-0.117185734
78	0x02	0.03348164
79	0x0a	0.1674082
80	0x07	0.117185734
81	0xfb	-0.0837041
82	0xf8	-0.13392656
83	0xf9	-0.117185734
84	0xeb	-0.3515572
85	0x01	0.01674082
86	0xfa	-0.10044491
87	0x0e	0.23437147
88	0x0b	0.18414901
89	0x00	0.0
90	0x1d	0.48548377
91	0x0b	0.18414901
92	0x1b	0.45200214
93	0x04	0.06696328
94	0xfc	-0.06696328
95	0x0f	0.25111228
96	0x02	0.03348164
97	0x03	0.050222456
98	0x00	0.0
99	0x0f	0.25111228
100	0xf0	-0.2678531
101	0x05	0.0837041
102	0xf1	-0.25111228
103	0xfc	-0.06696328
104	0xfe	-0.03348164
105	0x04	0.06696328
106	0xf2	-0.23437147
107	0x03	0.050222456
108	0xfd	-0.050222456
109	0xf8	-0.13392656
110	0x0f	0.25111228
111	0x11	0.28459394
112	0x29	0.6863736
113	0x16	0.36829802
114	0xf9	-0.117185734
115	0xf3	-0.21763065
116	0xfc	-0.06696328
117	0xf8	-0.13392656
118	0x1c	0.46874294
119	0xff	-0.01674082
120	0x31	0.82030016
121	0xfb	-0.0837041
122	0xf0	-0.2678531
123	0xf5	-0.18414901
124	0xf2	-0.23437147
125	0xf1	-0.25111228
126	0x08	0.13392656
127	0x01	0.01674082
128	0x2d	0.75333685
129	0x09	0.15066737
130	0xf3	-0.21763065
131	0x0f	0.25111228
132	0xfc	-0.06696328
133	0x0f	0.25111228
134	0xfa	-0.10044491
135	0x07	0.117185734
136	0xf6	-0.1674082
137	0x01	0.01674082
138	0xff	-0.01674082
139	0xf5	-0.18414901
140	0x23	0.5859287
141	0xf6	-0.1674082
142	0x0d	0.21763065
143	0xff	-0.01674082
144	0xff	-0.01674082
145	0xff	-0.01674082
146	0xf5	-0.18414901
147	0x05	0.0837041
148	0x0d	0.21763065
149	0x05	0.0837041
150	0x05	0.0837041
151	0x02	0.03348164
152	0x04	0.06696328
153	0x05	0.0837041
154	0xfb	-0.0837041
155	0xfd	-0.050222456
156	0x06	0.10044491
157	0xfe	-0.03348164
158	0x00	0.0
159	0xf0	-0.2678531
160	0xe9	-0.38503885
161	0x00	0.0
162	0xee	-0.30133474
163	0xfc	-0.06696328
164	0x07	0.117185734
165	0x0f	0.25111228
166	0xed	-0.31807557
167	0xf7	-0.15066737
168	0xe4	-0.46874294
169	0x06	0.10044491
170	0xf6	-0.1674082
171	0x0c	0.20088983
172	0xf5	-0.18414901
173	0x60	1.6071186
174	0xf5	-0.18414901
175	0xf1	-0.25111228
176	0x06	0.10044491
177	0xfc	-0.06696328
178	0x13	0.31807557
179	0xf3	-0.21763065
180	0x0b	0.18414901
181	0xfd	-0.050222456
182	0xea	-0.36829802
183	0xf4	-0.20088983
184	0x0a	0.1674082
185	0xfc	-0.06696328
186	0x15	0.3515572
187	0x08	0.13392656
188	0x18	0.40177965
189	0x0d	0.21763065
190	0x00	0.0
191	0x12	0.30133474
192	0x03	0.050222456
193	0xf3	-0.21763065
194	0x17	0.38503885
195	0x0f	0.25111228
196	0x13	0.31807557
197	0x0f	0.25111228
198	0x02	0.03348164
199	0x05	0.0837041
200	0xf9	-0.117185734
201	0xfc	-0.06696328
202	0x12	0.30133474
203	0x03	0.050222456
204	0x03	0.050222456
205	0x14	0.3348164
206	0xfa	-0.10044491
207	0x15	0.3515572
208	0xfb	-0.0837041
209	0x00	0.0
210	0xfc	-0.06696328
211	0x02	0.03348164
212	0xf2	-0.23437147
213	0x11	0.28459394
214	0xf9	-0.117185734
215	0x10	0.2678531
216	0x0b	0.18414901
217	0xfa	-0.10044491
218	0xfa	-0.10044491
219	0xec	-0.3348164
220	0xfb	-0.0837041
221	0xf6	-0.1674082
222	0xf4	-0.20088983
223	0xf0	-0.2678531
224	0x02	0.03348164
225	0xe4	-0.46874294
226	0xfe	-0.03348164
227	0xf4	-0.20088983
228	0xfc	-0.06696328
229	0x0b	0.18414901
230	0x01	0.01674082
231	0x0d	0.21763065
232	0x00	0.0
233	0x16	0.36829802
234	0xf4	-0.20088983
235	0xf1	-0.25111228
236	0x02	0.03348164
237	0x08	0.13392656
238	0xf7	-0.15066737
239	0xfd	-0.050222456
240	0x0b	0.18414901
241	0x01	0.01674082
242	0xf2	-0.23437147
243	0xfb	-0.0837041
244	0x04	0.06696328
245	0xfe	-0.03348164
246	0x11	0.28459394
247	0xfd	-0.050222456
248	0x1c	0.46874294
249	0x08	0.13392656
250	0xf7	-0.15066737
251	0xf8	-0.13392656
252	0x04	0.06696328
253	0x0f	0.25111228
254	0xfe	-0.03348164
255	0x09	0.15066737

sequential_3/dense_13/MatMul i1 [120, 80] scale=0.013730054 zero_point=0
0	0x03	0.041190162
1	0x00	0.0
2	0x04	0.054920215
3	0xee	-0.24714097
4	0xd6	-0.57666224
5	0xfc	-0.054920215
6	0xfb	-0.06865027
7	0xea	-0.30206117
8	0xfd	-0.041190162
9	0xf6	-0.13730054
10	0xf7	-0.12357049
11	0xe1	-0.42563167
12	0x07	0.096110374
13	0x19	0.34325135
14	0x1c	0.3844415
15	0x26	0.52174205
16	0x06	0.082380325
17	0x0d	0.1784907
18	0x02	0.027460108
19	0x07	0.096110374
20	0xfd	-0.041190162
21	0x13	0.26087102
22	0x02	0.027460108
23	0xf6	-0.13730054
24	0xee	-0.24714097
25	0x00	0.0
26	0xe5	-0.37071145
27	0xb8	-0.9885639
28	0xf3	-0.1784907
29	0x2a	0.57666224
30	0x24	0.49428195
31	0x16	0.30206117
32	0x08	0.10984043
33	0xf6	-0.13730054
34	0x06	0.082380325
35	0x10	0.21968086
36	0x16	0.30206117
37	0x13	0.26087102
38	0xf1	-0.20595081
39	0x17	0.31579125
40	0x01	0.013730054
41	0xe1	-0.42563167
42	0xfa	-0.082380325
43	0x0c	0.16476065
44	0xe6	-0.3569814
45	0x0a	0.13730054
46	0xf7	-0.12357049
47	0xf0	-0.21968086
48	0xf7	-0.12357049
49	0xfa	-0.082380325
50	0x07	0.096110374
51	0x1e	0.41190162
52	0x05	0.06865027
53	0x04	0.054920215
54	0x13	0.26087102
55	0x13	0.26087102
56	0xf0	-0.21968086
57	0x03	0.041190162
58	0xfd	-0.041190162
59	0x0b	0.15103059
60	0xfe	-0.027460108
61	0xfb	-0.06865027
62	0xe9	-0.31579125
63	0xf3	-0.1784907
64	0xf5	-0.15103059
65	0xd7	-0.5629322
66	0xfd	-0.041190162
67	0x14	0.27460107
68	0x00	0.0
69	0x1f	0.42563167
70	0xf1	-0.20595081
71	0x03	0.041190162
72	0xfc	-0.054920215
73	0x13	0.26087102
74	0xf3	-0.1784907
75	0xf7	-0.12357049
76	0x0c	0.16476065
77	0xf5	-0.15103059
78	0xfc	-0.054920215
79	0xff	-0.013730054
80	0xf4	-0.16476065
81	0xfa	-0.082380325
82	0xe9	-0.31579125
83	0x0b	0.15103059
84	0xfd	-0.041190162
85	0xf7	-0.12357049
86	0x0b	0.15103059
87	0xed	-0.26087102
88	0xa6	-1.2357049
89	0x11	0.23341091
90	0xf6	-0.13730054
91	0x00	0.0
92	0xf1	-0.20595081
93	0xfa	-0.082380325
94	0xef	-0.23341091
95	0xfe	-0.027460108
96	0x0a	0.13730054
97	0xec	-0.27460107
98	0x06	0.082380325
99	0xf9	-0.096110374
100	0x2a	0.57666224
101	0xfc	-0.054920215
102	0x0e	0.19222075
103	0x16	0.30206117
104	0xf4	-0.16476065
105	0x17	0.31579125
106	0x13	0.26087102
107	0xf8	-0.10984043
108	0xec	-0.27460107
109	0xf9	-0.096110374
110	0x03	0.041190162
111	0xe5	-0.37071145
112	0x0d	0.1784907
113	0x11	0.23341091
114	0x07	0.096110374
115	0x06	0.082380325
116	0xdf	-0.45309177
117	0x0b	0.15103059
118	0x00	0.0
119	0xfc	-0.054920215
120	0xfe	-0.027460108
121	0xfd	-0.041190162
122	0x05	0.06865027
123	0x0a	0.13730054
124	0x20	0.43936172
125	0x11	0.23341091
126	0x0a	0.13730054
127	0x02	0.027460108
128	0xff	-0.013730054
129	0x07	0.096110374
130	0x00	0.0
131	0xfb	-0.06865027
132	0xfb	-0.06865027
133	0x18	0.3295213
134	0xf7	-0.12357049
135	0x01	0.013730054
136	0x10	0.21968086
137	0xe8	-0.3295213
138	0xfb	-0.06865027
139	0xfe	-0.027460108
140	0x0f	0.20595081
141	0x91	-1.5240359
142	0x06	0.082380325
143	0xe9	-0.31579125
144	0xfa	-0.082380325
145	0xe3	-0.39817157
146	0xef	-0.23341091
147	0xe1	-0.42563167
148	0xd6	-0.57666224
149	0xf8	-0.10984043
150	0xdc	-0.49428195
151	0x04	0.054920215
152	0xb5	-1.029754
153	0xfd	-0.041190162
154	0x03	0.041190162
155	0xf9	-0.096110374
156	0x0a	0.13730054
157	0xc7	-0.78261304
158	0xe8	-0.3295213
159	0x01	0.013730054
160	0x01	0.013730054
161	0xfd	-0.041190162
162	0x0d	0.1784907
163	0x08	0.10984043
164	0x14	0.27460107
165	0xe6	-0.3569814
166	0x08	0.10984043
167	0x19	0.34325135
168	0x00	0.0
169	0xf2	-0.19222075
170	0x12	0.24714097
171	0x16	0.30206117
172	0x0c	0.16476065
173	0xb4	-1.0434841
174	0xf2	-0.19222075
175	0xe7	-0.34325135
176	0x08	0.10984043
177	0xd7	-0.5629322
178	0x0c	0.16476065
179	0xe7	-0.34325135
180	0x15	0.28833112
181	0x02	0.027460108
182	0xe0	-0.43936172
183	0x08	0.10984043
184	0x01	0.013730054
185	0xf0	-0.21968086
186	0x04	0.054920215
187	0xf9	-0.096110374
188	0x10	0.21968086
189	0x00	0.0
190	0xfe	-0.027460108
191	0x10	0.21968086
192	0xf8	-0.10984043
193	0x05	0.06865027
194	0xf4	-0.16476065
195	0xf9	-0.096110374
196	0xf7	-0.12357049
197	0xfb	-0.06865027
198	0xf7	-0.12357049
199	0xed	-0.26087102
200	0xfa	-0.082380325
201	0xea	-0.30206117
202	0xfe	-0.027460108
203	0xf0	-0.21968086
204	0x0d	0.1784907
205	0xf3	-0.1784907
206	0x01	0.013730054
207	0xdb	-0.508012
208	0xf5	-0.15103059
209	0x0a	0.13730054
210	0xc7	-0.78261304
211	0xc7	-0.78261304
212	0x0a	0.13730054
213	0xe7	-0.34325135
214	0xee	-0.24714097
215	0xd8	-0.54920214
216	0xf2	-0.19222075
217	0xe1	-0.42563167
218	0xe7	-0.34325135
219	0x07	0.096110374
220	0x0a	0.13730054
221	0xf5	-0.15103059
222	0x05	0.06865027
223	0x13	0.26087102
224	0xf2	-0.19222075
225	0xef	-0.23341091
226	0xfd	-0.041190162
227	0x03	0.041190162
228	0x34	0.7139628
229	0x07	0.096110374
230	0xca	-0.7414229
231	0x0a	0.13730054
232	0xf3	-0.1784907
233	0x0e	0.19222075
234	0xfc	-0.054920215
235	0x00	0.0
236	0xff	-0.013730054
237	0x0a	0.13730054
238	0xc9	-0.75515294
239	0xe3	-0.39817157
240	0xdf	-0.45309177
241	0x0b	0.15103059
242	0x05	0.06865027
243	0xf8	-0.10984043
244	0xfd	-0.041190162
245	0xf9	-0.096110374
246	0x05	0.06865027
247	0x19	0.34325135
248	0x24	0.49428195
249	0x0e	0.19222075
250	0x02	0.027460108
251	0xe5	-0.37071145
252	0x06	0.082380325
253	0x02	0.027460108
254	0x03	0.041190162
255	0x0e	0.19222075

sequential_3/dense_14/MatMul i1 [50, 120] scale=0.011784771 zero_point=0
0	0xf4	-0.14141726
1	0x16	0.25926498
2	0xcf	-0.5774538
3	0xf8	-0.09427817
4	0xdd	-0.412467
5	0xf2	-0.1649868
6	0x0b	0.12963249
7	0x0c	0.14141726
8	0xfd	-0.035354316
9	0x13	0.22391066
10	0x15	0.2474802
11	0x1a	0.30640405
12	0x0a	0.11784771
13	0xef	-0.20034112
14	0xa8	-1.0370599
15	0x0d	0.15320203
16	0x1e	0.35354313
17	0x1d	0.34175837
18	0xed	-0.22391066
19	0x22	0.40068224
20	0xfe	-0.023569543
21	0xca	-0.63637763
22	0xf3	-0.15320203
23	0x0a	0.11784771
24	0x12	0.21212588
25	0x12	0.21212588
26	0x04	0.047139086
27	0xf9	-0.0824934
28	0x02	0.023569543
29	0x0a	0.11784771
30	0x0e	0.1649868
31	0xf3	-0.15320203
32	0xf8	-0.09427817
33	0x0b	0.12963249
34	0x12	0.21212588
35	0x0a	0.11784771
36	0x17	0.27104974
37	0xfb	-0.058923855
38	0xfa	-0.07070863
39	0x13	0.22391066
40	0xfc	-0.047139086
41	0x0a	0.11784771
42	0x17	0.27104974
43	0xda	-0.44782132
44	0xe8	-0.28283453
45	0xf6	-0.11784771
46	0x01	0.011784771
47	0x02	0.023569543
48	0x37	0.6481624
49	0xdd	-0.412467
50	0xf7	-0.10606294
51	0xfd	-0.035354316
52	0xf8	-0.09427817
53	0x03	0.035354316
54	0x0f	0.17677157
55	0xe1	-0.36532792
56	0x19	0.2946193
57	0xd0	-0.56566906
58	0x0e	0.1649868
59	0xe5	-0.31818882
60	0x81	-1.496666
61	0xf5	-0.12963249
62	0xde	-0.40068224
63	0x0e	0.1649868
64	0x11	0.20034112
65	0xf6	-0.11784771
66	0xfc	-0.047139086
67	0xd8	-0.47139084
68	0xfa	-0.07070863
69	0x0f	0.17677157
70	0x01	0.011784771
71	0xf0	-0.18855634
72	0xfd	-0.035354316
73	0x07	0.0824934
74	0x04	0.047139086
75	0xe5	-0.31818882
76	0xf3	-0.15320203
77	0x0a	0.11784771
78	0xee	-0.21212588
79	0xeb	-0.2474802
80	0x0c	0.14141726
81	0xc1	-0.7424406
82	0x13	0.22391066
83	0x10	0.18855634
84	0x18	0.28283453
85	0xfe	-0.023569543
86	0x17	0.27104974
87	0x11	0.20034112
88	0x10	0.18855634
89	0x05	0.058923855
90	0x05	0.058923855
91	0xf1	-0.17677157
92	0xfc	-0.047139086
93	0x0a	0.11784771
94	0xfd	-0.035354316
95	0xcb	-0.6245929
96	0x07	0.0824934
97	0xec	-0.23569542
98	0x02	0.023569543
99	0x0b	0.12963249
100	0x06	0.07070863
101	0xe9	-0.27104974
102	0x8d	-1.3552487
103	0xfa	-0.07070863
104	0xf7	-0.10606294
105	0x0f	0.17677157
106	0xfe	-0.023569543
107	0x18	0.28283453
108	0x17	0.27104974
109	0xc0	-0.7542254
110	0x03	0.035354316
111	0xfa	-0.07070863
112	0x16	0.25926498
113	0x0d	0.15320203
114	0x0c	0.14141726
115	0xec	-0.23569542
116	0xf7	-0.10606294
117	0x0c	0.14141726
118	0xd5	-0.50674516
119	0xfb	-0.058923855
120	0x03	0.035354316
121	0x32	0.5892386
122	0xf5	-0.12963249
123	0x09	0.10606294
124	0xf5	-0.12963249
125	0x1c	0.3299736
126	0x0e	0.1649868
127	0x06	0.07070863
128	0xe3	-0.34175837
129	0x22	0.40068224
130	0x16	0.25926498
131	0x0e	0.1649868
132	0x06	0.07070863
133	0x0d	0.15320203
134	0xf9	-0.0824934
135	0xf1	-0.17677157
136	0x01	0.011784771
137	0x30	0.56566906
138	0xff	-0.011784771
139	0x0a	0.11784771
140	0x03	0.035354316
141	0x05	0.058923855
142	0x0e	0.1649868
143	0xc5	-0.69530153
144	0x0b	0.12963249
145	0x13	0.22391066
146	0x28	0.47139084
147	0x0e	0.1649868
148	0xfe	-0.023569543
149	0xf6	-0.11784771
150	0xfe	-0.023569543
151	0xee	-0.21212588
152	0xf5	-0.12963249
153	0x1e	0.35354313
154	0x02	0.023569543
155	0xfd	-0.035354316
156	0x15	0.2474802
157	0x05	0.058923855
158	0x00	0.0
159	0x15	0.2474802
160	0x14	0.23569542
161	0xff	-0.011784771
162	0x18	0.28283453
163	0xf4	-0.14141726
164	0xf3	-0.15320203
165	0xfc	-0.047139086
166	0xf8	-0.09427817
167	0xf0	-0.18855634
168	0x21	0.38889745
169	0x12	0.21212588
170	0xf4	-0.14141726
171	0x1c	0.3299736
172	0xfa	-0.07070863
173	0x18	0.28283453
174	0xfc	-0.047139086
175	0xe6	-0.30640405
176	0x0c	0.14141726
177	0xec	-0.23569542
178	0xff	-0.011784771
179	0x02	0.023569543
180	0xf9	-0.0824934
181	0x1b	0.31818882
182	0xff	-0.011784771
183	0x1b	0.31818882
184	0x0a	0.11784771
185	0xfa	-0.07070863
186	0xfc	-0.047139086
187	0xf5	-0.12963249
188	0x04	0.047139086
189	0x19	0.2946193
190	0x0b	0.12963249
191	0xec	-0.23569542
192	0x05	0.058923855
193	0x00	0.0
194	0x0b	0.12963249
195	0x03	0.035354316
196	0xf6	-0.11784771
197	0x02	0.023569543
198	0xfe	-0.023569543
199	0xf9	-0.0824934
200	0x15	0.2474802
201	0xd9	-0.45960608
202	0xff	-0.011784771
203	0x30	0.56566906
204	0x20	0.3771127
205	0x01	0.011784771
206	0x14	0.23569542
207	0x05	0.058923855
208	0xfd	-0.035354316
209	0x25	0.43603656
210	0x0c	0.14141726
211	0xf8	-0.09427817
212	0xfe	-0.023569543
213	0x0f	0.17677157
214	0x17	0.27104974
215	0x0f	0.17677157
216	0x0f	0.17677157
217	0x07	0.0824934
218	0x07	0.0824934
219	0xc7	-0.67173195
220	0xfa	-0.07070863
221	0x0a	0.11784771
222	0xf5	-0.12963249
223	0x16	0.25926498
224	0x17	0.27104974
225	0xed	-0.22391066
226	0x18	0.28283453
227	0x09	0.10606294
228	0x14	0.23569542
229	0xfe	-0.023569543
230	0x08	0.09427817
231	0x0e	0.1649868
232	0x24	0.42425177
233	0x1b	0.31818882
234	0x00	0.0
235	0x03	0.035354316
236	0x0d	0.15320203
237	0x2d	0.53031474
238	0x04	0.047139086
239	0x24	0.42425177
240	0x08	0.09427817
241	0x23	0.412467
242	0xf5	-0.12963249
243	0x06	0.07070863
244	0xcb	-0.6245929
245	0x10	0.18855634
246	0x01	0.011784771
247	0xf4	-0.14141726
248	0x01	0.011784771
249	0x06	0.07070863
250	0xfc	-0.047139086
251	0xec	-0.23569542
252	0xfb	-0.058923855
253	0x07	0.0824934
254	0x17	0.27104974
255	0xef	-0.20034112

sequential_3/dense_15/MatMul i1 [62, 50] scale=0.011170811 zero_point=0
0	0xdb	-0.41332
1	0x08	0.08936649
2	0xfb	-0.055854056
3	0xf8	-0.08936649
4	0x02	0.022341622
5	0x08	0.08936649
6	0xe2	-0.33512434
7	0xe7	-0.27927026
8	0x1f	0.34629515
9	0x05	0.055854056
10	0x08	0.08936649
11	0x0f	0.16756217
12	0x03	0.033512432
13	0x16	0.24575785
14	0x12	0.2010746
15	0xf8	-0.08936649
16	0x08	0.08936649
17	0xd7	-0.45800325
18	0xf0	-0.17873298
19	0x06	0.067024864
20	0x17	0.25692865
21	0xea	-0.24575785
22	0xef	-0.18990378
23	0xe3	-0.3239535
24	0xf1	-0.16756217
25	0xeb	-0.23458703
26	0x0b	0.122878924
27	0xf7	-0.1005373
28	0xd2	-0.5138573
29	0xfd	-0.033512432
30	0x14	0.22341622
31	0x05	0.055854056
32	0xf8	-0.08936649
33	0xd7	-0.45800325
34	0x0d	0.14522055
35	0x09	0.1005373
36	0xe3	-0.3239535
37	0xf5	-0.122878924
38	0xf1	-0.16756217
39	0xe6	-0.2904411
40	0xf2	-0.15639135
41	0xe7	-0.27927026
42	0xef	-0.18990378
43	0x0c	0.13404973
44	0xf5	-0.122878924
45	0x07	0.078195676
46	0x16	0.24575785
47	0xd7	-0.45800325
48	0x00	0.0
49	0xe9	-0.25692865
50	0xcf	-0.5473697
51	0x16	0.24575785
52	0x07	0.078195676
53	0xfe	-0.022341622
54	0xff	-0.011170811
55	0xd0	-0.5361989
56	0x0c	0.13404973
57	0x04	0.044683244
58	0xfb	-0.055854056
59	0x17	0.25692865
60	0x12	0.2010746
61	0xd7	-0.45800325
62	0x20	0.35746595
63	0xf1	-0.16756217
64	0xd9	-0.43566164
65	0xe9	-0.25692865
66	0xf3	-0.14522055
67	0xf8	-0.08936649
68	0xd1	-0.5250281
69	0xfa	-0.067024864
70	0x11	0.18990378
71	0xea	-0.24575785
72	0xe6	-0.2904411
73	0x21	0.36863676
74	0xec	-0.22341622
75	0xfb	-0.055854056
76	0xcc	-0.5808822
77	0xd3	-0.5026865
78	0xfe	-0.022341622
79	0x0a	0.11170811
80	0x11	0.18990378
81	0xff	-0.011170811
82	0xe3	-0.3239535
83	0xd9	-0.43566164
84	0x08	0.08936649
85	0x0a	0.11170811
86	0xdc	-0.4021492
87	0x0c	0.13404973
88	0x11	0.18990378
89	0x11	0.18990378
90	0x01	0.011170811
91	0xf3	-0.14522055
92	0xef	-0.18990378
93	0xcc	-0.5808822
94	0xea	-0.24575785
95	0x19	0.27927026
96	0xfa	-0.067024864
97	0xec	-0.22341622
98	0xfd	-0.033512432
99	0xdc	-0.4021492
100	0xc5	-0.6590778
101	0x05	0.055854056
102	0xe2	-0.33512434
103	0x19	0.27927026
104	0xfe	-0.022341622
105	0xea	-0.24575785
106	0xef	-0.18990378
107	0x10	0.17873298
108	0x0c	0.13404973
109	0x1e	0.33512434
110	0x09	0.1005373
111	0xc4	-0.6702487
112	0x0c	0.13404973
113	0xf1	-0.16756217
114	0x0c	0.13404973
115	0xfc	-0.044683244
116	0xfb	-0.055854056
117	0xf8	-0.08936649
118	0xfa	-0.067024864
119	0xec	-0.22341622
120	0xcd	-0.5697114
121	0x15	0.23458703
122	0xce	-0.5585405
123	0x1b	0.3016119
124	0x0d	0.14522055
125	0xdf	-0.36863676
126	0xd9	-0.43566164
127	0x13	0.2122454
128	0x11	0.18990378
129	0xd6	-0.46917406
130	0x19	0.27927026
131	0xf3	-0.14522055
132	0x0f	0.16756217
133	0x06	0.067024864
134	0xf3	-0.14522055
135	0xf8	-0.08936649
136	0xe6	-0.2904411
137	0xf7	-0.1005373
138	0xe6	-0.2904411
139	0x1a	0.2904411
140	0x14	0.22341622
141	0x03	0.033512432
142	0xff	-0.011170811
143	0xec	-0.22341622
144	0x15	0.23458703
145	0xf2	-0.15639135
146	0xfc	-0.044683244
147	0xef	-0.18990378
148	0xf8	-0.08936649
149	0xf8	-0.08936649
150	0xc8	-0.6255654
151	0x23	0.3909784
152	0x06	0.067024864
153	0xde	-0.37980756
154	0x07	0.078195676
155	0xeb	-0.23458703
156	0xec	-0.22341622
157	0x10	0.17873298
158	0xe2	-0.33512434
159	0x16	0.24575785
160	0x15	0.23458703
161	0x08	0.08936649
162	0xec	-0.22341622
163	0xd1	-0.5250281
164	0xc3	-0.6814195
165	0xf5	-0.122878924
166	0xd2	-0.5138573
167	0x14	0.22341622
168	0xff	-0.011170811
169	0x06	0.067024864
170	0x06	0.067024864
171	0xe2	-0.33512434
172	0x02	0.022341622
173	0x17	0.25692865
174	0xd9	-0.43566164
175	0xff	-0.011170811
176	0xa9	-0.9718606
177	0xef	-0.18990378
178	0xf9	-0.078195676
179	0xec	-0.22341622
180	0x0a	0.11170811
181	0x02	0.022341622
182	0xca	-0.6032238
183	0xfc	-0.044683244
184	0xc9	-0.6143946
185	0x04	0.044683244
186	0xe9	-0.25692865
187	0xef	-0.18990378
188	0x20	0.35746595
189	0x0b	0.122878924
190	0x18	0.26809946
191	0x0d	0.14522055
192	0xe7	-0.27927026
193	0xea	-0.24575785
194	0xdd	-0.3909784
195	0xf7	-0.1005373
196	0xf4	-0.13404973
197	0x18	0.26809946
198	0x21	0.36863676
199	0xcf	-0.5473697
200	0xbf	-0.7261027
201	0x02	0.022341622
202	0xe3	-0.3239535
203	0x05	0.055854056
204	0x08	0.08936649
205	0x07	0.078195676
206	0x17	0.25692865
207	0x00	0.0
208	0x14	0.22341622
209	0xdd	-0.3909784
210	0x10	0.17873298
211	0x16	0.24575785
212	0x0a	0.11170811
213	0xf6	-0.11170811
214	0xbc	-0.7596151
215	0xf1	-0.16756217
216	0x0e	0.15639135
217	0x11	0.18990378
218	0x18	0.26809946
219	0xfc	-0.044683244
220	0x0d	0.14522055
221	0xdd	-0.3909784
222	0x12	0.2010746
223	0xe8	-0.26809946
224	0xec	-0.22341622
225	0xf6	-0.11170811
226	0x02	0.022341622
227	0xf2	-0.15639135
228	0xec	-0.22341622
229	0xda	-0.4244908
230	0x11	0.18990378
231	0x0b	0.122878924
232	0xf9	-0.078195676
233	0xd8	-0.44683245
234	0xe9	-0.25692865
235	0x06	0.067024864
236	0xe9	-0.25692865
237	0xf1	-0.16756217
238	0x1c	0.3127827
239	0xf0	-0.17873298
240	0xcf	-0.5473697
241	0x18	0.26809946
242	0xe5	-0.3016119
243	0x16	0.24575785
244	0x02	0.022341622
245	0x02	0.022341622
246	0xd9	-0.43566164
247	0x0e	0.15639135
248	0xf1	-0.16756217
249	0xcb	-0.592053
250	0x0e	0.15639135
251	0x17	0.25692865
252	0x05	0.055854056
253	0xfc	-0.044683244
254	0x08	0.08936649
255	0xe9	-0.25692865
