model/keypoint_classifier/keypoint_classifier.tflite (tflite, 19752 bytes, 6 tensors)

sequential_18/dense_56/MatMul f4 [16, 50]
0.24436568 -0.1816032 -0.43968335 -0.24665837 0.30745763 0.1271051 -0.21870454 0.038893696
-0.36329716 -0.002805503 -0.10273313 -0.26628911 0.5347996 0.18674019 -0.41302094 0.16112192
-0.34335184 -0.35279822 0.42165866 -0.23422961 -0.038503695 0.32886556 -0.026413362 -0.061308607
-0.25097597 -0.03428647 0.2383995 0.18416373 -0.47682825 -0.11621314 0.19344872 -0.47150347
-0.34639427 0.15380885 0.058797684 0.33877787 -0.2691061 0.07744021 -0.45975026 0.42338657
-0.6241893 0.16364458 0.26410353 -0.44728935 -0.3525668 -0.5265936 0.17303981 -0.33226603
0.025272062 -0.018898979 -0.09699948 0.28283182 -0.43161938 0.06190007 0.091771014 0.24787012
0.12366956 0.29151943 -0.05868708 -0.35042506 0.34791353 -0.37752238 0.09577078 0.11601085
0.28921592 0.07455273 -0.22422156 0.21839863 0.21086775 0.38299003 -0.23836605 -0.13640006
0.24057549 -0.1561769 -0.28542238 -0.7197228 -0.37031934 0.19877674 -0.1714178 -0.4121331
0.06578111 0.19750471 0.08543729 -0.30356818 -0.45559108 0.07404721 -0.07153273 0.07963713
0.14196809 0.2903827 -0.16778444 0.2811871 0.33855197 -0.6628571 0.2805591 -0.16725467
0.2677932 0.077709265 -0.47007313 -0.24531694 0.1203645 -0.022549616 -0.5407875 0.19842285
-0.20238695 -0.1400161 -0.16970265 0.06081099 0.13800246 -0.03285677 0.2351304 0.15886167
0.1327301 -0.43161264 -0.22073916 -0.01932755 -0.16703764 -0.2904658 -0.25573808 0.0529502
0.28726465 -0.42020518 0.17597076 -0.14166978 -0.035928 0.29850078 -0.092205815 0.22323109
0.110372305 0.37106445 0.096516915 -0.04974505 -0.30099174 0.17467032 -0.20469916 -0.057366736
-0.018432712 -0.28462303 0.2860636 0.055221524 0.00982275 0.04983486 0.1919361 0.08190187
0.08090136 -0.14616103 0.21204294 -0.25498748 0.09845189 0.060984306 0.2087446 0.5203164
-0.5869755 -0.557721 0.38929918 -0.0081973765 -0.014339395 0.177944 -0.48879084 -0.2886736
-0.2541791 -0.5743477 -0.23419894 0.273082 0.07379612 -0.02845228 0.0070259185 -0.5520095
-0.159912 0.011075577 0.3361596 0.0055072857 -0.25835666 0.07329717 -0.19032225 -0.13459314
-0.44038293 -0.30007643 0.27593377 0.13738433 -0.20628543 0.24787547 0.4007428 -0.35488784
0.2493018 0.2523526 0.22879365 0.46843824 -0.5138593 -0.32282752 0.25992566 0.10574789
0.27156562 -0.16524619 -0.3267308 -0.08795325 -0.025711026 0.014503003 0.09694769 -0.6574233
0.17276679 -0.51280326 0.17320207 0.28782085 0.27300477 0.19303218 0.30611557 0.28607145
-0.09021358 0.3052613 -0.41751313 -0.4504515 0.10693162 0.023721237 -0.40104666 -0.3281977
-0.31105646 0.36087126 0.31537074 -0.18278873 -0.20354968 0.2789606 0.13244261 -0.32227325
-0.38211656 -0.042148344 -0.034056414 -0.027120976 0.16312191 0.16895427 0.18560155 0.022909576
0.28129932 -0.20379236 -0.09953976 0.29220188 0.16275476 -0.22936688 0.12662596 -0.36583135
-0.50563234 0.4202079 -0.4859031 -0.42137304 0.043809704 -0.46034205 0.2419267 -0.45079657
-0.13130206 -0.22623996 -0.029234929 0.31845224 -0.19336164 0.34535778 0.008671013 0.18849832
00000000: ff3a 7a3e 30f6 39be 2d1e e1be 0394 7cbe
00000010: 166b 9d3e d727 023e 15f4 5fbe ff4e 1f3d
00000020: 1602 babe 88dc 37bb bf65 d2bd 0c57 88be
00000030: a0e8 083f d238 3f3e 7b77 d3be 25fd 243e
00000040: d0cb afbe f8a1 b4be a5e3 d73e e3d9 6fbe
00000050: 0db6 1dbd 1161 a83e d660 d8bc bc1e 7bbd
00000060: ec7f 80be f86f 0cbd 001f 743e 6b95 3c3e
00000070: d522 f4be 2801 eebd 6c17 463e e768 f1be
00000080: 975a b1be 1180 1d3e d7d5 703d 4b74 ad3e
00000090: 46c8 89be f998 9e3d 6364 ebbe 20c6 d83e
000000a0: dfca 1fbf 7292 273e 9438 873e 1c03 e5be
000000b0: a383 b4be d7ce 06bf 5931 313e c61e aabe
000000c0: 5b07 cf3c 08d2 9abc aaa7 c6bd 55cf 903e
000000d0: 37fd dcbe ee8a 7d3d 71f2 bb3d aad1 7d3e
000000e0: 7746 fd3d 0942 953e dd61 70bd ea6a b3be
000000f0: b921 b23e 9d4a c1be 7923 c43d 1997 ed3d
00000100: 1c14 943e 1aaf 983d 569a 65be e4a3 5f3e
00000110: b7ed 573e 4517 c43e 3b16 74be 75ac 0bbe
00000120: 6c59 763e d6ec 1fbe e222 92be c13f 38bf
00000130: 7f9a bdbe 218c 4b3e 2688 2fbe 1c03 d3be
00000140: 3fb8 863d ad3e 4a3e bff9 ae3d 4a6d 9bbe
00000150: 3c43 e9be 10a6 973d c07f 92bd cb18 a33d
00000160: 1560 113e 0bad 943e afcf 2bbe c1f7 8f3e
00000170: af56 ad3e 01b1 29bf 71a5 8f3e cf44 2bbe
00000180: 311c 893e 0926 9f3d 6dad f0be 5d34 7bbe
00000190: aa81 f63d f9b9 b8bc 0d71 0abf 5c2f 4b3e
000001a0: 863e 4fbe 6160 0fbe 88c6 2dbe f214 793d
000001b0: 8450 0d3e d294 06bd 06c6 703e a2ac 223e
000001c0: 66ea 073e 55fc dcbe 7209 62be cf54 9ebc
000001d0: ea0b 2bbe efb7 94be 1af0 82be 4fe2 583d
000001e0: 5a14 933e 2225 d7be ae31 343e e211 11be
000001f0: 3d29 13bd 18d5 983e 67d6 bcbd b196 643e
00000200: e00a e23d 29fc bd3e a9aa c53d 77c1 4bbd
00000210: 971b 9abe c7dc 323e a89c 51be 62f9 6abd
00000220: 3300 97bc 1cba 91be ee76 923e f72f 623d
00000230: 9aef 203c a31f 4c3d e68a 443e 2bbc a73d
00000240: 9daf a53d 3dab 15be c921 593e b88d 82be
00000250: 25a1 c93d aeca 793d 25c1 553e 7533 053f
00000260: 0744 16bf cec6 0ebf 3952 c73e 4a4e 06bc
00000270: c8ef 6abc f436 363e cb42 fabe 07cd 93be
00000280: c323 82be 7308 13bf d9d1 6fbe 67d1 8b3e
00000290: 6c22 973d c214 e9bc ad39 e63b 7f50 0dbf
000002a0: f9bf 23be 5676 353c 1c1d ac3e 7676 b43b
000002b0: 5347 84be d41c 963d d6e3 42be c9d2 09be
000002c0: df79 e1be 9ea3 99be 3147 8d3e 7aae 0c3e
000002d0: 7d3c 53be 11d3 7d3e 292e cd3e dcb3 b5be
000002e0: f948 7f3e 5c34 813e e248 6a3e 23d7 ef3e
000002f0: 488c 03bf a649 a5be fa14 853e 5a92 d83d
00000300: a60a 8b3e 4c36 29be 4249 a7be d520 b4bd
00000310: ee9f d2bc 019e 6d3c 838c c63d e54c 28bf
00000320: c7e9 303e 1347 03bf e25b 313e 415d 933e
00000330: 48c7 8b3e 3aaa 453e 2ebb 9c3e f577 923e
00000340: e6c1 b8bd 364b 9c3e 48c4 d5be 94a1 e6be
00000350: f7fe da3d 0a53 c23c fd55 cdbe 8709 a8be
00000360: cb42 9fbe 1ec4 b83e 4678 a13e f82c 3bbe
00000370: 546f 50be ecd3 8e3e 099f 073e 0001 a5be
00000380: c8a4 c3be bea3 2cbd bd7e 0bbd cf2c debc
00000390: 6e09 273e 5902 2d3e 550e 3e3e ddac bb3c
000003a0: 7706 903e f2ae 50be 80db cbbd 7c9b 953e
000003b0: 2fa9 263e 27df 6abe 3caa 013e 3f4e bbbe
000003c0: 1f71 01bf 7d25 d73e 4bc8 f8be 35be d7be
000003d0: ce71 333d f4b1 ebbe a2bb 773e cfce e6be
000003e0: 0c74 06be 73ab 67be 177e efbc 2c0c a33e
000003f0: 9800 46be bcd2 b03e dd10 0e3c b405 413e

sequential_18/dense_56/BiasAdd/ReadVariableOp f4 [16]
-0.22002229 -0.019643884 0.081628464 0.23083095 0.0551524 -0.20750852 0.0568646 0.040700547
0.057204623 0.15028708 -0.01466702 0.09072295 -0.08166473 -0.10663941 -0.066716805 0.010021271
00000000: 864d 61be 36ec a0bc d32c a73d f35e 6c3e
00000010: 7ce7 613d 1d7d 54be dbea 683d 9eb5 263d
00000020: 654f 6a3d dbe4 193e f14d 70bc f4cc b93d
00000030: d73f a7bd c365 dabd d2a2 88bd 4230 243c

sequential_18/dense_55/BiasAdd/ReadVariableOp f4 [50]
0.013585333 0.17634624 0.27982986 -0.0026480337 0.17758565 -0.112998284 0.08502411 0.036515333
0.1980652 0.15318939 0.11500213 0.0100576505 -0.17070134 0.3044289 0.17056547 0.2690067
-0.09043116 0.050969146 0.04844164 0.11349646 0.12733553 0.1654064 0.01076319 0.051029183
0.27505583 -0.018839736 -0.2736987 -0.05476541 0.33492464 0.2744452 -0.07822204 0.27980685
0.34933072 -0.35877848 0.31110805 -0.1591502 0.37961638 0.22094084 0.0772987 -0.33436272
0.45810288 0.26250783 0.1844395 0.23462749 -0.037251428 0.17819561 -0.018903818 0.37190342
0.15730491 0.08942703
00000000: 0495 5e3c 1c94 343e dc45 8f3e a28a 2dbb
00000010: 03d9 353e a56b e7bd 1f21 ae3d 1a91 153d
00000020: 9bd1 4a3e aedd 1c3e 3d86 eb3d d8c8 243c
00000030: 55cc 2ebe 1bde 9b3e b7a8 2e3e 3fbb 893e
00000040: f933 b9bd 06c5 503d be6a 463d d570 e83d
00000050: 3f64 023e 4c60 293e 1758 303c fa03 513d
00000060: 1ed4 8c3e ca55 9abc 3c22 8cbe b251 60bd
00000070: 3e7b ab3e 1584 8c3e e032 a0bd d842 8f3e
00000080: 7adb b23e d0b1 b7be 8e49 9f3e 45f8 22be
00000090: 145d c23e 513e 623e c84e 9e3d 9731 abbe
000000a0: 768c ea3e 6d67 863e b5dd 3c3e 3042 703e
000000b0: f494 18bd e978 363e 2edc 9abc 206a be3e
000000c0: 8a14 213e 8525 b73d

sequential_18/dense_54/BiasAdd/ReadVariableOp f4 [100]
-0.14478664 -0.10287361 0.16333818 -0.14482902 0.23670918 -0.047855843 0.06687076 -0.05985735
-0.15716542 0.13708176 -0.2042528 -0.008607073 -0.2589538 -0.059055157 -0.28699523 0.0102866795
-0.21713743 -0.09500567 -0.0920412 -0.064943984 -0.18049103 -0.21655004 -0.08969645 0.041860647
-0.083547875 -0.028020978 -0.12725689 -0.120334424 -0.05243552 -0.19190434 0.15829273 -0.23069659
0.011728777 -0.26063326 -0.09098959 0.19673441 -0.08606341 0.03560626 0.16530703 -0.0003206918
0.15755518 0.08161636 0.004632086 -0.110553496 -0.19110668 0.24677792 -0.2802195 0.17391084
-0.15567793 -0.14285176 0.019631496 -0.054679926 0.02131613 0.04552346 -0.06588289 -0.17897552
0.0012151839 0.07374533 -0.1776339 0.11670436 -0.2584725 -0.28329152 0.051316332 -0.23446307
-0.03052358 0.062461846 -0.10170389 -0.042572998 0.044152126 0.13637637 0.14549446 -0.13500287
0.060077764 -0.28027064 0.10135478 -0.10521607 -0.13733725 0.08119822 -0.079854 0.13970709
-0.14631817 0.14936428 0.01568122 -0.2121876 -0.039159626 0.06274983 -0.11971906 0.20681968
-0.2456611 -0.24350896 0.16086502 -0.117773734 0.08048163 -0.107971616 -0.07082334 0.18151186
-0.2478258 0.19152857 -0.3559279 -0.1904455
00000000: f342 14be 66af d2bd 2042 273e 0f4e 14be
00000010: e463 723e 7d04 44bd 89f3 883d fb2c 75bd
00000020: f9ef 20be 295f 0c3e a527 51be ae04 0dbc
00000030: 9895 84be d2e3 71bd 0af1 92be 7689 283c
00000040: 4659 5ebe 5592 c2bd 1980 bcbd 5a01 85bd
00000050: a4d2 38be 4bbf 5dbe c6b2 b7bd 1276 2b3d
00000060: 261b abbd 408c e5bc a14f 02be e571 f6bd
00000070: a1c6 56bd 9282 44be 7d17 223e ba3b 6cbe
00000080: 0e2a 403c b971 85be c058 babd bf74 493e
00000090: 0342 b0bd dfd7 113d 3f46 293e 8622 a8b9
000000a0: 2556 213e 7a26 a73d c1c8 973b df69 e2bd
000000b0: 78b1 43be 5ab3 7c3e ee78 8fbe af15 323e
000000c0: 096a 1fbe bb47 12be 3bd2 a03c 0ff8 5fbd
000000d0: 2a9f ae3c cf76 3a3d 9ced 86bd 5c45 37be
000000e0: ce46 9f3a cb07 973d a9e5 35be b202 ef3d
000000f0: 8256 84be 960b 91be 1331 523d 1617 70be
00000100: 960c fabc fed7 7f3d 214a d0bd 0661 2ebd
00000110: dcd8 343d 3fa6 0b3e 80fc 143e 313e 0abe
00000120: 1a14 763d a27f 8fbe 1893 cf3d 867b d7bd
00000130: 23a2 0cbe 414b a63d 7e8a a3bd 600f 0f3e
00000140: 6ed4 15be f3f2 183e e775 803c b547 59be
00000150: d865 20bd fc82 803d 442f f5bd 8ac8 533e
00000160: 958e 7bbe 6a5a 79be cdb9 243e 5b33 f1bd
00000170: 8ed3 a43d 3920 ddbd d40b 91bd 3fde 393e
00000180: 0cc6 7dbe 1120 443e 2f3c b6be 2504 43be

sequential_18/dense_54/MatMul i1 [100, 86] scale=0.012278993 zero_point=0
0.024557985 -1.0805514 0.012278993 -0.1596269 0.09823194 -0.14734791 -0.036836978 -0.073673956
-0.23330086 -0.12278993 -0.3683698 0.073673956 0.012278993 -0.14734791 0.1841849 0.012278993
-0.073673956 0.0 0.036836978 0.19646388 0.0 -0.012278993 -0.13506892 -0.04911597
-0.12278993 0.036836978 0.09823194 0.012278993 0.08595295 -0.12278993 -0.23330086 0.012278993
-0.41748574 0.0 -0.35609078 0.20874287 0.08595295 -0.073673956 -0.20874287 -0.11051093
-0.27013785 0.036836978 -0.29469582 0.012278993 0.23330086 -0.09823194 0.22102186 -0.061394963
0.27013785 0.024557985 0.25785884 0.024557985 0.22102186 0.0 0.04911597 -0.073673956
-0.04911597 0.0 -0.12278993 0.0 -0.41748574 0.012278993 0.11051093 0.0
-0.23330086 -0.061394963 -0.42976475 -0.073673956 -0.30697483 -0.024557985 0.09823194 0.08595295
0.073673956 0.024557985 -0.036836978 -0.012278993 -0.13506892 0.0 0.13506892 -0.061394963
-0.012278993 0.012278993 -0.012278993 0.04911597 0.0 0.024557985 -0.04911597 0.19646388
0.09823194 -0.04911597 0.22102186 -0.073673956 0.20874287 0.04911597 0.25785884 -0.11051093
0.24557985 -0.036836978 0.3192538 0.012278993 0.25785884 -0.036836978 -0.04911597 0.12278993
-0.12278993 -0.04911597 0.19646388 -0.073673956 0.25785884 0.13506892 0.14734791 0.036836978
0.29469582 0.12278993 -0.23330086 -0.09823194 -0.061394963 0.061394963 0.0 0.012278993
-0.19646388 0.11051093 -0.46660173 0.061394963 -0.1719059 0.08595295 -0.4788807 0.14734791
-0.5034387 0.14734791 0.024557985 -0.04911597 0.04911597 -0.036836978 0.036836978 -0.061394963
-0.073673956 -0.08595295 0.08595295 -0.09823194 -0.04911597 -0.036836978 -0.08595295 -0.036836978
-0.024557985 -0.024557985 0.036836978 0.14734791 -0.1841849 -0.11051093 -0.24557985 0.012278993
-0.23330086 0.0 -0.1719059 -0.1596269 -0.25785884 0.036836978 -0.061394963 0.14734791
0.3683698 0.12278993 0.39292777 -0.11051093 -0.24557985 -0.012278993 -0.073673956 0.012278993
0.27013785 0.0 0.4788807 0.024557985 0.13506892 -0.65078664 -0.024557985 0.12278993
-0.04911597 0.073673956 -0.1841849 0.036836978 -0.08595295 0.012278993 -0.11051093 0.036836978
0.036836978 0.14734791 -0.46660173 0.11051093 -0.61394966 0.0 -0.3683698 -0.08595295
-0.012278993 0.12278993 -0.012278993 0.08595295 0.28241682 -0.073673956 0.61394966 -0.1596269
0.036836978 0.11051093 0.20874287 -0.012278993 0.5402757 -0.061394963 0.93320346 -0.22102186
0.11051093 0.08595295 0.3315328 0.09823194 0.40520677 0.036836978 0.7612975 -0.13506892
0.20874287 -0.09823194 0.012278993 0.036836978 0.061394963 0.04911597 0.061394963 0.11051093
0.1596269 0.073673956 0.012278993 0.12278993 -0.11051093 0.19646388 0.04911597 -0.012278993
-0.12278993 -0.012278993 -0.11051093 -0.073673956 -0.073673956 0.0 -0.19646388 -0.1719059
-0.19646388 -0.08595295 -0.024557985 0.073673956 0.024557985 -0.09823194 -0.024557985 -0.1841849
0.061394963 -0.1719059 0.024557985 -0.036836978 0.0 -0.1719059 0.12278993 -0.19646388
00000000: 02a8 01f3 08f4 fdfa edf6 e206 01f4 0f01
00000010: fa00 0310 00ff f5fc f603 0801 07f6 ed01
00000020: de00 e311 07fa eff7 ea03 e801 13f8 12fb
00000030: 1602 1502 1200 04fa fc00 f600 de01 0900
00000040: edfb ddfa e7fe 0807 0602 fdff f500 0bfb
00000050: ff01 ff04 0002 fc10 08fc 12fa 1104 15f7
00000060: 14fd 1a01 15fd fc0a f6fc 10fa 150b 0c03
00000070: 180a edf8 fb05 0001 f009 da05 f207 d90c
00000080: d70c 02fc 04fd 03fb faf9 07f8 fcfd f9fd
00000090: fefe 030c f1f7 ec01 ed00 f2f3 eb03 fb0c
000000a0: 1e0a 20f7 ecff fa01 1600 2702 0bcb fe0a
000000b0: fc06 f103 f901 f703 030c da09 ce00 e2f9
000000c0: ff0a ff07 17fa 32f3 0309 11ff 2cfb 4cee
000000d0: 0907 1b08 2103 3ef5 11f8 0103 0504 0509
000000e0: 0d06 010a f710 04ff f6ff f7fa fa00 f0f2
000000f0: f0f9 fe06 02f8 fef1 05f2 02fd 00f2 0af0

sequential_18/dense_55/MatMul i1 [50, 100] scale=0.0071427342 zero_point=0
0.25713843 0.19999656 0.17856836 0.29999483 0.30713758 -0.12856922 -0.15714015 0.2285675
0.23571023 -0.035713673 0.10714101 0.057141874 0.15714015 0.18571109 -0.12856922 -0.16428289
0.071427345 -0.14285469 0.24285297 -0.071427345 0.21428202 0.09285554 0.121426485 -0.078570075
0.12856922 0.2928521 0.2285675 0.13571195 0.0 0.26428115 -0.0071427342 -0.26428115
0.0 0.2499957 0.16428289 0.10714101 -0.06428461 0.19999656 0.34999397 -0.04999914
-0.06428461 -0.19999656 0.21428202 0.14999741 0.22142476 0.2071393 0.2071393 -0.11428375
-0.10714101 0.0142854685 0.3357085 -0.2714239 0.19285382 -0.12856922 0.04999914 -0.0142854685
0.32142305 0.19999656 -0.028570937 -0.0071427342 0.19285382 0.16428289 -0.15714015 0.30713758
-0.28570938 0.035713673 -0.042856406 0.2071393 0.042856406 0.057141874 -0.071427345 0.4357068
0.24285297 -0.121426485 -0.17142563 0.057141874 0.28570938 -0.0071427342 0.40713584 -0.23571023
0.2499957 -0.028570937 0.0 0.057141874 0.021428203 0.042856406 -0.26428115 0.09285554
0.0071427342 0.32142305 0.078570075 -0.042856406 -0.19285382 0.035713673 0.057141874 0.17142563
0.32142305 0.2714239 0.11428375 0.12856922 0.12856922 0.121426485 -0.06428461 -0.035713673
0.028570937 -0.121426485 -0.121426485 -0.16428289 0.0 0.23571023 0.09285554 0.09999828
-0.0142854685 -0.23571023 0.021428203 -0.13571195 0.06428461 -0.11428375 -0.028570937 0.2285675
0.121426485 0.16428289 -0.23571023 0.22142476 0.09999828 -0.2071393 0.021428203 -0.39999312
-0.27856663 0.042856406 -0.06428461 -0.06428461 0.14285469 -0.17142563 0.021428203 0.30713758
-0.08571281 -0.071427345 -0.071427345 0.071427345 -0.11428375 -0.057141874 -0.3357085 -0.26428115
0.25713843 0.3142803 0.15714015 -0.08571281 0.17856836 0.10714101 0.15714015 -0.2714239
-0.29999483 -0.028570937 0.028570937 -0.37142217 0.14285469 0.08571281 0.19999656 -0.021428203
0.11428375 -0.16428289 0.06428461 -0.14999741 0.078570075 -0.14285469 -0.04999914 0.21428202
-0.55713326 -0.36427945 0.042856406 0.2714239 -0.3142803 0.19285382 0.14285469 0.057141874
-0.071427345 -0.14285469 -0.3357085 -0.09285554 0.057141874 0.0142854685 -0.17142563 -0.04999914
-0.17142563 0.06428461 0.30713758 0.09285554 0.2499957 0.11428375 0.12856922 -0.13571195
-0.13571195 0.09285554 -0.11428375 0.4142786 -0.12856922 0.06428461 -0.14999741 0.15714015
0.23571023 -0.17142563 0.021428203 -0.4785632 -0.23571023 0.42142132 -0.25713843 -0.021428203
-0.19285382 0.021428203 -0.14285469 0.27856663 -0.10714101 -0.18571109 -0.042856406 0.021428203
0.28570938 0.057141874 0.32142305 -0.36427945 0.11428375 -0.14285469 0.021428203 -0.23571023
0.14285469 -0.028570937 -0.16428289 0.09999828 0.21428202 0.10714101 -0.3142803 0.30713758
-0.042856406 0.23571023 0.021428203 -0.2285675 -0.078570075 0.19999656 -0.121426485 0.071427345
0.078570075 -0.0071427342 0.60713243 -0.10714101 -0.057141874 -0.09999828 0.21428202 0.121426485
0.0071427342 0.28570938 -0.17142563 0.25713843 0.24285297 -0.28570938 -0.0142854685 -0.028570937
00000000: 241c 192a 2bee ea20 21fb 0f08 161a eee9
00000010: 0aec 22f6 1e0d 11f5 1229 2013 0025 ffdb
00000020: 0023 170f f71c 31f9 f7e4 1e15 1f1d 1df0
00000030: f102 2fda 1bee 07fe 2d1c fcff 1b17 ea2b
00000040: d805 fa1d 0608 f63d 22ef e808 28ff 39df
00000050: 23fc 0008 0306 db0d 012d 0bfa e505 0818
00000060: 2d26 1012 1211 f7fb 04ef efe9 0021 0d0e
00000070: fedf 03ed 09f0 fc20 1117 df1f 0ee3 03c8
00000080: d906 f7f7 14e8 032b f4f6 f60a f0f8 d1db
00000090: 242c 16f4 190f 16da d6fc 04cc 140c 1cfd
000000a0: 10e9 09eb 0bec f91e b2cd 0626 d41b 1408
000000b0: f6ec d1f3 0802 e8f9 e809 2b0d 2310 12ed
000000c0: ed0d f03a ee09 eb16 21e8 03bd df3b dcfd
000000d0: e503 ec27 f1e6 fa03 2808 2dcd 10ec 03df
000000e0: 14fc e90e 1e0f d42b fa21 03e0 f51c ef0a
000000f0: 0bff 55f1 f8f2 1e11 0128 e824 22d8 fefc
