model/keypoint_classifier/keypoint_classifier.tflite (tflite, 4904 bytes, 6 tensors)

sequential_2/dense_8/MatMul f4 [2, 10]
-0.43528205 0.35519624 -0.6212816 0.15735614 0.4768911 0.2775614 -0.6611889 -0.28520542
-0.44408607 -0.060517892 0.2277856 -0.74389285 -0.15283106 0.5963419 0.54560757 -0.3063376
0.34066218 -0.7568187 -0.6269754 0.6830847
00000000: 4add debe 48dc b53e 500c 1fbf f821 213e
00000010: 122b f43e 871c 8e3e ad43 29bf 7206 92be
00000020: 405f e3be 9ce1 77bd a140 693e c36f 3ebf
00000030: bf7f 1cbe dda9 183f f0ac 0b3f 48d8 9cbe
00000040: 466b ae3e dfbe 41bf 7681 20bf a4de 2e3f

sequential_2/dense_7/MatMul f4 [10, 20]
-0.39434373 -0.18041818 0.36453912 -0.19821373 0.08519378 0.038830884 0.064169765 -0.31897065
-0.34396067 0.41624403 0.11843943 -0.3122571 0.20237449 -0.33009443 -0.02033521 0.5138789
0.22354087 -0.18858483 0.3651913 0.3354772 0.19837412 -0.43757933 0.05557213 -0.13621116
-0.39936343 0.28177065 0.19572306 0.35489646 0.15104236 0.08835332 -0.10804499 -0.104673386
0.4757708 -0.04686909 0.19594024 0.09393722 -0.23465459 0.10462237 -0.41062 0.34822145
0.2921452 0.4089001 -0.036013868 -0.27262756 0.31308413 -0.26042286 -0.122497246 -0.29901585
0.070984825 -0.19770624 -0.23353688 -0.3748292 -0.32036725 -0.24924873 -0.14258571 0.28867316
0.032919593 0.097221024 0.45981577 0.008633893 -0.44331658 0.19057555 0.44164532 -0.028885385
-0.1527448 -0.22753122 -0.122638814 -0.2699751 -0.32234657 0.31042627 0.13056618 0.15052736
0.17737938 -0.20558392 -0.23478796 -0.14537336 0.30648017 0.023591008 -0.06274613 -0.18297787
0.1245656 0.29914537 0.45329234 -0.22193716 -0.059357326 0.29012945 0.28893974 0.11160737
0.21501149 -0.3585476 0.069886774 -0.49351904 -0.06949966 0.4184741 -0.04868664 0.45276472
-0.43099007 0.16298704 -0.28549582 0.16029981 0.0667617 0.0531192 -0.19042253 0.028600922
-0.37787214 0.4053104 0.42089936 -0.008333885 -0.073245645 -0.086217 0.2646944 0.32059568
0.49972367 -0.21767583 -0.14167084 -0.19487092 -0.38482875 0.14286269 0.07470729 -0.0040280996
0.38152027 0.0072366903 -0.0059376596 -0.5064337 -0.18963434 -0.07394296 -0.41533548 0.1625671
0.2835931 0.46301755 0.3344281 -0.4675925 -0.18717358 0.10964139 -0.026916571 0.18853645
-0.31970188 0.087015525 -0.0074843653 0.35485372 0.38339934 0.0002446156 -0.3924644 0.22114229
0.06639558 0.2841386 0.24252003 0.34565485 0.08357991 -0.13549937 -0.15063588 0.26527297
-0.030727228 0.19972569 0.34792835 -0.02873512 0.09294321 0.5467987 -0.19311592 0.044272605
-0.2006928 0.045350853 -0.36484575 0.26438168 0.062796734 0.46459484 0.2689077 0.07248042
0.24368966 -0.24761347 -0.28459024 0.5415585 0.391544 0.21008988 0.0617026 -0.0031799767
-0.25916237 0.15211016 0.15571645 -0.004171327 0.39316192 0.081893235 0.13170041 -0.14220047
0.3401058 0.040349077 -0.18471098 -0.32435757 0.12736791 -0.14325546 -0.24903111 0.26935604
-0.11522021 0.17873463 -0.39333734 -0.01987575 0.07448132 -0.37375265 0.04030576 0.070894465
00000000: 6ce7 c9be 8bbf 38be dfa4 ba3e 8af8 4abe
00000010: 147a ae3d 220d 1f3d 706b 833d 1f50 a3be
00000020: 9d1b b0be f01d d53e 5f90 f23d 2ae0 9fbe
00000030: 423b 4f3e 2302 a9be 0796 a6bc 918d 033f
00000040: e6e7 643e 621c 41be 5bfa ba3e abc3 ab3e
00000050: 9622 4b3e 660a e0be 9a9f 633d f07a 0bbe
00000060: 5d79 ccbe 3e44 903e a06b 483e fdb4 b53e
00000070: d9aa 1a3e 96f2 b43d b146 ddbd 005f d6bd
00000080: 3b98 f33e cef9 3fbd 8fa4 483e 2862 c03d
00000090: 4b49 70be 4144 d63d c93c d2be 154a b23e
000000a0: 0e94 953e 5b5b d13e 4783 13bd d795 8bbe
000000b0: 904c a03e 2556 85be d6df fabd 9b18 99be
000000c0: 7e60 913d 8173 4abe 4b24 6fbe 9de9 bfbe
000000d0: 2d07 a4be 0f3b 7fbe fd01 12be f8cc 933e
000000e0: b2d6 063d d11b c73d f96c eb3e 2c75 0d3c
000000f0: 64fa e2be 3d26 433e 561f e23e 0ba1 ecbc
00000100: 2269 1cbe f2fd 68be 0f2a fbbd 2d3a 8abe
00000110: 9c0a a5be 31f0 9e3e 24b3 053e d823 1a3e
00000120: f1a2 353e 9784 52be 416c 70be c1dc 14be
00000130: f8ea 9c3e ee41 c13c 0b81 80bd 8d5e 3bbe
00000140: 401c ff3d 9529 993e ef15 e83e 7f43 63be
00000150: ab20 73bd d98b 943e e9ef 933e 6892 e43d
00000160: f92b 5c3e 8d93 b7be cc20 8f3d 87ae fcbe
00000170: d655 8ebd 3d42 d63e a46b 47bd c7d0 e73e
00000180: bbaa dcbe 13e6 263e 822c 92be a225 243e
00000190: 5cba 883d 8593 593d 20fe 42be 7b4c ea3c
000001a0: 7578 c1be d884 cf3e 1f80 d73e d98a 08bc
000001b0: d001 96bd 8a92 b0bd 0686 873e 1e25 a43e
000001c0: c8db ff3e 6ae6 5ebe 2912 11be 3e8c 47be
000001d0: 4608 c5be 994a 123e 2300 993d 26fe 83bb
000001e0: a056 c33e c221 ed3b b390 c2bb a4a5 01bf
000001f0: 812f 42be 686f 97bd daa6 d4be fd77 263e
00000200: 1d33 913e a310 ed3e 293a ab3e 4968 efbe
00000210: 6eaa 3fbe aa8b e03d 2480 dcbc b30f 413e
00000220: f7af a3be 3235 b23d 683f f5bb 63af b53e
00000230: eb4c c43e c03f 8039 18f1 c8be 2073 623e
00000240: 68fa 873d 9d7a 913e 2c57 783e acf9 b03e
00000250: f22b ab3d 59c0 0abe 4b40 1abe dcd1 873e
00000260: abb7 fbbc e484 4c3e aa23 b23e ea65 ebbc
00000270: 0259 be3d 00fb 0b3f 2ec0 45be 3157 353d
00000280: 6a82 4dbe d1c1 393d 10cd babe 095d 873e
00000290: 939b 803d 60df ed3e 45ae 893e 9d70 943d
000002a0: c889 793e 638e 7dbe d0b5 91be 94a3 0a3f
000002b0: 7578 c83e cd21 573e debb 7c3d 2867 50bb
000002c0: eeb0 84be c4c2 1b3e 2274 1f3e a1af 88bb
000002d0: 854c c93e a4b7 a73d 79dc 063e 009d 11be
000002e0: 5922 ae3e 1345 253d e024 3dbe 3212 a6be
000002f0: bc6c 023e 8fb1 12be 0302 7fbe 09e9 893e
00000300: 93f8 ebbd 3606 373e 8363 c9be 78d2 a2bc
00000310: aa89 983d 825c bfbe a717 253d 1e31 913d

sequential_2/dense_8/BiasAdd/ReadVariableOp f4 [2]
0.06831423 -0.06831424
00000000: 55e8 8b3d 56e8 8bbd

sequential_2/dense_7/BiasAdd/ReadVariableOp f4 [10]
-0.028216073 0.08965988 0.020759152 -0.024715422 -0.05810274 0.10444043 -0.049811006 0.08806691
0.10690965 -0.016955847
00000000: 6525 e7bc 999f b73d 190f aa3c ff77 cabc
00000010: 24fd 6dbd dde4 d53d a006 4cbd 6d5c b43d
00000020: 72f3 da3d fde6 8abc

sequential_2/dense_6/BiasAdd/ReadVariableOp f4 [20]
-0.010243885 -0.04893475 -0.04901465 0.056772888 -0.025285488 0.084268056 0.054271992 0.09956162
-0.013785198 -0.004771184 -0.02580202 0.09298191 0.07392254 -0.046734165 0.085205026 -0.031943325
-0.040487558 0.05511468 0.0035028548 0.059553813
00000000: f8d5 27bc ce6f 48bd 96c3 48bd b08a 683d
00000010: 8323 cfbc bb94 ac3d 4f4c 5e3d f6e6 cb3d
00000020: 50db 61bc 9857 9cbb c25e d3bc 4d6d be3d
00000030: b364 973d 536c 3fbd f97f ae3d 01d7 02bd
00000040: 48d6 25bd eebf 613d 2790 653b b3ee 733d

sequential_2/dense_6/MatMul i1 [20, 84] scale=0.0028018644 zero_point=0
0.081254065 0.14849882 -0.19332865 -0.19052678 -0.14009322 0.09806526 -0.0392261 -0.04482983
0.10366898 -0.14849882 0.15970626 -0.22975288 -0.10366898 -0.25496966 -0.11487644 -0.14009322
0.24936593 0.106470846 0.12888576 0.03642424 -0.13729136 -0.10366898 0.02521678 0.14289509
0.18212119 0.008405593 0.17651746 -0.17931932 0.2045361 0.022414915 0.12328203 -0.26897898
-0.11207458 0.06444288 0.15410255 -0.20733796 -0.16811186 0.17091373 0.2045361 -0.23255475
0.22414915 -0.14849882 0.22975288 -0.106470846 -0.11487644 -0.16250813 -0.0028018644 0.005603729
-0.21294169 -0.033622373 0.086857796 -0.011207458 0.18772492 0.033622373 0.14009322 -0.23815848
-0.04482983 -0.27738458 -0.1260839 0.06444288 0.10086712 -0.053235423 -0.11207458 -0.27178085
0.17931932 0.14849882 -0.2605734 0.042027965 0.0 0.09246153 -0.10086712 0.061641015
-0.008405593 -0.19613051 -0.14009322 -0.07004661 0.016811186 -0.22414915 -0.08405593 -0.047631696
-0.2605734 0.014009322 -0.12048017 -0.18492305 -0.11487644 0.0 -0.058839153 0.15410255
0.10086712 0.09806526 0.10927271 0.23815848 0.11207458 -0.011207458 0.13168763 0.09526339
-0.07565034 -0.15130068 -0.21294169 -0.10927271 0.058839153 -0.09526339 0.17651746 0.05043356
-0.07284848 -0.01961305 0.14849882 -0.016811186 0.086857796 0.1569044 -0.1569044 0.016811186
0.16811186 -0.053235423 0.22414915 -0.09246153 0.23815848 -0.2045361 0.22975288 0.07565034
-0.005603729 -0.28018644 0.1569044 -0.05043356 0.19332865 -0.05603729 -0.09246153 0.10366898
0.09526339 0.047631696 -0.086857796 -0.12888576 0.21013983 0.20173424 0.13729136 0.0784522
0.016811186 -0.030820508 0.008405593 -0.09246153 -0.10366898 -0.16250813 0.18492305 -0.1569044
0.03642424 0.022414915 -0.1260839 0.0028018644 -0.11487644 0.07004661 0.061641015 -0.030820508
-0.15970626 0.067244746 0.22134729 -0.26897898 -0.07565034 -0.12048017 -0.19332865 0.014009322
0.061641015 0.011207458 -0.14569695 -0.28579018 0.1260839 -0.17091373 -0.24936593 -0.07284848
-0.17091373 0.17651746 0.0784522 -0.0028018644 0.07565034 0.15130068 -0.008405593 0.008405593
-0.02521678 -0.15130068 0.14289509 -0.12048017 -0.27738458 -0.12328203 0.033622373 -0.29419577
0.086857796 0.19052678 -0.16250813 -0.19332865 0.17931932 0.005603729 0.09246153 -0.09246153
-0.11207458 -0.24936593 -0.042027965 0.09246153 -0.13729136 0.033622373 0.24096034 -0.2829883
0.016811186 -0.02521678 0.23255475 0.01961305 -0.0392261 0.13168763 0.01961305 -0.26617712
0.21854542 -0.22695102 0.081254065 -0.12048017 -0.19052678 0.25777152 0.26897898 -0.014009322
-0.17931932 0.086857796 0.06444288 -0.047631696 -0.0028018644 -0.033622373 0.18772492 -0.09806526
0.09806526 0.0028018644 -0.07004661 -0.21574356 0.16250813 0.23815848 0.005603729 0.06444288
0.21294169 -0.2605734 -0.18212119 0.17371559 -0.17371559 -0.14569695 -0.16811186 -0.21013983
0.07004661 0.16811186 -0.09806526 0.12048017 -0.05603729 0.03642424 0.09246153 -0.2521678
0.106470846 0.0028018644 -0.17371559 -0.17091373 -0.23255475 0.0392261 -0.042027965 0.01961305
00000000: 1d35 bbbc ce23 f2f0 25cb 39ae dba5 d7ce
00000010: 5926 2e0d cfdb 0933 4103 3fc0 4908 2ca0
00000020: d817 37b6 c43d 49ad 50cb 52da d7c6 ff02
00000030: b4f4 1ffc 430c 32ab f09d d317 24ed d89f
00000040: 4035 a30f 0021 dc16 fdba cee7 06b0 e2ef
00000050: a305 d5be d700 eb37 2423 2755 28fc 2f22
00000060: e5ca b4d9 15de 3f12 e6f9 35fa 1f38 c806
00000070: 3ced 50df 55b7 521b fe9c 38ee 45ec df25
00000080: 2211 e1d2 4b48 311c 06f5 03df dbc6 42c8
00000090: 0d08 d301 d719 16f5 c718 4fa0 e5d5 bb05
000000a0: 1604 cc9a 2dc3 a7e6 c33f 1cff 1b36 fd03
000000b0: f7ca 33d5 9dd4 0c97 1f44 c6bb 4002 21df
000000c0: d8a7 f121 cf0c 569b 06f7 5307 f22f 07a1
000000d0: 4eaf 1dd5 bc5c 60fb c01f 17ef fff4 43dd
000000e0: 2301 e7b3 3a55 0217 4ca3 bf3e c2cc c4b5
000000f0: 193c dd2b ec0d 21a6 2601 c2c3 ad0e f107
