model/keypoint_classifier/keypoint_classifier.tflite (tflite, 24832 bytes, 8 tensors)

sequential_3/dense_14/BiasAdd/ReadVariableOp f4 [23]
0	0xbd83d6ff	-0.064374916
1	0x3ca74e63	0.02042312
2	0xbd66e2fa	-0.056368805
3	0x3d3aafd8	0.045577854
4	0xbcacbaca	-0.021085162
5	0x3c88eabf	0.016713498
6	0xbd6c815d	-0.057740558
7	0x3ce07b22	0.027402464
8	0xbcb0a018	-0.021560714
9	0x3ce1a1b5	0.027542928
10	0xbdafe574	-0.085886866
11	0x3c6ac76c	0.014329772
12	0xbd798ed1	-0.060927216
13	0xbd0c0a1e	-0.034189336
14	0xbc459742	-0.012059988
15	0xbd2eb8fb	-0.04265688
16	0x3b9ac0c5	0.004722687
17	0xbcb72609	-0.022357004
18	0x3dca6dd7	0.098842315
19	0xb8af27a9	-8.3520375e-05
20	0x3d9b47e5	0.07582072
21	0x3da14e20	0.07876229
22	0x3d9642d6	0.07336967

sequential_3/dense_13/BiasAdd/ReadVariableOp f4 [50]
0	0x3cbf1d91	0.023329528
1	0x3da7b5fb	0.08189007
2	0x3dd50d0b	0.104028784
3	0x3d7df2ba	0.06199906
4	0x3d7f98de	0.062401645
5	0x3e02ae54	0.12761813
6	0x3d129005	0.03578188
7	0x3dd3c4de	0.10340284
8	0x3d5f28ae	0.054482155
9	0x3d26fb36	0.040766917
10	0x3dc38673	0.095471285
11	0x3e164be8	0.14677393
12	0x3c6f6360	0.014611095
13	0x3d510b76	0.05103632
14	0x3dd1fc07	0.102531485
15	0x3dde1ee2	0.10845734
16	0x3d383ca6	0.044979714
17	0x3e200ac0	0.15629101
18	0x3e012315	0.12611039
19	0x3d4778e4	0.048699275
20	0x3e18be61	0.14916374
21	0x3dd9f1a6	0.10641794
22	0x3e5ded84	0.21672636
23	0x3e1bcafa	0.15214148
24	0x3de97a70	0.11400306
25	0x3d4d1acc	0.050074384
26	0xbc3c71e1	-0.01150176
27	0x3d5ddfb9	0.054168437
28	0x3daba9db	0.08382007
29	0xbc5ee485	-0.013604288
30	0x3dbc856d	0.092051364
31	0x3e3429d2	0.17594078
32	0x3bb19035	0.005418802
33	0x3dfb5306	0.12271695
34	0x3dcf3d8c	0.10119161
35	0x3e0ab35d	0.13544984
36	0x3c8c0056	0.017090004
37	0x3db5982a	0.088669136
38	0x3e3edb48	0.18638337
39	0x3c5c2531	0.0134366015
40	0x3d2bfd79	0.041989777
41	0x3e09ca4d	0.13456078
42	0x3df707c9	0.12062032
43	0x3d9ef6b0	0.07761896
44	0xbd0af1ea	-0.033922113
45	0x3e2ecc38	0.17070091
46	0x3e339320	0.17536592
47	0x3e3996f7	0.18123995
48	0x3d5b914e	0.05360537
49	0x3d4492f5	0.04799171

sequential_3/dense_12/BiasAdd/ReadVariableOp f4 [100]
0	0x3d38f6e9	0.045157347
1	0x3d91ed31	0.07125319
2	0x3bced777	0.0063123065
3	0x3db76d33	0.08956375
4	0x3c370e89	0.011172899
5	0x3d235cc3	0.039883386
6	0x3daca96a	0.08430751
7	0xbaa1e7a0	-0.0012352355
8	0x3d705264	0.058672324
9	0x3d9bb6bd	0.07603214
10	0x3be41c73	0.006961399
11	0xbbae44a1	-0.00531824
12	0x3c3e0698	0.011598252
13	0x3d3a90af	0.045548137
14	0x3db0c684	0.08631614
15	0x3bf1c0d1	0.007377722
16	0x3db2388d	0.087021925
17	0x3dfb5eb6	0.12273924
18	0x3dab07ae	0.08351074
19	0x3cf13f4a	0.029449124
20	0xbbd347ac	-0.006447753
21	0x3de07267	0.109593205
22	0x3c9da72d	0.019244755
23	0x3c8c4c7b	0.017126312
24	0x3cb6171c	0.022227816
25	0x3ca4d0ce	0.020119097
26	0x3d2e4404	0.042545334
27	0x3da952e0	0.0826776
28	0xbc8792a6	-0.01654942
29	0x3d173a38	0.036920756
30	0x3e0735ff	0.13204192
31	0x3dc87dd1	0.097896226
32	0xbc307188	-0.010769255
33	0x3e19a033	0.15002517
34	0x3d866ba0	0.065634966
35	0x3d98fc21	0.07469965
36	0x3dc28493	0.09497943
37	0xbcc9baeb	-0.024625262
38	0x3cb6bef4	0.02230785
39	0x3dbe305a	0.09286566
40	0xbcb5386e	-0.022121634
41	0x3d0aa92e	0.03385275
42	0xbc3cb2e7	-0.011517263
43	0xbcd3abce	-0.025838759
44	0x3d0f6331	0.035006706
45	0x3e15d311	0.14631297
46	0x3d2aa196	0.041658007
47	0x3d74b5bd	0.05974363
48	0x3ce38292	0.027772222
49	0x3e0e8939	0.13919534
50	0xbce1e109	-0.027573125
51	0x3d723132	0.059128948
52	0x3e38f20b	0.18061082
53	0x3c3d5e7b	0.01155817
54	0x3e084675	0.13308127
55	0x3e269fb5	0.16271861
56	0x3da26de8	0.07931119
57	0x3df39baf	0.11894929
58	0x3d9f6ff0	0.07785022
59	0x3a5d3755	0.0008438726
60	0xbc0afea3	-0.008483562
61	0x3db9409d	0.09045527
62	0x3cc83c89	0.024442928
63	0x3d297fff	0.041381832
64	0xbd137741	-0.0360024
65	0x3cd6e830	0.026233763
66	0x3db78591	0.08961023
67	0x3daf49ad	0.085589744
68	0x3dd0bf69	0.101927586
69	0x3d9237c9	0.071395464
70	0x3d8ab62b	0.06773027
71	0x3d36e348	0.044650346
72	0x3d9b1651	0.07572616
73	0x3d152cca	0.036419667
74	0x3d497216	0.049181066
75	0x3d3dda21	0.046350602
76	0x3c03de92	0.00804867
77	0x3c7457d5	0.014913519
78	0x3cd42794	0.025897779
79	0x3cce0c56	0.025152367
80	0xbc1b712e	-0.009487433
81	0x3cffdfb9	0.031234609
82	0x3d801640	0.06254244
83	0x3d8ff3ed	0.07028947
84	0xbc9ba495	-0.018999377
85	0xbce11b17	-0.027478738
86	0x3e04a7dd	0.1295466
87	0x3dd5c955	0.10438792
88	0x3d7c4de0	0.061597705
89	0x3d3d0132	0.046143718
90	0x3d53faf6	0.051753007
91	0x3e32d76d	0.17464991
92	0xbcf0cf4f	-0.029395727
93	0x3d881a55	0.066456474
94	0x3d369f14	0.044585302
95	0x3dc43af5	0.09581558
96	0xbccb8352	-0.024842892
97	0x3d590a2a	0.05298821
98	0x3d8bb35d	0.0682132
99	0xbbf12430	-0.00735905

sequential_3/dense_11/BiasAdd/ReadVariableOp f4 [80]
0	0x00000000	0.0
1	0x3d24bee5	0.040221114
2	0xbc947d4a	-0.018126149
3	0x3bbcdd79	0.0057637063
4	0xbe74ace0	-0.23894072
5	0x3c4cdb70	0.01250349
6	0xbda1776f	-0.07884108
7	0xbd4788a3	-0.04871429
8	0xbc9ef8f0	-0.019405812
9	0xbc7ce97c	-0.015436526
10	0xbd8b2225	-0.06793622
11	0xbdae723e	-0.08517884
12	0x3d068855	0.03284486
13	0xbd2a843e	-0.041630022
14	0xbe1242e4	-0.14283329
15	0xbd8c9350	-0.06864035
16	0xbd3dc522	-0.04633058
17	0xbcee3d63	-0.029082006
18	0xbd3dd1cb	-0.046342652
19	0xbd87a079	-0.066224046
20	0xbd9e7125	-0.07736424
21	0xbd47588e	-0.048668437
22	0xbdefe1ff	-0.11713027
23	0xbca9e0a7	-0.020737005
24	0x3b38860c	0.002815607
25	0x3d27b194	0.040940836
26	0xbbd706e7	-0.006562102
27	0xbc3b1347	-0.01141817
28	0x3d508c96	0.050915323
29	0xbc5054f5	-0.012715568
30	0xbdab024a	-0.08350046
31	0xbe199807	-0.149994
32	0xbca3aaa8	-0.019978836
33	0xbdeb6869	-0.11494524
34	0xbd075610	-0.03304106
35	0x3e07f1e7	0.13275872
36	0xbc48b759	-0.012250745
37	0xbd5e40e8	-0.05426112
38	0x3c1e4822	0.0096607525
39	0xbd65dbb4	-0.05611773
40	0xbd7d0eb5	-0.061781604
41	0x3dfe54af	0.12418496
42	0x3d8b1851	0.06791747
43	0xbd98fa0f	-0.0746957
44	0xbcaf467a	-0.02139591
45	0x3c9bf851	0.019039305
46	0xbd19fbd0	-0.037593663
47	0x3bf368dd	0.007428272
48	0x3b2d6f1c	0.0026463931
49	0xbd1f842e	-0.038944416
50	0x3c7cf358	0.015438877
51	0xbc8323f7	-0.01600836
52	0xbc3d11a0	-0.011539847
53	0xbc04193a	-0.008062655
54	0xbd71530a	-0.058917083
55	0x3b5be41f	0.0033552719
56	0xbda84e26	-0.08218031
57	0xbc48e59a	-0.0122617725
58	0xbcdfc0f9	-0.027313696
59	0x3c3f5e5d	0.011680213
60	0xbcf6a11c	-0.03010612
61	0xbc9b0c97	-0.018926902
62	0xbe2bdcaf	-0.16783403
63	0xbc8f85f7	-0.017519934
64	0xbe2809a1	-0.16409923
65	0xbd00ec6d	-0.031475473
66	0xbd04b162	-0.032395728
67	0xbc68245b	-0.014168824
68	0xbd7516fb	-0.05983637
69	0x3d202f08	0.039107352
70	0xbd40fef5	-0.047118146
71	0xbe1e3819	-0.15451087
72	0x3d1fa05b	0.038971286
73	0xbc81453b	-0.015780082
74	0x3b1b1121	0.0023661333
75	0xbdbe3771	-0.09287918
76	0xbbbe67e7	-0.005810726
77	0xbcee71be	-0.02910697
78	0x3c6f8013	0.014617938
79	0x3c1fb9e0	0.009748906

sequential_3/dense_11/MatMul i1 [80, 86] scale=0.0072600427 zero_point=0
0	0xf3	-0.09438056
1	0xf7	-0.065340385
2	0x07	0.0508203
3	0xef	-0.12342072
4	0x09	0.065340385
5	0x0e	0.1016406
6	0x17	0.16698098
7	0x08	0.05808034
8	0x14	0.14520085
9	0xea	-0.15972094
10	0x04	0.02904017
11	0xeb	-0.1524609
12	0x03	0.021780128
13	0xef	-0.12342072
14	0xf5	-0.07986047
15	0x0a	0.072600424
16	0x0d	0.09438056
17	0xf6	-0.072600424
18	0x15	0.1524609
19	0xf5	-0.07986047
20	0x04	0.02904017
21	0xf9	-0.0508203
22	0x00	0.0
23	0x0d	0.09438056
24	0x18	0.17424102
25	0x0c	0.08712051
26	0xf7	-0.065340385
27	0xfd	-0.021780128
28	0xf6	-0.072600424
29	0x15	0.1524609
30	0x0b	0.07986047
31	0xe9	-0.16698098
32	0x19	0.18150106
33	0x07	0.0508203
34	0xfc	-0.02904017
35	0xf5	-0.07986047
36	0xfe	-0.014520085
37	0xf1	-0.108900644
38	0x13	0.13794081
39	0xf1	-0.108900644
40	0xfe	-0.014520085
41	0xec	-0.14520085
42	0xec	-0.14520085
43	0xf7	-0.065340385
44	0xf8	-0.05808034
45	0xf1	-0.108900644
46	0x03	0.021780128
47	0xff	-0.0072600427
48	0xf1	-0.108900644
49	0x04	0.02904017
50	0xf4	-0.08712051
51	0xf6	-0.072600424
52	0xf3	-0.09438056
53	0xf5	-0.07986047
54	0x0c	0.08712051
55	0xf5	-0.07986047
56	0x01	0.0072600427
57	0x0c	0.08712051
58	0x03	0.021780128
59	0xfa	-0.043560255
60	0x05	0.036300212
61	0x19	0.18150106
62	0x0d	0.09438056
63	0x05	0.036300212
64	0xfb	-0.036300212
65	0x06	0.043560255
66	0xf5	-0.07986047
67	0xf0	-0.11616068
68	0x0c	0.08712051
69	0x19	0.18150106
70	0xef	-0.12342072
71	0xeb	-0.1524609
72	0x1a	0.18876112
73	0xed	-0.13794081
74	0x18	0.17424102
75	0x14	0.14520085
76	0x0b	0.07986047
77	0xf1	-0.108900644
78	0x05	0.036300212
79	0x06	0.043560255
80	0xfc	-0.02904017
81	0xf7	-0.065340385
82	0xfd	-0.021780128
83	0x14	0.14520085
84	0xf8	-0.05808034
85	0x00	0.0
86	0xed	-0.13794081
87	0xd7	-0.29766175
88	0xfa	-0.043560255
89	0x0c	0.08712051
90	0x06	0.043560255
91	0xf9	-0.0508203
92	0x14	0.14520085
93	0xf5	-0.07986047
94	0x15	0.1524609
95	0x01	0.0072600427
96	0x2c	0.31944188
97	0x15	0.1524609
98	0xf0	-0.11616068
99	0xef	-0.12342072
100	0xe6	-0.18876112
101	0xf4	-0.08712051
102	0x12	0.13068077
103	0xff	-0.0072600427
104	0x03	0.021780128
105	0xe9	-0.16698098
106	0xed	-0.13794081
107	0xdd	-0.25410149
108	0x0e	0.1016406
109	0xfb	-0.036300212
110	0xfc	-0.02904017
111	0xe1	-0.22506133
112	0x0e	0.1016406
113	0x0c	0.08712051
114	0xfd	-0.021780128
115	0xe1	-0.22506133
116	0x09	0.065340385
117	0xdd	-0.25410149
118	0x01	0.0072600427
119	0xfd	-0.021780128
120	0x20	0.23232137
121	0x0c	0.08712051
122	0xfb	-0.036300212
123	0x02	0.014520085
124	0x23	0.25410149
125	0xe5	-0.19602115
126	0x12	0.13068077
127	0xe4	-0.2032812
128	0x13	0.13794081
129	0xec	-0.14520085
130	0x32	0.36300212
131	0x33	0.37026218
132	0x13	0.13794081
133	0x2f	0.34122202
134	0xed	-0.13794081
135	0x19	0.18150106
136	0xda	-0.27588162
137	0x1a	0.18876112
138	0xdf	-0.2395814
139	0x18	0.17424102
140	0x01	0.0072600427
141	0x23	0.25410149
142	0x0a	0.072600424
143	0xf2	-0.1016406
144	0xe9	-0.16698098
145	0x06	0.043560255
146	0xf1	-0.108900644
147	0xf8	-0.05808034
148	0x05	0.036300212
149	0x08	0.05808034
150	0x01	0.0072600427
151	0xf5	-0.07986047
152	0x1e	0.21780129
153	0x0c	0.08712051
154	0xfa	-0.043560255
155	0x16	0.15972094
156	0x28	0.2904017
157	0xf8	-0.05808034
158	0xfa	-0.043560255
159	0x18	0.17424102
160	0xdf	-0.2395814
161	0x13	0.13794081
162	0xb8	-0.5227231
163	0x11	0.12342072
164	0xf8	-0.05808034
165	0x16	0.15972094
166	0x0e	0.1016406
167	0x13	0.13794081
168	0xe7	-0.18150106
169	0x0a	0.072600424
170	0xfb	-0.036300212
171	0xf7	-0.065340385
172	0x14	0.14520085
173	0x77	0.86394507
174	0x19	0.18150106
175	0x17	0.16698098
176	0x0f	0.108900644
177	0x1f	0.22506133
178	0x0c	0.08712051
179	0x01	0.0072600427
180	0xed	-0.13794081
181	0xfa	-0.043560255
182	0x06	0.043560255
183	0xed	-0.13794081
184	0x0d	0.09438056
185	0x05	0.036300212
186	0x03	0.021780128
187	0x19	0.18150106
188	0x05	0.036300212
189	0x1e	0.21780129
190	0x0a	0.072600424
191	0x23	0.25410149
192	0x12	0.13068077
193	0x17	0.16698098
194	0xf4	-0.08712051
195	0x13	0.13794081
196	0xd8	-0.2904017
197	0x08	0.05808034
198	0xf3	-0.09438056
199	0x17	0.16698098
200	0x00	0.0
201	0xed	-0.13794081
202	0x0b	0.07986047
203	0x0e	0.1016406
204	0xf3	-0.09438056
205	0x1d	0.21054123
206	0x09	0.065340385
207	0x0f	0.108900644
208	0xf4	-0.08712051
209	0xf8	-0.05808034
210	0xf2	-0.1016406
211	0x18	0.17424102
212	0x0b	0.07986047
213	0x0d	0.09438056
214	0x04	0.02904017
215	0xf4	-0.08712051
216	0xef	-0.12342072
217	0xf5	-0.07986047
218	0xfe	-0.014520085
219	0xfb	-0.036300212
220	0x04	0.02904017
221	0xe4	-0.2032812
222	0xee	-0.13068077
223	0xbe	-0.4791628
224	0xed	-0.13794081
225	0xb4	-0.55176324
226	0x04	0.02904017
227	0xdd	-0.25410149
228	0x02	0.014520085
229	0xe1	-0.22506133
230	0x03	0.021780128
231	0x02	0.014520085
232	0x04	0.02904017
233	0x1c	0.2032812
234	0xf1	-0.108900644
235	0xd2	-0.33396196
236	0xf9	-0.0508203
237	0xfb	-0.036300212
238	0x22	0.24684145
239	0xf2	-0.1016406
240	0x26	0.27588162
241	0x1a	0.18876112
242	0xee	-0.13068077
243	0x0c	0.08712051
244	0xf4	-0.08712051
245	0x09	0.065340385
246	0x09	0.065340385
247	0x1a	0.18876112
248	0x33	0.37026218
249	0xf8	-0.05808034
250	0xdb	-0.2686216
251	0xe9	-0.16698098
252	0xf7	-0.065340385
253	0x11	0.12342072
254	0xe4	-0.2032812
255	0x10	0.11616068

sequential_3/dense_12/MatMul i1 [100, 80] scale=0.007226361 zero_point=0
0	0x19	0.18065903
1	0xff	-0.007226361
2	0xff	-0.007226361
3	0x1c	0.2023381
4	0x04	0.028905444
5	0xfe	-0.014452722
6	0x05	0.036131807
7	0xfd	-0.021679083
8	0x3b	0.4263553
9	0xf7	-0.06503725
10	0x0f	0.10839541
11	0xd6	-0.30350715
12	0xfb	-0.036131807
13	0x07	0.050584525
14	0xea	-0.15897994
15	0x03	0.021679083
16	0x24	0.260149
17	0x15	0.15175357
18	0xf2	-0.10116905
19	0x17	0.1662063
20	0x00	0.0
21	0x1a	0.18788539
22	0x37	0.39744985
23	0x05	0.036131807
24	0xfd	-0.021679083
25	0x45	0.4986189
26	0xfc	-0.028905444
27	0x0c	0.08671633
28	0x1c	0.2023381
29	0x26	0.27460173
30	0x03	0.021679083
31	0xe9	-0.1662063
32	0xc4	-0.43358165
33	0xf3	-0.093942694
34	0x06	0.043358166
35	0x1f	0.22401719
36	0x05	0.036131807
37	0xeb	-0.15175357
38	0xfe	-0.014452722
39	0x1c	0.2023381
40	0xf9	-0.050584525
41	0x21	0.23846991
42	0x33	0.3685444
43	0x03	0.021679083
44	0xf8	-0.057810888
45	0x15	0.15175357
46	0xd4	-0.31795987
47	0xf6	-0.07226361
48	0x11	0.12284814
49	0xf8	-0.057810888
50	0xde	-0.24569628
51	0xf1	-0.10839541
52	0x0f	0.10839541
53	0x03	0.021679083
54	0x1a	0.18788539
55	0xf5	-0.07948997
56	0x05	0.036131807
57	0x12	0.1300745
58	0x13	0.13730086
59	0x1d	0.20956446
60	0xed	-0.13730086
61	0xd5	-0.31073353
62	0x05	0.036131807
63	0xe5	-0.19511175
64	0x05	0.036131807
65	0xf9	-0.050584525
66	0x0a	0.07226361
67	0x33	0.3685444
68	0x1a	0.18788539
69	0x08	0.057810888
70	0xf4	-0.08671633
71	0xc9	-0.39744985
72	0x06	0.043358166
73	0xeb	-0.15175357
74	0x02	0.014452722
75	0x21	0.23846991
76	0x03	0.021679083
77	0x1b	0.19511175
78	0x0f	0.10839541
79	0x28	0.28905445
80	0x0c	0.08671633
81	0x10	0.115621775
82	0xcd	-0.3685444
83	0xd8	-0.28905445
84	0x09	0.06503725
85	0xe3	-0.20956446
86	0xfa	-0.043358166
87	0xe7	-0.18065903
88	0xfa	-0.043358166
89	0xf8	-0.057810888
90	0xf8	-0.057810888
91	0x28	0.28905445
92	0x01	0.007226361
93	0x10	0.115621775
94	0x21	0.23846991
95	0xfc	-0.028905444
96	0xff	-0.007226361
97	0x02	0.014452722
98	0xfe	-0.014452722
99	0x22	0.24569628
100	0x10	0.115621775
101	0x16	0.15897994
102	0x11	0.12284814
103	0xef	-0.12284814
104	0xe3	-0.20956446
105	0x05	0.036131807
106	0x01	0.007226361
107	0x08	0.057810888
108	0x00	0.0
109	0x03	0.021679083
110	0xf9	-0.050584525
111	0xfd	-0.021679083
112	0x1e	0.21679083
113	0x0e	0.10116905
114	0x08	0.057810888
115	0xfe	-0.014452722
116	0xe3	-0.20956446
117	0x15	0.15175357
118	0xdf	-0.23846991
119	0xf4	-0.08671633
120	0x12	0.1300745
121	0x0c	0.08671633
122	0xd5	-0.31073353
123	0xe5	-0.19511175
124	0xf6	-0.07226361
125	0x0b	0.07948997
126	0xf2	-0.10116905
127	0xec	-0.14452723
128	0xc3	-0.44080803
129	0x3a	0.41912892
130	0x07	0.050584525
131	0x09	0.06503725
132	0xe2	-0.21679083
133	0xca	-0.3902235
134	0x25	0.26737535
135	0x0e	0.10116905
136	0x0c	0.08671633
137	0x0c	0.08671633
138	0xfd	-0.021679083
139	0x03	0.021679083
140	0x08	0.057810888
141	0x03	0.021679083
142	0x1a	0.18788539
143	0x1c	0.2023381
144	0x0f	0.10839541
145	0x36	0.3902235
146	0x01	0.007226361
147	0xed	-0.13730086
148	0x18	0.17343266
149	0xca	-0.3902235
150	0x05	0.036131807
151	0x0b	0.07948997
152	0x08	0.057810888
153	0xf1	-0.10839541
154	0x02	0.014452722
155	0x14	0.14452723
156	0xbd	-0.48416618
157	0x19	0.18065903
158	0xeb	-0.15175357
159	0xed	-0.13730086
160	0x0a	0.07226361
161	0x11	0.12284814
162	0x0f	0.10839541
163	0xff	-0.007226361
164	0xfa	-0.043358166
165	0xca	-0.3902235
166	0xf5	-0.07948997
167	0x30	0.34686533
168	0xef	-0.12284814
169	0x12	0.1300745
170	0xf3	-0.093942694
171	0x08	0.057810888
172	0xfc	-0.028905444
173	0x14	0.14452723
174	0xe2	-0.21679083
175	0x26	0.27460173
176	0xe8	-0.17343266
177	0x01	0.007226361
178	0x37	0.39744985
179	0xca	-0.3902235
180	0x02	0.014452722
181	0xdd	-0.25292262
182	0xed	-0.13730086
183	0xe7	-0.18065903
184	0x02	0.014452722
185	0xd0	-0.34686533
186	0xf9	-0.050584525
187	0xe6	-0.18788539
188	0x15	0.15175357
189	0x34	0.37577078
190	0xdb	-0.26737535
191	0x01	0.007226361
192	0x2a	0.30350715
193	0xf7	-0.06503725
194	0x23	0.25292262
195	0x11	0.12284814
196	0x0f	0.10839541
197	0xff	-0.007226361
198	0x2d	0.32518625
199	0xf9	-0.050584525
200	0x1d	0.20956446
201	0x14	0.14452723
202	0xd2	-0.3324126
203	0xf3	-0.093942694
204	0x19	0.18065903
205	0xf7	-0.06503725
206	0xf7	-0.06503725
207	0x45	0.4986189
208	0xf1	-0.10839541
209	0x10	0.115621775
210	0x0b	0.07948997
211	0x00	0.0
212	0xf5	-0.07948997
213	0x0f	0.10839541
214	0x13	0.13730086
215	0x0a	0.07226361
216	0x16	0.15897994
217	0x01	0.007226361
218	0xfc	-0.028905444
219	0x0e	0.10116905
220	0x17	0.1662063
221	0x22	0.24569628
222	0xf7	-0.06503725
223	0x0b	0.07948997
224	0xf4	-0.08671633
225	0xf4	-0.08671633
226	0xf1	-0.10839541
227	0xe5	-0.19511175
228	0xde	-0.24569628
229	0xf2	-0.10116905
230	0x2f	0.33963898
231	0xf8	-0.057810888
232	0x14	0.14452723
233	0xfb	-0.036131807
234	0xcd	-0.3685444
235	0xf6	-0.07226361
236	0xfc	-0.028905444
237	0xe0	-0.23124355
238	0xfb	-0.036131807
239	0x0f	0.10839541
240	0x10	0.115621775
241	0x18	0.17343266
242	0x09	0.06503725
243	0xd8	-0.28905445
244	0x08	0.057810888
245	0x20	0.23124355
246	0xf3	-0.093942694
247	0xdb	-0.26737535
248	0xed	-0.13730086
249	0xea	-0.15897994
250	0x03	0.021679083
251	0xeb	-0.15175357
252	0x08	0.057810888
253	0xee	-0.1300745
254	0x18	0.17343266
255	0x12	0.1300745

sequential_3/dense_13/MatMul i1 [50, 100] scale=0.006551168 zero_point=0
0	0x08	0.052409343
1	0xf2	-0.09171635
2	0xe4	-0.1834327
3	0x14	0.13102336
4	0x34	0.34066072
5	0x03	0.019653503
6	0xf6	-0.06551168
7	0xf7	-0.058960512
8	0xf7	-0.058960512
9	0x10	0.10481869
10	0xef	-0.111369856
11	0xf2	-0.09171635
12	0x05	0.03275584
13	0x15	0.13757452
14	0x00	0.0
15	0xec	-0.13102336
16	0xff	-0.006551168
17	0xef	-0.111369856
18	0xf0	-0.10481869
19	0xfb	-0.03275584
20	0x06	0.039307006
21	0x11	0.111369856
22	0xfe	-0.013102336
23	0x23	0.22929087
24	0x3b	0.3865189
25	0x1a	0.17033036
26	0x1f	0.20308621
27	0x35	0.3472119
28	0xbc	-0.44547942
29	0xd9	-0.25549555
30	0x28	0.26204672
31	0x12	0.117921025
32	0x08	0.052409343
33	0x00	0.0
34	0xf4	-0.07861401
35	0xe9	-0.15067686
36	0x12	0.117921025
37	0x14	0.13102336
38	0x0a	0.06551168
39	0x29	0.26859787
40	0x19	0.1637792
41	0xfd	-0.019653503
42	0x1a	0.17033036
43	0x27	0.25549555
44	0x25	0.24239321
45	0xf1	-0.09826752
46	0xff	-0.006551168
47	0xf1	-0.09826752
48	0x0b	0.07206285
49	0x22	0.22273971
50	0xb9	-0.46513292
51	0x18	0.15722802
52	0x45	0.4520306
53	0x13	0.12447219
54	0xfa	-0.039307006
55	0xf8	-0.052409343
56	0xfb	-0.03275584
57	0xed	-0.12447219
58	0x02	0.013102336
59	0xef	-0.111369856
60	0x19	0.1637792
61	0x00	0.0
62	0xf8	-0.052409343
63	0xee	-0.117921025
64	0xfa	-0.039307006
65	0xfc	-0.026204672
66	0x1f	0.20308621
67	0x04	0.026204672
68	0x02	0.013102336
69	0xf9	-0.045858175
70	0x18	0.15722802
71	0x0b	0.07206285
72	0xf2	-0.09171635
73	0xdb	-0.24239321
74	0xeb	-0.13757452
75	0xd4	-0.2882514
76	0xf7	-0.058960512
77	0x09	0.058960512
78	0xf1	-0.09826752
79	0xe8	-0.15722802
80	0x27	0.25549555
81	0x1a	0.17033036
82	0x05	0.03275584
83	0x1a	0.17033036
84	0xfa	-0.039307006
85	0xf4	-0.07861401
86	0x1e	0.19653504
87	0x43	0.43892825
88	0x29	0.26859787
89	0x37	0.36031425
90	0x06	0.039307006
91	0xf4	-0.07861401
92	0xe0	-0.20963737
93	0xe8	-0.15722802
94	0x01	0.006551168
95	0x2d	0.29480255
96	0x20	0.20963737
97	0xf7	-0.058960512
98	0xec	-0.13102336
99	0x14	0.13102336
100	0xd9	-0.25549555
101	0x1e	0.19653504
102	0xfd	-0.019653503
103	0x0b	0.07206285
104	0x0e	0.09171635
105	0x0c	0.07861401
106	0x0c	0.07861401
107	0x04	0.026204672
108	0x04	0.026204672
109	0x03	0.019653503
110	0xee	-0.117921025
111	0xe2	-0.19653504
112	0xe9	-0.15067686
113	0xf0	-0.10481869
114	0xf7	-0.058960512
115	0x25	0.24239321
116	0xfb	-0.03275584
117	0x16	0.1441257
118	0x1c	0.1834327
119	0x0b	0.07206285
120	0x02	0.013102336
121	0x16	0.1441257
122	0x1a	0.17033036
123	0x25	0.24239321
124	0x01	0.006551168
125	0xe5	-0.17688154
126	0x0a	0.06551168
127	0x2a	0.27514905
128	0xff	-0.006551168
129	0x15	0.13757452
130	0x25	0.24239321
131	0x1a	0.17033036
132	0xe9	-0.15067686
133	0x1c	0.1834327
134	0x12	0.117921025
135	0x20	0.20963737
136	0x1a	0.17033036
137	0xdc	-0.23584205
138	0xf4	-0.07861401
139	0xea	-0.1441257
140	0xea	-0.1441257
141	0x15	0.13757452
142	0x01	0.006551168
143	0x1f	0.20308621
144	0x20	0.20963737
145	0x1d	0.18998387
146	0xf8	-0.052409343
147	0x0c	0.07861401
148	0x13	0.12447219
149	0xf4	-0.07861401
150	0xec	-0.13102336
151	0xf5	-0.07206285
152	0x03	0.019653503
153	0xe2	-0.19653504
154	0x14	0.13102336
155	0xfb	-0.03275584
156	0xea	-0.1441257
157	0x01	0.006551168
158	0x1e	0.19653504
159	0xff	-0.006551168
160	0x10	0.10481869
161	0xeb	-0.13757452
162	0xf0	-0.10481869
163	0xe7	-0.1637792
164	0xfd	-0.019653503
165	0x0e	0.09171635
166	0xf4	-0.07861401
167	0xf6	-0.06551168
168	0x10	0.10481869
169	0x2b	0.28170022
170	0x03	0.019653503
171	0xfe	-0.013102336
172	0x43	0.43892825
173	0x0e	0.09171635
174	0xfd	-0.019653503
175	0xf4	-0.07861401
176	0x1c	0.1834327
177	0x31	0.32100722
178	0xd7	-0.26859787
179	0x01	0.006551168
180	0x05	0.03275584
181	0xd1	-0.3079049
182	0x16	0.1441257
183	0x12	0.117921025
184	0xf8	-0.052409343
185	0xfa	-0.039307006
186	0xfb	-0.03275584
187	0xfa	-0.039307006
188	0xfd	-0.019653503
189	0x0e	0.09171635
190	0xf6	-0.06551168
191	0xfb	-0.03275584
192	0x10	0.10481869
193	0xfa	-0.039307006
194	0x02	0.013102336
195	0x1a	0.17033036
196	0xf8	-0.052409343
197	0xfe	-0.013102336
198	0x11	0.111369856
199	0xe3	-0.18998387
200	0xd0	-0.31445605
201	0xcf	-0.32100722
202	0x28	0.26204672
203	0xe5	-0.17688154
204	0x2a	0.27514905
205	0x0a	0.06551168
206	0x18	0.15722802
207	0x1c	0.1834327
208	0xe5	-0.17688154
209	0xe9	-0.15067686
210	0xf1	-0.09826752
211	0xfe	-0.013102336
212	0x12	0.117921025
213	0x02	0.013102336
214	0xf0	-0.10481869
215	0xf3	-0.08516518
216	0x1f	0.20308621
217	0x14	0.13102336
218	0x12	0.117921025
219	0xe5	-0.17688154
220	0xf0	-0.10481869
221	0x24	0.23584205
222	0xff	-0.006551168
223	0xe4	-0.1834327
224	0x11	0.111369856
225	0x22	0.22273971
226	0x13	0.12447219
227	0x07	0.045858175
228	0x06	0.039307006
229	0x04	0.026204672
230	0x00	0.0
231	0x03	0.019653503
232	0x02	0.013102336
233	0x1a	0.17033036
234	0x18	0.15722802
235	0xe3	-0.18998387
236	0x06	0.039307006
237	0x0c	0.07861401
238	0x20	0.20963737
239	0xdf	-0.21618854
240	0xee	-0.117921025
241	0xdc	-0.23584205
242	0xe5	-0.17688154
243	0xff	-0.006551168
244	0xe2	-0.19653504
245	0x13	0.12447219
246	0x17	0.15067686
247	0x16	0.1441257
248	0xe0	-0.20963737
249	0x2b	0.28170022
250	0xc5	-0.3865189
251	0xf6	-0.06551168
252	0x17	0.15067686
253	0x0c	0.07861401
254	0x12	0.117921025
255	0x2a	0.27514905

sequential_3/dense_14/MatMul i1 [23, 50] scale=0.006427266 zero_point=0
0	0x0f	0.09640899
1	0xfd	-0.019281799
2	0xde	-0.21852705
3	0xa5	-0.58488125
4	0x37	0.35349965
5	0xfd	-0.019281799
6	0x2e	0.29565424
7	0x38	0.3599269
8	0x21	0.21209979
9	0x27	0.25066337
10	0xdf	-0.21209979
11	0x25	0.23780885
12	0xcd	-0.3277906
13	0xf9	-0.044990864
14	0x00	0.0
15	0x3c	0.38563597
16	0xc2	-0.3984905
17	0x11	0.109263524
18	0xe7	-0.16068165
19	0x16	0.14139986
20	0x0e	0.08998173
21	0xee	-0.11569079
22	0xe4	-0.17996345
23	0xdf	-0.21209979
24	0x0b	0.07069993
25	0x03	0.019281799
26	0x22	0.21852705
27	0x2c	0.28279972
28	0xf6	-0.064272664
29	0x2f	0.3020815
30	0xed	-0.122118056
31	0xdf	-0.21209979
32	0x0d	0.08355446
33	0xe4	-0.17996345
34	0xd4	-0.28279972
35	0xd8	-0.25709066
36	0xf3	-0.08355446
37	0xbc	-0.4370541
38	0xf5	-0.07069993
39	0xe9	-0.14782712
40	0x3f	0.40491778
41	0xd0	-0.30850878
42	0x0d	0.08355446
43	0xe3	-0.18639071
44	0x16	0.14139986
45	0xe3	-0.18639071
46	0xef	-0.109263524
47	0x10	0.10283626
48	0xd9	-0.25066337
49	0xf2	-0.08998173
50	0xe6	-0.16710892
51	0xfe	-0.012854532
52	0xcc	-0.33421785
53	0x22	0.21852705
54	0xab	-0.54631764
55	0x1e	0.19281799
56	0xf5	-0.07069993
57	0xe8	-0.15425439
58	0xe5	-0.17353618
59	0x3d	0.39206323
60	0xe1	-0.19924524
61	0xb2	-0.50132674
62	0xf4	-0.077127196
63	0xf4	-0.077127196
64	0x13	0.122118056
65	0xd8	-0.25709066
66	0x27	0.25066337
67	0xf8	-0.05141813
68	0xc5	-0.3792087
69	0xc5	-0.3792087
70	0xe8	-0.15425439
71	0xfb	-0.032136332
72	0x19	0.16068165
73	0xb0	-0.5141813
74	0xe7	-0.16068165
75	0x2a	0.26994517
76	0x04	0.025709065
77	0x11	0.109263524
78	0x05	0.032136332
79	0xd4	-0.28279972
80	0x06	0.038563598
81	0x18	0.15425439
82	0x2c	0.28279972
83	0x25	0.23780885
84	0x08	0.05141813
85	0x32	0.3213633
86	0xfc	-0.025709065
87	0xe7	-0.16068165
88	0x0d	0.08355446
89	0xd2	-0.29565424
90	0x16	0.14139986
91	0xa9	-0.55917215
92	0xd6	-0.26994517
93	0x26	0.24423611
94	0xef	-0.109263524
95	0x0f	0.09640899
96	0xbb	-0.44348136
97	0x33	0.3277906
98	0xd5	-0.27637243
99	0xd0	-0.30850878
100	0x10	0.10283626
101	0xe9	-0.14782712
102	0x27	0.25066337
103	0x22	0.21852705
104	0x08	0.05141813
105	0xcc	-0.33421785
106	0xfb	-0.032136332
107	0xde	-0.21852705
108	0xe7	-0.16068165
109	0x1a	0.16710892
110	0xe2	-0.19281799
111	0x28	0.25709066
112	0xf8	-0.05141813
113	0xf3	-0.08355446
114	0xae	-0.52703583
115	0xc8	-0.3599269
116	0x21	0.21209979
117	0xf0	-0.10283626
118	0x1d	0.18639071
119	0x05	0.032136332
120	0xd4	-0.28279972
121	0x31	0.31493604
122	0xfc	-0.025709065
123	0x1d	0.18639071
124	0x02	0.012854532
125	0xf1	-0.09640899
126	0xfa	-0.038563598
127	0x18	0.15425439
128	0xf5	-0.07069993
129	0x2c	0.28279972
130	0x14	0.12854533
131	0xfc	-0.025709065
132	0xec	-0.12854533
133	0x21	0.21209979
134	0xda	-0.24423611
135	0xf6	-0.064272664
136	0xf1	-0.09640899
137	0xf4	-0.077127196
138	0x30	0.30850878
139	0x18	0.15425439
140	0xe2	-0.19281799
141	0xf3	-0.08355446
142	0x20	0.20567252
143	0xec	-0.12854533
144	0x25	0.23780885
145	0xea	-0.14139986
146	0x1b	0.17353618
147	0x0e	0.08998173
148	0x0d	0.08355446
149	0xdb	-0.23780885
150	0xd9	-0.25066337
151	0x0e	0.08998173
152	0xce	-0.3213633
153	0x37	0.35349965
154	0x03	0.019281799
155	0x45	0.44348136
156	0xd2	-0.29565424
157	0x32	0.3213633
158	0x1b	0.17353618
159	0x37	0.35349965
160	0xd3	-0.28922698
161	0xff	-0.006427266
162	0xd2	-0.29565424
163	0xbe	-0.42419958
164	0x21	0.21209979
165	0x07	0.044990864
166	0xe6	-0.16710892
167	0xd8	-0.25709066
168	0x15	0.13497259
169	0x14	0.12854533
170	0xf9	-0.044990864
171	0x21	0.21209979
172	0xd4	-0.28279972
173	0xba	-0.44990864
174	0x23	0.22495432
175	0xed	-0.122118056
176	0xd0	-0.30850878
177	0xf4	-0.077127196
178	0xda	-0.24423611
179	0xdf	-0.21209979
180	0xd7	-0.26351792
181	0x34	0.33421785
182	0x09	0.057845395
183	0x2a	0.26994517
184	0x00	0.0
185	0xe3	-0.18639071
186	0xbc	-0.4370541
187	0x31	0.31493604
188	0xfe	-0.012854532
189	0xd4	-0.28279972
190	0xef	-0.109263524
191	0xee	-0.11569079
192	0xdf	-0.21209979
193	0xf0	-0.10283626
194	0x10	0.10283626
195	0xf9	-0.044990864
196	0x04	0.025709065
197	0x09	0.057845395
198	0xf7	-0.057845395
199	0xcd	-0.3277906
200	0xb3	-0.49489948
201	0xf7	-0.057845395
202	0xfe	-0.012854532
203	0xd3	-0.28922698
204	0x25	0.23780885
205	0x01	0.006427266
206	0x38	0.3599269
207	0x2b	0.27637243
208	0xe3	-0.18639071
209	0x27	0.25066337
210	0x0a	0.064272664
211	0x07	0.044990864
212	0x23	0.22495432
213	0xf7	-0.057845395
214	0x39	0.36635417
215	0x1d	0.18639071
216	0x0c	0.077127196
217	0xc5	-0.3792087
218	0xb5	-0.48204497
219	0xf8	-0.05141813
220	0xf6	-0.064272664
221	0xa3	-0.59773576
222	0x08	0.05141813
223	0xc9	-0.35349965
224	0xd6	-0.26994517
225	0x27	0.25066337
226	0x16	0.14139986
227	0xec	-0.12854533
228	0x10	0.10283626
229	0xe2	-0.19281799
230	0xf5	-0.07069993
231	0x1c	0.17996345
232	0xdc	-0.23138158
233	0xd9	-0.25066337
234	0xe9	-0.14782712
235	0x1b	0.17353618
236	0xc9	-0.35349965
237	0xca	-0.34707236
238	0xf9	-0.044990864
239	0xd3	-0.28922698
240	0xce	-0.3213633
241	0xd4	-0.28279972
242	0xf5	-0.07069993
243	0x1c	0.17996345
244	0xc4	-0.38563597
245	0x32	0.3213633
246	0xf8	-0.05141813
247	0xfc	-0.025709065
248	0xe5	-0.17353618
249	0x27	0.25066337
250	0xfd	-0.019281799
251	0x3d	0.39206323
252	0xef	-0.109263524
253	0xc1	-0.40491778
254	0xd8	-0.25709066
255	0x36	0.34707236
