model/keypoint_classifier/keypoint_classifier.tflite (tflite, 31984 bytes, 8 tensors)

sequential_3/dense_15/BiasAdd/ReadVariableOp f4 [67]
0	0x3b858168	0.0040742643
1	0x3ed4b8a8	0.41547132
2	0x3db8b71f	0.090193026
3	0xbcb8f495	-0.022577563
4	0x3f1d8bec	0.6154163
5	0xbe7a19eb	-0.2442395
6	0x3f0773b8	0.5291095
7	0x3d87ddd0	0.06634104
8	0xbdc5b054	-0.096527725
9	0x3e3164bd	0.17323585
10	0xbe595304	-0.21223074
11	0xbcb07734	-0.021541215
12	0xbe822ba8	-0.25423932
13	0xbed942b0	-0.4243369
14	0x3d988d11	0.07448781
15	0x3d63a2a9	0.055575047
16	0x3ebfc09d	0.3745164
17	0xbd2e3780	-0.042533398
18	0xbe734cfb	-0.23759834
19	0x3dd3704d	0.10324154
20	0x3e536c7f	0.20646857
21	0xbe1a8f49	-0.15093721
22	0xbf045e9c	-0.5170686
23	0xbee205ca	-0.44145042
24	0x3c92e079	0.017929303
25	0xbe427c1e	-0.1899266
26	0xbc1a34c2	-0.0094119925
27	0x3ebf3950	0.37348413
28	0x3f1449e4	0.5792525
29	0xbda3f670	-0.080059886
30	0x3e94fe0d	0.29100075
31	0x3f2c995e	0.6742152
32	0x3f467fbf	0.77538675
33	0x3e8bb70a	0.27288085
34	0xbe5be574	-0.21474248
35	0x3db64ae8	0.08901006
36	0x3d73cf71	0.059524003
37	0x3d430b57	0.047618236
38	0x3e4dc5a8	0.20094931
39	0xbe017dae	-0.12645599
40	0xbe15b3f4	-0.14619428
41	0x3e5d940e	0.2163851
42	0x3e226121	0.15857364
43	0xbe236931	-0.15958096
44	0xbe3cc34f	-0.1843388
45	0xbef68edc	-0.48155868
46	0x3f39cec0	0.725811
47	0xbf00fbc9	-0.50384194
48	0xbee9c283	-0.45656213
49	0xbe39fff8	-0.1816405
50	0x3e8be78b	0.2732509
51	0xbed15a4c	-0.40889204
52	0xbe60820f	-0.21924613
53	0x3dc5b1ab	0.09653028
54	0xbc892394	-0.016740598
55	0xbf469a4e	-0.775792
56	0x3d2acc4b	0.041698735
57	0xbf4107a2	-0.7540227
58	0xbf27e5c6	-0.6558498
59	0x3cdf63d1	0.027269276
60	0xbe910bab	-0.28329214
61	0xbd9341d3	-0.07190289
62	0xbf0be068	-0.5463929
63	0xbed48f23	-0.41515455
64	0x3d6c39eb	0.057672422
65	0xbebdcbe8	-0.3706963
66	0xbe212f0e	-0.15740606

sequential_3/dense_14/BiasAdd/ReadVariableOp f4 [50]
0	0x3e7e44f1	0.24830987
1	0x3f145cbd	0.5795401
2	0xbea0909a	-0.31360322
3	0xbec7a82c	-0.38995492
4	0x3eb307ac	0.3496679
5	0x3f2bf097	0.67163986
6	0xbcf8d3ee	-0.030374493
7	0x3d6cb334	0.05778809
8	0x3f22f40a	0.63653624
9	0x3fb715e8	1.430356
10	0x3f417b8e	0.75579154
11	0x3f2d5acd	0.67716676
12	0x3e45a1e9	0.19300045
13	0x3f460670	0.7735357
14	0x3e6e4292	0.23267582
15	0xbeb92ce2	-0.36167055
16	0x3e30d170	0.17267394
17	0x3e94de88	0.29076028
18	0x3cf56b1f	0.029958306
19	0xbe7957b9	-0.2434987
20	0xbdbba4e4	-0.0916231
21	0x3e83357a	0.25626737
22	0xbd3b3ef2	-0.045714326
23	0xbe835001	-0.25646976
24	0x3f1f480f	0.6221933
25	0x3f62198f	0.8832025
26	0x3e923c37	0.28561565
27	0x3e93dd29	0.2887967
28	0x3f128174	0.5722878
29	0xbed66ffc	-0.41882312
30	0x3eb3bb90	0.35104036
31	0xbe384af6	-0.17997345
32	0x3e56b797	0.20968471
33	0x3ee75c57	0.45187637
34	0xbe715fd8	-0.23571718
35	0xbeffdfb5	-0.49975362
36	0xbe98740a	-0.2977603
37	0x3f630dbc	0.8869283
38	0x3e70a226	0.23499355
39	0xbe377fb4	-0.17919809
40	0x3e46d8c3	0.19418626
41	0x3e90c0a0	0.2827196
42	0xbf0485b9	-0.51766545
43	0x3f0a121b	0.53933877
44	0xbe881c53	-0.2658411
45	0x3ea286ce	0.31743473
46	0x3ee5e2d4	0.4489962
47	0xbe602998	-0.21890867
48	0x3ec406b3	0.3828636
49	0xbeee0aec	-0.46492708

sequential_3/dense_13/BiasAdd/ReadVariableOp f4 [120]
0	0x3e8a88a8	0.27057385
1	0x3edd2c94	0.43198073
2	0x3edb8a8b	0.42879137
3	0x3eedca8d	0.46443596
4	0xbda0d16c	-0.07852444
5	0x3df4bedc	0.11950466
6	0xbe57aedc	-0.21062797
7	0x3cdea70d	0.027179265
8	0xbe84b8d5	-0.25922266
9	0xbd9c912f	-0.07644879
10	0xbe0b7cbe	-0.13621804
11	0x3ca903d4	0.020631708
12	0xbd699279	-0.057024453
13	0x3edc6eae	0.43053192
14	0xbe0c485a	-0.13699475
15	0x3c84632c	0.01616057
16	0x3d6e0ce6	0.05811777
17	0x3f020f4d	0.508046
18	0xbd8b61d9	-0.06805772
19	0xbebbb520	-0.36661625
20	0xbe0f16be	-0.13973519
21	0xbdb51b0c	-0.088430494
22	0x3e533d91	0.20628954
23	0x3ceaa378	0.028642401
24	0x3d4d4d7b	0.05012272
25	0xbd0b824c	-0.034059808
26	0x3df344e8	0.11878377
27	0xbe4b50f4	-0.198551
28	0xbde17004	-0.110076934
29	0x3e0d91c1	0.13825132
30	0xbe7a5c4a	-0.24449268
31	0xbe4279a3	-0.18991713
32	0xbe1ed2a8	-0.15510046
33	0xbdf5b519	-0.11997432
34	0xbdcc0619	-0.099621005
35	0x3dd1eacb	0.10249861
36	0x3e0dc68c	0.13845271
37	0x3d918cd8	0.07106942
38	0x3e0587c3	0.1304007
39	0xbdbc1870	-0.091843486
40	0x3ef2c11f	0.47412965
41	0xbdbb9c15	-0.0916063
42	0x3e32d4fd	0.17464061
43	0xbe0c9597	-0.13728939
44	0xbe344b0a	-0.1760675
45	0x3e0fc460	0.14039755
46	0x3da50ad4	0.08058706
47	0xbe19062c	-0.1494376
48	0x3d5e7138	0.054307193
49	0xbd160394	-0.036624506
50	0xbe7a9337	-0.2447022
51	0x3ccf2b75	0.025289277
52	0xbcd845c4	-0.026400454
53	0x3e8081d8	0.25099063
54	0x3ed20224	0.41017258
55	0x3dd7b963	0.105334066
56	0x3ec756e1	0.3893347
57	0xbdc40344	-0.09570935
58	0x3e3b4e18	0.18291509
59	0x3e86549c	0.26236427
60	0xbe65ec23	-0.2245336
61	0xbdde7e7f	-0.10863971
62	0xbda2ced5	-0.07949606
63	0x3c8f1b01	0.017468931
64	0x3e0751c1	0.1321478
65	0x3ca0ba02	0.019619945
66	0x3ef7bcd8	0.48386264
67	0xbd3712fb	-0.044695836
68	0x3de1ae7d	0.11019609
69	0xbd0e26b0	-0.034704864
70	0x3e5f8cfa	0.21831122
71	0xbdff6de6	-0.12472133
72	0x3da99a27	0.08281355
73	0xbde03c72	-0.10949029
74	0x3e2bf1e8	0.16791499
75	0xbd0138a9	-0.031548176
76	0xbc45a528	-0.012063302
77	0xbde683fb	-0.11255642
78	0xbe8aa457	-0.27078506
79	0x3e7e1995	0.24814446
80	0xbdda6a4f	-0.10664808
81	0xbd873a07	-0.06602865
82	0x3e585c6e	0.21129009
83	0x3e68ecdc	0.22746605
84	0xbe33589a	-0.17514268
85	0x3e039145	0.12848385
86	0xbe11e710	-0.142483
87	0xbe056ff0	-0.13030982
88	0x3c95db14	0.018292941
89	0xbc983522	-0.018580023
90	0xbe1de1d4	-0.15418178
91	0x3edd4a70	0.43220854
92	0x3e2d8621	0.16945697
93	0x3d962a1a	0.07332249
94	0xbae6959b	-0.0017592193
95	0x3e443c31	0.19163586
96	0x3db57306	0.088598296
97	0x3e676137	0.22595678
98	0xbe3a8d4f	-0.18217967
99	0x3d9d8373	0.076910876
100	0xbe072a13	-0.13199644
101	0xbd36fa38	-0.04467222
102	0xbd988a49	-0.07448251
103	0x3e37efbe	0.17962548
104	0x3f085149	0.5324903
105	0xbdd17f90	-0.10229409
106	0x3dcf9d21	0.10137392
107	0x3cc381bd	0.023865575
108	0xbecfc18b	-0.4057735
109	0xbe0da767	-0.1383339
110	0x3ea448da	0.3208683
111	0x3eaa7e4c	0.33299482
112	0xbe756caf	-0.23967241
113	0x3dc488ed	0.09596429
114	0x3cafbd49	0.021452563
115	0x3dbbc8af	0.09169137
116	0xbe02c1e6	-0.12769279
117	0x3de27716	0.1105787
118	0xbe0e8db4	-0.13921243
119	0xbe90a888	-0.2825358

sequential_3/dense_12/BiasAdd/ReadVariableOp f4 [90]
0	0xbe42f700	-0.19039536
1	0xbe5893bd	-0.21150108
2	0x3c58fa47	0.0132432645
3	0x3d587c1a	0.052852727
4	0xbcd33476	-0.025781851
5	0x3d2ff188	0.04295495
6	0x3c2b3f80	0.010452151
7	0xbe32f182	-0.1747494
8	0x3e6178e9	0.2201878
9	0xbe89f82b	-0.2694715
10	0xbd0d9d22	-0.03457368
11	0xbdb39888	-0.087693274
12	0xbd085b84	-0.0332904
13	0xbe205787	-0.15658389
14	0x3d4aa88d	0.04947715
15	0x3d4886d7	0.04895672
16	0xbd8f0544	-0.06983426
17	0xbe571cac	-0.21007031
18	0xbc8f01c8	-0.017456904
19	0xbdca8f43	-0.09890606
20	0xbe5775aa	-0.21040979
21	0x3cac5a34	0.021039106
22	0xbe0509b3	-0.12991981
23	0xbdbfb845	-0.093613185
24	0xbebc26b0	-0.36748266
25	0x3bfe50d0	0.0077610984
26	0x3d06bf61	0.032897357
27	0xbe5d6e8c	-0.21624202
28	0x3d49e8b7	0.0492942
29	0xbe9f3edf	-0.31102654
30	0xbe466d85	-0.19377716
31	0x3c79124d	0.015202117
32	0xbc029efd	-0.007972476
33	0x3c535102	0.012897732
34	0xbe082e96	-0.13299021
35	0xbd05fd5c	-0.032712325
36	0x3e2e9804	0.17050177
37	0xbeb047e9	-0.34429863
38	0x3cf45d3b	0.029829612
39	0xbdea8bc5	-0.1145244
40	0xbe2383f0	-0.15968299
41	0xbe2a165b	-0.1661009
42	0xbd0c710e	-0.034287505
43	0x3cc6b206	0.02425481
44	0xbe9ebc77	-0.31003162
45	0xbd52d443	-0.05147196
46	0xbdefce13	-0.117092274
47	0xbe7f1a3b	-0.2491235
48	0x3bf064e0	0.007336244
49	0x3cf45e32	0.029830072
50	0xbe9ad1fd	-0.30238333
51	0xbe330085	-0.17480667
52	0xbda003c0	-0.07813215
53	0xbdb7683d	-0.08955429
54	0xbe4b6c51	-0.19865538
55	0x3d2ca5e1	0.042150382
56	0xbd9d4755	-0.07679621
57	0xbd4da2e7	-0.050204184
58	0xbeb08a9c	-0.3448075
59	0xbd806fb2	-0.06271304
60	0xbe107d34	-0.14110261
61	0x3c4fcca0	0.012683064
62	0xbdd4ae50	-0.1038481
63	0xbd61b37d	-0.055102814
64	0xbdf63a1d	-0.12022803
65	0xbe26b3c3	-0.16279511
66	0xbe241a4f	-0.16025661
67	0xbe148b27	-0.14506207
68	0xbe013895	-0.1261924
69	0xbe496819	-0.19668616
70	0xbd18affc	-0.037277207
71	0xbdd8651c	-0.1056616
72	0xbd4796f8	-0.04872796
73	0xbddd9459	-0.10819311
74	0xbd3d63e3	-0.046237838
75	0x3c5d58c6	0.013509935
76	0xbe4251e1	-0.18976547
77	0xbe79cca3	-0.24394469
78	0xbc59f52c	-0.013303082
79	0xbdd1207e	-0.102112755
80	0xbd9bb437	-0.07602733
81	0xbda18484	-0.078866035
82	0xbdf38b6c	-0.11891827
83	0xbc6a6dbf	-0.014308392
84	0xbe0a18d2	-0.1348603
85	0xbe4e1a58	-0.20127237
86	0xbe57d5cf	-0.21077655
87	0xbdaa0e97	-0.08303564
88	0x3b8c0fcc	0.004274344
89	0xbe960599	-0.29301146

sequential_3/dense_12/MatMul i1 [90, 86] scale=0.01666485 zero_point=0
0	0xfa	-0.0999891
1	0x16	0.36662668
2	0xf5	-0.18331334
3	0x05	0.083324246
4	0xf1	-0.24997275
5	0x05	0.083324246
6	0xf1	-0.24997275
7	0x08	0.1333188
8	0xe0	-0.5332752
9	0xf9	-0.11665395
10	0xf2	-0.2333079
11	0xfb	-0.083324246
12	0x0d	0.21664305
13	0x08	0.1333188
14	0x0c	0.1999782
15	0xf8	-0.1333188
16	0x0f	0.24997275
17	0xf8	-0.1333188
18	0x17	0.38329154
19	0xdc	-0.5999346
20	0x1b	0.44995093
21	0x0e	0.2333079
22	0x20	0.5332752
23	0x0d	0.21664305
24	0xf4	-0.1999782
25	0x08	0.1333188
26	0xee	-0.2999673
27	0xf2	-0.2333079
28	0x16	0.36662668
29	0x03	0.04999455
30	0x1f	0.5166103
31	0x15	0.34996185
32	0xfa	-0.0999891
33	0xfc	-0.0666594
34	0xee	-0.2999673
35	0xef	-0.28330246
36	0x15	0.34996185
37	0x09	0.14998364
38	0x1a	0.4332861
39	0x0f	0.24997275
40	0x03	0.04999455
41	0x0d	0.21664305
42	0xf4	-0.1999782
43	0x08	0.1333188
44	0xef	-0.28330246
45	0x0c	0.1999782
46	0xfa	-0.0999891
47	0x01	0.01666485
48	0xee	-0.2999673
49	0x05	0.083324246
50	0xf2	-0.2333079
51	0xeb	-0.34996185
52	0xf1	-0.24997275
53	0xe2	-0.4999455
54	0xfb	-0.083324246
55	0x05	0.083324246
56	0xfa	-0.0999891
57	0x02	0.0333297
58	0x03	0.04999455
59	0xfb	-0.083324246
60	0x16	0.36662668
61	0x06	0.0999891
62	0xff	-0.01666485
63	0xfa	-0.0999891
64	0x04	0.0666594
65	0xfe	-0.0333297
66	0x0d	0.21664305
67	0x00	0.0
68	0x0a	0.16664849
69	0x0b	0.18331334
70	0x05	0.083324246
71	0x07	0.11665395
72	0x07	0.11665395
73	0x01	0.01666485
74	0xfd	-0.04999455
75	0x0b	0.18331334
76	0x18	0.3999564
77	0x10	0.2666376
78	0xf3	-0.21664305
79	0x02	0.0333297
80	0xf5	-0.18331334
81	0xfa	-0.0999891
82	0x01	0.01666485
83	0x06	0.0999891
84	0xfe	-0.0333297
85	0x01	0.01666485
86	0xfd	-0.04999455
87	0xe6	-0.4332861
88	0xf9	-0.11665395
89	0x05	0.083324246
90	0xfa	-0.0999891
91	0x02	0.0333297
92	0x0e	0.2333079
93	0xfa	-0.0999891
94	0x02	0.0333297
95	0x0b	0.18331334
96	0x09	0.14998364
97	0x08	0.1333188
98	0x05	0.083324246
99	0xfe	-0.0333297
100	0x01	0.01666485
101	0xfa	-0.0999891
102	0x0f	0.24997275
103	0xfe	-0.0333297
104	0x09	0.14998364
105	0x00	0.0
106	0xf9	-0.11665395
107	0xf7	-0.14998364
108	0xf8	-0.1333188
109	0xf0	-0.2666376
110	0xfb	-0.083324246
111	0xf0	-0.2666376
112	0x0c	0.1999782
113	0xfc	-0.0666594
114	0x04	0.0666594
115	0xf4	-0.1999782
116	0x09	0.14998364
117	0xef	-0.28330246
118	0x05	0.083324246
119	0xfc	-0.0666594
120	0xfe	-0.0333297
121	0x04	0.0666594
122	0x08	0.1333188
123	0xf5	-0.18331334
124	0xf5	-0.18331334
125	0xf2	-0.2333079
126	0xf8	-0.1333188
127	0xfa	-0.0999891
128	0x05	0.083324246
129	0x01	0.01666485
130	0x08	0.1333188
131	0x14	0.33329698
132	0xfc	-0.0666594
133	0x1d	0.48328063
134	0x05	0.083324246
135	0x24	0.5999346
136	0xfe	-0.0333297
137	0x2a	0.6999237
138	0xe7	-0.41662124
139	0x2e	0.7665831
140	0x0e	0.2333079
141	0xfb	-0.083324246
142	0x0f	0.24997275
143	0x05	0.083324246
144	0x02	0.0333297
145	0xfc	-0.0666594
146	0xda	-0.6332643
147	0x09	0.14998364
148	0x06	0.0999891
149	0x02	0.0333297
150	0x18	0.3999564
151	0xf3	-0.21664305
152	0xf7	-0.14998364
153	0xf4	-0.1999782
154	0xd7	-0.68325883
155	0xec	-0.33329698
156	0x10	0.2666376
157	0xef	-0.28330246
158	0x17	0.38329154
159	0x02	0.0333297
160	0x0d	0.21664305
161	0xfe	-0.0333297
162	0xed	-0.31663215
163	0xef	-0.28330246
164	0x14	0.33329698
165	0xfa	-0.0999891
166	0x10	0.2666376
167	0x03	0.04999455
168	0x04	0.0666594
169	0xf5	-0.18331334
170	0xf8	-0.1333188
171	0xf2	-0.2333079
172	0x01	0.01666485
173	0x0a	0.16664849
174	0xfd	-0.04999455
175	0xf8	-0.1333188
176	0x0e	0.2333079
177	0xfd	-0.04999455
178	0x0a	0.16664849
179	0xff	-0.01666485
180	0x07	0.11665395
181	0x07	0.11665395
182	0x0b	0.18331334
183	0x0c	0.1999782
184	0xfe	-0.0333297
185	0xf4	-0.1999782
186	0x06	0.0999891
187	0x06	0.0999891
188	0xfd	-0.04999455
189	0x10	0.2666376
190	0x0d	0.21664305
191	0x1c	0.4666158
192	0x06	0.0999891
193	0xf2	-0.2333079
194	0xf8	-0.1333188
195	0xf8	-0.1333188
196	0xf3	-0.21664305
197	0x0b	0.18331334
198	0xfd	-0.04999455
199	0x06	0.0999891
200	0xfe	-0.0333297
201	0xec	-0.33329698
202	0x0a	0.16664849
203	0xfa	-0.0999891
204	0xfa	-0.0999891
205	0xf4	-0.1999782
206	0xf5	-0.18331334
207	0x04	0.0666594
208	0xf9	-0.11665395
209	0xf3	-0.21664305
210	0xff	-0.01666485
211	0xf6	-0.16664849
212	0xfe	-0.0333297
213	0x03	0.04999455
214	0x00	0.0
215	0xf9	-0.11665395
216	0x0b	0.18331334
217	0x0f	0.24997275
218	0x14	0.33329698
219	0x0e	0.2333079
220	0x00	0.0
221	0x16	0.36662668
222	0xf9	-0.11665395
223	0x26	0.6332643
224	0xf3	-0.21664305
225	0x30	0.7999128
226	0x03	0.04999455
227	0xff	-0.01666485
228	0x0c	0.1999782
229	0x02	0.0333297
230	0x10	0.2666376
231	0xdf	-0.54994005
232	0x02	0.0333297
233	0xd1	-0.78324795
234	0x00	0.0
235	0x00	0.0
236	0xfe	-0.0333297
237	0xf3	-0.21664305
238	0xfe	-0.0333297
239	0xe9	-0.38329154
240	0x0c	0.1999782
241	0xe9	-0.38329154
242	0xfb	-0.083324246
243	0xff	-0.01666485
244	0x00	0.0
245	0xfa	-0.0999891
246	0xf6	-0.16664849
247	0xf5	-0.18331334
248	0xee	-0.2999673
249	0xfe	-0.0333297
250	0xf7	-0.14998364
251	0x11	0.28330246
252	0xfa	-0.0999891
253	0x0a	0.16664849
254	0xf3	-0.21664305
255	0x0c	0.1999782

sequential_3/dense_13/MatMul i1 [120, 90] scale=0.013148852 zero_point=0
0	0x1c	0.36816785
1	0x07	0.09204196
2	0xf6	-0.13148852
3	0xd9	-0.5128052
4	0x06	0.07889311
5	0x1b	0.355019
6	0xde	-0.44706094
7	0xdc	-0.47335866
8	0x01	0.013148852
9	0xef	-0.22353047
10	0xfd	-0.039446555
11	0x09	0.118339665
12	0xe9	-0.3024236
13	0x00	0.0
14	0xf3	-0.17093506
15	0xfe	-0.026297703
16	0x17	0.3024236
17	0x0b	0.14463738
18	0xb2	-1.0256104
19	0xda	-0.49965638
20	0xfc	-0.052595407
21	0x12	0.23667933
22	0x05	0.06574426
23	0x0d	0.17093506
24	0xf6	-0.13148852
25	0x14	0.26297703
26	0xc4	-0.78893113
27	0xf0	-0.21038163
28	0xe7	-0.32872128
29	0x02	0.026297703
30	0xfa	-0.07889311
31	0x12	0.23667933
32	0xc3	-0.80208
33	0x01	0.013148852
34	0xfc	-0.052595407
35	0x27	0.5128052
36	0x02	0.026297703
37	0xee	-0.23667933
38	0x04	0.052595407
39	0xfb	-0.06574426
40	0x12	0.23667933
41	0xff	-0.013148852
42	0xdb	-0.4865075
43	0x08	0.10519081
44	0x02	0.026297703
45	0xfd	-0.039446555
46	0x0e	0.18408392
47	0x09	0.118339665
48	0xf4	-0.15778622
49	0x04	0.052595407
50	0xff	-0.013148852
51	0xfb	-0.06574426
52	0xfb	-0.06574426
53	0xfd	-0.039446555
54	0xe9	-0.3024236
55	0xfa	-0.07889311
56	0x2c	0.5785495
57	0xf3	-0.17093506
58	0xe3	-0.3813167
59	0x0d	0.17093506
60	0xe5	-0.355019
61	0x01	0.013148852
62	0x1e	0.39446557
63	0xee	-0.23667933
64	0x07	0.09204196
65	0x01	0.013148852
66	0xe1	-0.4076144
67	0xec	-0.26297703
68	0xf9	-0.09204196
69	0x06	0.07889311
70	0x00	0.0
71	0x0f	0.19723278
72	0xe5	-0.355019
73	0xcd	-0.6705914
74	0xea	-0.28927475
75	0xea	-0.28927475
76	0xf8	-0.10519081
77	0x08	0.10519081
78	0xfd	-0.039446555
79	0x03	0.039446555
80	0x23	0.46020982
81	0x2b	0.5654006
82	0x03	0.039446555
83	0xf4	-0.15778622
84	0x0f	0.19723278
85	0x0b	0.14463738
86	0xfd	-0.039446555
87	0xae	-1.0782058
88	0xeb	-0.27612588
89	0x0d	0.17093506
90	0xb0	-1.0519081
91	0x0b	0.14463738
92	0x05	0.06574426
93	0xff	-0.013148852
94	0x05	0.06574426
95	0x17	0.3024236
96	0xf2	-0.18408392
97	0xf0	-0.21038163
98	0xfa	-0.07889311
99	0xff	-0.013148852
100	0x00	0.0
101	0xf3	-0.17093506
102	0x00	0.0
103	0xf4	-0.15778622
104	0xf5	-0.14463738
105	0x02	0.026297703
106	0xe3	-0.3813167
107	0x01	0.013148852
108	0xef	-0.22353047
109	0x13	0.24982819
110	0xfb	-0.06574426
111	0x12	0.23667933
112	0x00	0.0
113	0xf7	-0.118339665
114	0xff	-0.013148852
115	0x0d	0.17093506
116	0xec	-0.26297703
117	0x01	0.013148852
118	0xfd	-0.039446555
119	0xfd	-0.039446555
120	0xed	-0.24982819
121	0xf1	-0.19723278
122	0x23	0.46020982
123	0x00	0.0
124	0x0d	0.17093506
125	0x17	0.3024236
126	0xe5	-0.355019
127	0x09	0.118339665
128	0xeb	-0.27612588
129	0x00	0.0
130	0x0a	0.13148852
131	0x1f	0.4076144
132	0x01	0.013148852
133	0x01	0.013148852
134	0xff	-0.013148852
135	0x15	0.27612588
136	0xf2	-0.18408392
137	0x05	0.06574426
138	0xff	-0.013148852
139	0xee	-0.23667933
140	0xf4	-0.15778622
141	0xdb	-0.4865075
142	0xc5	-0.7757822
143	0x19	0.32872128
144	0xf8	-0.10519081
145	0xf9	-0.09204196
146	0xe1	-0.4076144
147	0x28	0.52595407
148	0xfa	-0.07889311
149	0x0a	0.13148852
150	0x1f	0.4076144
151	0xf9	-0.09204196
152	0x28	0.52595407
153	0xf3	-0.17093506
154	0xf9	-0.09204196
155	0xfc	-0.052595407
156	0x01	0.013148852
157	0x14	0.26297703
158	0x0d	0.17093506
159	0xdf	-0.4339121
160	0xff	-0.013148852
161	0x0f	0.19723278
162	0xd4	-0.5785495
163	0x03	0.039446555
164	0x07	0.09204196
165	0x0d	0.17093506
166	0x12	0.23667933
167	0x06	0.07889311
168	0xf9	-0.09204196
169	0xec	-0.26297703
170	0x0c	0.15778622
171	0xc5	-0.7757822
172	0xff	-0.013148852
173	0xd9	-0.5128052
174	0xf7	-0.118339665
175	0xad	-1.0913547
176	0xef	-0.22353047
177	0xea	-0.28927475
178	0xec	-0.26297703
179	0xf2	-0.18408392
180	0x00	0.0
181	0xfa	-0.07889311
182	0x10	0.21038163
183	0x03	0.039446555
184	0xff	-0.013148852
185	0x0e	0.18408392
186	0xea	-0.28927475
187	0x03	0.039446555
188	0x1f	0.4076144
189	0xff	-0.013148852
190	0x14	0.26297703
191	0xa8	-1.157099
192	0xfc	-0.052595407
193	0x07	0.09204196
194	0x04	0.052595407
195	0x27	0.5128052
196	0xd6	-0.55225176
197	0x16	0.28927475
198	0xbd	-0.88097304
199	0xe4	-0.36816785
200	0xfa	-0.07889311
201	0x07	0.09204196
202	0x17	0.3024236
203	0xc5	-0.7757822
204	0xf4	-0.15778622
205	0xfa	-0.07889311
206	0x04	0.052595407
207	0x0b	0.14463738
208	0x0b	0.14463738
209	0xca	-0.710038
210	0xfa	-0.07889311
211	0x96	-1.3937783
212	0xf4	-0.15778622
213	0xfb	-0.06574426
214	0x09	0.118339665
215	0xfb	-0.06574426
216	0x03	0.039446555
217	0xf4	-0.15778622
218	0x03	0.039446555
219	0x02	0.026297703
220	0x17	0.3024236
221	0x12	0.23667933
222	0xff	-0.013148852
223	0x01	0.013148852
224	0xc6	-0.7626334
225	0x08	0.10519081
226	0x00	0.0
227	0xf2	-0.18408392
228	0x02	0.026297703
229	0xe7	-0.32872128
230	0xeb	-0.27612588
231	0xe0	-0.42076325
232	0x02	0.026297703
233	0xd3	-0.59169835
234	0xd2	-0.6048472
235	0x01	0.013148852
236	0xfa	-0.07889311
237	0x20	0.42076325
238	0x0e	0.18408392
239	0xc5	-0.7757822
240	0x09	0.118339665
241	0x10	0.21038163
242	0xfd	-0.039446555
243	0x0c	0.15778622
244	0x05	0.06574426
245	0xd2	-0.6048472
246	0xf8	-0.10519081
247	0x20	0.42076325
248	0xfd	-0.039446555
249	0x00	0.0
250	0x0d	0.17093506
251	0xf4	-0.15778622
252	0xee	-0.23667933
253	0xfc	-0.052595407
254	0xf6	-0.13148852
255	0x12	0.23667933

sequential_3/dense_14/MatMul i1 [50, 120] scale=0.012920192 zero_point=0
0	0x04	0.05168077
1	0xf4	-0.1550423
2	0xe4	-0.36176538
3	0xfd	-0.038760576
4	0x03	0.038760576
5	0x04	0.05168077
6	0xf9	-0.090441346
7	0x01	0.012920192
8	0x41	0.8398125
9	0x04	0.05168077
10	0x0a	0.12920192
11	0xf4	-0.1550423
12	0xf4	-0.1550423
13	0x15	0.27132404
14	0x1d	0.3746856
15	0x08	0.10336154
16	0xef	-0.21964327
17	0x04	0.05168077
18	0x0d	0.1679625
19	0x07	0.090441346
20	0xfb	-0.06460096
21	0x07	0.090441346
22	0x09	0.11628173
23	0x24	0.46512693
24	0x1b	0.34884518
25	0x02	0.025840385
26	0xf2	-0.18088269
27	0xfd	-0.038760576
28	0x02	0.025840385
29	0x11	0.21964327
30	0x41	0.8398125
31	0x1b	0.34884518
32	0x4e	1.0077751
33	0xec	-0.25840384
34	0x48	0.93025386
35	0xff	-0.012920192
36	0x06	0.07752115
37	0x09	0.11628173
38	0xb6	-0.95609426
39	0x1d	0.3746856
40	0xf9	-0.090441346
41	0xfc	-0.05168077
42	0x2a	0.5426481
43	0x0e	0.18088269
44	0xf0	-0.20672308
45	0x10	0.20672308
46	0xfe	-0.025840385
47	0x1e	0.3876058
48	0xfd	-0.038760576
49	0x09	0.11628173
50	0x06	0.07752115
51	0xf4	-0.1550423
52	0x16	0.28424424
53	0x09	0.11628173
54	0xe8	-0.3100846
55	0xf7	-0.11628173
56	0xf6	-0.12920192
57	0x0e	0.18088269
58	0x01	0.012920192
59	0x29	0.5297279
60	0x22	0.43928653
61	0x23	0.45220673
62	0x05	0.06460096
63	0xfa	-0.07752115
64	0x0f	0.1938029
65	0x0c	0.1550423
66	0x00	0.0
67	0x16	0.28424424
68	0x09	0.11628173
69	0x30	0.6201692
70	0x01	0.012920192
71	0x12	0.23256347
72	0xe8	-0.3100846
73	0xe3	-0.3746856
74	0x06	0.07752115
75	0xf2	-0.18088269
76	0xf4	-0.1550423
77	0x0f	0.1938029
78	0x0b	0.14212212
79	0x0e	0.18088269
80	0x30	0.6201692
81	0xed	-0.24548365
82	0x06	0.07752115
83	0x1c	0.36176538
84	0x02	0.025840385
85	0x30	0.6201692
86	0x13	0.24548365
87	0x03	0.038760576
88	0xf9	-0.090441346
89	0xfa	-0.07752115
90	0x0b	0.14212212
91	0xe8	-0.3100846
92	0x03	0.038760576
93	0x0e	0.18088269
94	0x06	0.07752115
95	0xe1	-0.40052596
96	0xeb	-0.27132404
97	0x1a	0.335925
98	0xf8	-0.10336154
99	0x35	0.6847702
100	0xf8	-0.10336154
101	0x0f	0.1938029
102	0x16	0.28424424
103	0xf1	-0.1938029
104	0x06	0.07752115
105	0x12	0.23256347
106	0xfe	-0.025840385
107	0xe8	-0.3100846
108	0x06	0.07752115
109	0x01	0.012920192
110	0xe6	-0.335925
111	0xf7	-0.11628173
112	0x0a	0.12920192
113	0xff	-0.012920192
114	0x0a	0.12920192
115	0x24	0.46512693
116	0xff	-0.012920192
117	0xfe	-0.025840385
118	0xf6	-0.12920192
119	0xfe	-0.025840385
120	0x0d	0.1679625
121	0x14	0.25840384
122	0x15	0.27132404
123	0x08	0.10336154
124	0xf6	-0.12920192
125	0xd5	-0.5555683
126	0xf7	-0.11628173
127	0xf9	-0.090441346
128	0xf9	-0.090441346
129	0xf4	-0.1550423
130	0x09	0.11628173
131	0x08	0.10336154
132	0xe0	-0.41344616
133	0xfb	-0.06460096
134	0x22	0.43928653
135	0xf4	-0.1550423
136	0x1b	0.34884518
137	0x0d	0.1679625
138	0x0c	0.1550423
139	0x09	0.11628173
140	0x12	0.23256347
141	0xd6	-0.5426481
142	0x02	0.025840385
143	0x06	0.07752115
144	0x14	0.25840384
145	0x15	0.27132404
146	0x0e	0.18088269
147	0x18	0.3100846
148	0x07	0.090441346
149	0xf7	-0.11628173
150	0xef	-0.21964327
151	0xf9	-0.090441346
152	0x02	0.025840385
153	0x01	0.012920192
154	0x12	0.23256347
155	0x07	0.090441346
156	0xf7	-0.11628173
157	0x02	0.025840385
158	0x0b	0.14212212
159	0x10	0.20672308
160	0x17	0.29716444
161	0xef	-0.21964327
162	0x08	0.10336154
163	0x0f	0.1938029
164	0x04	0.05168077
165	0xf1	-0.1938029
166	0x0a	0.12920192
167	0xf7	-0.11628173
168	0x10	0.20672308
169	0xef	-0.21964327
170	0x0e	0.18088269
171	0x15	0.27132404
172	0x03	0.038760576
173	0xed	-0.24548365
174	0x0b	0.14212212
175	0x0c	0.1550423
176	0x02	0.025840385
177	0xd8	-0.5168077
178	0x07	0.090441346
179	0x18	0.3100846
180	0xf6	-0.12920192
181	0x1f	0.40052596
182	0x11	0.21964327
183	0x20	0.41344616
184	0x07	0.090441346
185	0xf6	-0.12920192
186	0x0c	0.1550423
187	0xf5	-0.14212212
188	0xf8	-0.10336154
189	0xe9	-0.29716444
190	0x00	0.0
191	0xf7	-0.11628173
192	0x12	0.23256347
193	0x01	0.012920192
194	0x0c	0.1550423
195	0x18	0.3100846
196	0x07	0.090441346
197	0xfc	-0.05168077
198	0xda	-0.4909673
199	0x06	0.07752115
200	0x1d	0.3746856
201	0x1c	0.36176538
202	0x0c	0.1550423
203	0xf0	-0.20672308
204	0xff	-0.012920192
205	0xed	-0.24548365
206	0x0d	0.1679625
207	0xf3	-0.1679625
208	0xf2	-0.18088269
209	0xf2	-0.18088269
210	0x25	0.47804713
211	0xf7	-0.11628173
212	0xf3	-0.1679625
213	0xf0	-0.20672308
214	0x14	0.25840384
215	0xf1	-0.1938029
216	0x14	0.25840384
217	0x08	0.10336154
218	0x1c	0.36176538
219	0xfe	-0.025840385
220	0xe8	-0.3100846
221	0x04	0.05168077
222	0x0e	0.18088269
223	0xf7	-0.11628173
224	0x08	0.10336154
225	0x24	0.46512693
226	0xf4	-0.1550423
227	0xff	-0.012920192
228	0xfd	-0.038760576
229	0x10	0.20672308
230	0x1b	0.34884518
231	0x04	0.05168077
232	0xea	-0.28424424
233	0xd9	-0.50388753
234	0x1b	0.34884518
235	0x04	0.05168077
236	0x17	0.29716444
237	0xe2	-0.3876058
238	0x0e	0.18088269
239	0x0b	0.14212212
240	0x27	0.50388753
241	0x00	0.0
242	0xfd	-0.038760576
243	0x0c	0.1550423
244	0xda	-0.4909673
245	0xf7	-0.11628173
246	0x0d	0.1679625
247	0x19	0.3230048
248	0xfa	-0.07752115
249	0x07	0.090441346
250	0xff	-0.012920192
251	0xf7	-0.11628173
252	0xed	-0.24548365
253	0x0a	0.12920192
254	0xfe	-0.025840385
255	0x18	0.3100846

sequential_3/dense_15/MatMul i1 [67, 50] scale=0.009739277 zero_point=0
0	0x19	0.24348192
1	0xf5	-0.10713205
2	0xe3	-0.28243902
3	0x20	0.31165686
4	0x14	0.19478554
5	0xde	-0.33113542
6	0x00	0.0
7	0x0b	0.10713205
8	0xf4	-0.11687133
9	0xbf	-0.633053
10	0xb3	-0.7499243
11	0x06	0.058435664
12	0xe0	-0.31165686
13	0x03	0.029217832
14	0xeb	-0.20452482
15	0xdd	-0.3408747
16	0xf6	-0.09739277
17	0xc1	-0.61357445
18	0x10	0.15582843
19	0x0d	0.1266106
20	0x2b	0.4187889
21	0x10	0.15582843
22	0x1c	0.27269974
23	0xfc	-0.038957108
24	0xf2	-0.13634987
25	0x0e	0.13634987
26	0x14	0.19478554
27	0xd2	-0.44800675
28	0xe3	-0.28243902
29	0xfb	-0.048696384
30	0xf1	-0.14608915
31	0xfe	-0.019478554
32	0xf8	-0.077914216
33	0xea	-0.2142641
34	0x17	0.22400337
35	0xed	-0.18504626
36	0xe0	-0.31165686
37	0x09	0.087653495
38	0xdc	-0.35061398
39	0xf5	-0.10713205
40	0x07	0.068174936
41	0x1e	0.2921783
42	0xf5	-0.10713205
43	0xec	-0.19478554
44	0xfb	-0.048696384
45	0x15	0.20452482
46	0xe7	-0.24348192
47	0x10	0.15582843
48	0xe5	-0.26296046
49	0x04	0.038957108
50	0xc0	-0.6233137
51	0xd8	-0.38957107
52	0xf8	-0.077914216
53	0xf8	-0.077914216
54	0xdb	-0.36035326
55	0xf5	-0.10713205
56	0xcc	-0.5064424
57	0xd8	-0.38957107
58	0xd1	-0.45774603
59	0xc0	-0.6233137
60	0xea	-0.2142641
61	0xdf	-0.32139614
62	0x00	0.0
63	0xd9	-0.3798318
64	0xd9	-0.3798318
65	0x1a	0.2532212
66	0x11	0.16556771
67	0x03	0.029217832
68	0xde	-0.33113542
69	0xfc	-0.038957108
70	0x2d	0.43826747
71	0x11	0.16556771
72	0xf2	-0.13634987
73	0x02	0.019478554
74	0xec	-0.19478554
75	0x23	0.3408747
76	0xfa	-0.058435664
77	0x04	0.038957108
78	0x13	0.18504626
79	0xe9	-0.22400337
80	0xcc	-0.5064424
81	0xf4	-0.11687133
82	0xd5	-0.4187889
83	0xf2	-0.13634987
84	0xfc	-0.038957108
85	0xf7	-0.087653495
86	0x10	0.15582843
87	0xdd	-0.3408747
88	0x0e	0.13634987
89	0xea	-0.2142641
90	0x20	0.31165686
91	0x1c	0.27269974
92	0xdb	-0.36035326
93	0x0f	0.14608915
94	0x10	0.15582843
95	0xf5	-0.10713205
96	0xe1	-0.30191758
97	0x1b	0.26296046
98	0xed	-0.18504626
99	0x0a	0.09739277
100	0xff	-0.009739277
101	0xeb	-0.20452482
102	0xd7	-0.39931035
103	0xe2	-0.2921783
104	0x13	0.18504626
105	0x00	0.0
106	0xe3	-0.28243902
107	0xfd	-0.029217832
108	0x07	0.068174936
109	0xb7	-0.71096724
110	0x19	0.24348192
111	0xd4	-0.4285282
112	0x0f	0.14608915
113	0x1f	0.30191758
114	0x0f	0.14608915
115	0x02	0.019478554
116	0x0a	0.09739277
117	0x0c	0.11687133
118	0xf3	-0.1266106
119	0x17	0.22400337
120	0xda	-0.3700925
121	0xe5	-0.26296046
122	0x21	0.32139614
123	0x17	0.22400337
124	0x04	0.038957108
125	0x1a	0.2532212
126	0xfb	-0.048696384
127	0x0e	0.13634987
128	0xe8	-0.23374265
129	0xf0	-0.15582843
130	0xd6	-0.40904963
131	0xe8	-0.23374265
132	0xc4	-0.5843566
133	0x00	0.0
134	0x1b	0.26296046
135	0xd5	-0.4187889
136	0x08	0.077914216
137	0xe3	-0.28243902
138	0x0b	0.10713205
139	0x0c	0.11687133
140	0xdc	-0.35061398
141	0x12	0.17530699
142	0xf2	-0.13634987
143	0xcc	-0.5064424
144	0xf4	-0.11687133
145	0x19	0.24348192
146	0x15	0.20452482
147	0x0e	0.13634987
148	0xf0	-0.15582843
149	0x19	0.24348192
150	0xd8	-0.38957107
151	0xdd	-0.3408747
152	0xe1	-0.30191758
153	0xd8	-0.38957107
154	0xf4	-0.11687133
155	0x17	0.22400337
156	0xdb	-0.36035326
157	0x9b	-0.98366696
158	0x15	0.20452482
159	0xaa	-0.8375778
160	0x09	0.087653495
161	0xd9	-0.3798318
162	0x18	0.23374265
163	0xf7	-0.087653495
164	0xf8	-0.077914216
165	0x21	0.32139614
166	0x03	0.029217832
167	0xdc	-0.35061398
168	0xf6	-0.09739277
169	0xca	-0.5259209
170	0x18	0.23374265
171	0x1f	0.30191758
172	0xe0	-0.31165686
173	0xfe	-0.019478554
174	0xd2	-0.44800675
175	0xeb	-0.20452482
176	0x03	0.029217832
177	0x19	0.24348192
178	0xff	-0.009739277
179	0x06	0.058435664
180	0xf7	-0.087653495
181	0x17	0.22400337
182	0xd9	-0.3798318
183	0xea	-0.2142641
184	0x06	0.058435664
185	0x17	0.22400337
186	0xe2	-0.2921783
187	0xc1	-0.61357445
188	0xfd	-0.029217832
189	0x05	0.048696384
190	0x18	0.23374265
191	0x03	0.029217832
192	0x01	0.009739277
193	0x0f	0.14608915
194	0xe8	-0.23374265
195	0x05	0.048696384
196	0x00	0.0
197	0xd1	-0.45774603
198	0xe9	-0.22400337
199	0x12	0.17530699
200	0x13	0.18504626
201	0xf9	-0.068174936
202	0xf9	-0.068174936
203	0xf0	-0.15582843
204	0xe0	-0.31165686
205	0xd9	-0.3798318
206	0xe6	-0.2532212
207	0xdd	-0.3408747
208	0xf4	-0.11687133
209	0xcd	-0.49670312
210	0xee	-0.17530699
211	0xf0	-0.15582843
212	0xe7	-0.24348192
213	0xfa	-0.058435664
214	0xe6	-0.2532212
215	0xd6	-0.40904963
216	0xfe	-0.019478554
217	0x22	0.33113542
218	0x1d	0.28243902
219	0x27	0.3798318
220	0xd1	-0.45774603
221	0x1b	0.26296046
222	0xc5	-0.5746173
223	0xfa	-0.058435664
224	0xe6	-0.2532212
225	0x14	0.19478554
226	0xdb	-0.36035326
227	0xfe	-0.019478554
228	0xe9	-0.22400337
229	0x25	0.36035326
230	0xfc	-0.038957108
231	0x09	0.087653495
232	0xe5	-0.26296046
233	0xca	-0.5259209
234	0xfc	-0.038957108
235	0x1d	0.28243902
236	0xef	-0.16556771
237	0xe4	-0.27269974
238	0x0e	0.13634987
239	0xc7	-0.55513877
240	0x21	0.32139614
241	0x04	0.038957108
242	0xe7	-0.24348192
243	0x2b	0.4187889
244	0x12	0.17530699
245	0xe9	-0.22400337
246	0x01	0.009739277
247	0xec	-0.19478554
248	0xe7	-0.24348192
249	0x00	0.0
250	0xea	-0.2142641
251	0xf4	-0.11687133
252	0xe8	-0.23374265
253	0xe7	-0.24348192
254	0x1c	0.27269974
255	0xed	-0.18504626
