model/keypoint_classifier/keypoint_classifier.tflite (tflite, 4992 bytes, 6 tensors)

sequential_2/dense_8/MatMul f4 [4, 10]
000000 be 45 41 3f 97 60 4f bf 26 a1 4b 3f 75 c8 33 3f
       0.75497043 -0.8100676 0.7954277 0.7022775
000010 1b 27 f3 3e 5a 04 01 be a5 de ab be 0b 47 9d be
       0.47490773 -0.12599316 -0.33568302 -0.30718264
000020 42 24 d8 be ee ec c6 3e f2 8d 17 bf 6a 0a 6a 3f
       -0.42215163 0.38852638 -0.59200966 0.9142214
000030 71 22 0b be d0 c8 28 bf d5 ee 2b 3d 93 65 35 3f
       -0.13587357 -0.65931416 0.041975815 0.70858115
000040 2a dd e2 3e b7 46 4a bf b5 8b 4f bd ba c8 87 be
       0.4430936 -0.7901415 -0.050670344 -0.2652033
000050 5e 3c e8 3c 8b 4f d7 3d 94 91 a4 3e 03 82 a5 be
       0.028349098 0.105132185 0.32142317 -0.32325754
000060 f5 71 26 3f 9e f7 1a bd a2 a8 73 be 6d 14 68 3f
       0.65017635 -0.037833802 -0.23794797 0.9065617
000070 f7 0a 4d bf b8 e6 1f bf f9 55 86 3e fd 4b a0 be
       -0.80094856 -0.62461424 0.26237467 -0.31307974
000080 15 39 0c 3f 82 f0 24 bf f7 f4 8f 3d 0f 63 50 bf
       0.547746 -0.64429486 0.07029145 -0.8140115
000090 53 af 0e 3f d2 14 5a be 0c 3e bd 3e 7a 13 32 3e
       0.55736274 -0.21297005 0.369614 0.17390242

sequential_2/dense_7/MatMul f4 [10, 20]
000000 2a fd bc be 34 e3 86 3e e4 fe 00 3f 5b c8 e4 3e
       -0.369119 0.26345217 0.5038893 0.4468411
000010 de 7a 58 be 52 5a ab be 2e af 86 be 96 52 c2 be
       -0.2114062 -0.33467346 -0.26305526 -0.37953633
000020 e8 3e 66 be 67 40 06 3e 63 f9 9d bd 2d ae a1 be
       -0.22484934 0.13110505 -0.07713582 -0.31578198
000030 ea e1 2b 3e c0 e2 85 3c 42 b1 1d 3e f1 3f 8a be
       0.16785398 0.016343474 0.1539965 -0.27001908
000040 7f 2d 2c 3f 64 cd 09 3e c3 5d d1 be 16 ac e5 be
       0.6725692 0.13457257 -0.40891847 -0.44857854
000050 8e 9f 0b bf d8 65 2f be bd a8 da bc cd 9c f1 3d
       -0.54540336 -0.17128694 -0.026691789 0.117974855
000060 6c 50 19 3e 15 c2 68 3e 3d 47 94 be b1 b6 8c 3e
       0.14972085 0.22730286 -0.289606 0.27483132
000070 e0 a5 e0 bd 00 39 dc 3e ab 6e 0f 3f f6 cb 8f bd
       -0.10969138 0.43012238 0.5602824 -0.07021324
000080 3d 72 10 3f bc 37 07 3d 0a fb 02 bf e1 89 0f bf
       0.56424314 0.033012137 -0.51164305 -0.5606976
000090 89 77 c9 be 19 23 9a be 05 92 33 bf f8 fc 9c 3e
       -0.3934901 -0.30104902 -0.70144683 0.3066175
0000a0 a4 23 27 3e 52 cf a8 be f1 51 c7 3d 76 2f 10 3f
       0.1632219 -0.32970673 0.09732426 0.5632242
0000b0 4a fb 97 bc 8d 41 1b 3e 03 90 82 be 04 64 95 bd
       -0.018552441 0.15161724 -0.25500497 -0.07294467
0000c0 5b a7 72 be ae 98 2d 3e b6 5a 48 be 84 a8 16 3e
       -0.23696654 0.16952774 -0.19565853 0.14712721
0000d0 f0 d4 5b 3d 4d 93 52 3c 8d 60 e4 3e a5 f2 41 3e
       0.05366987 0.012852502 0.44604912 0.18940218
0000e0 7b 84 a4 3e 18 08 3e 3e 2d 0c 00 3e 9d 7c 93 3e
       0.32132325 0.18557775 0.12504645 0.2880601
0000f0 6e fd ba be 96 e0 58 be a0 83 7b bd 30 fc 8d 3e
       -0.36521477 -0.21179423 -0.061404824 0.27731466
000100 4c 1a e0 3e ab 24 b5 be 43 32 be 3e 36 f4 f2 be
       0.43770063 -0.35379538 0.37147722 -0.47451943
000110 70 a2 ad be e1 5c 73 3d a1 d4 ca be 6a 78 c0 3e
       -0.33912992 0.059414748 -0.39615348 0.3759187
000120 65 46 a3 3d 25 80 12 3e 30 cb dd 3e f4 04 7f be
       0.07972411 0.14306696 0.43319082 -0.24904233
000130 9b 62 8d 3e ee 8f 9e be cb 1d 8e 3e 24 ac c9 be
       0.27614293 -0.30969185 0.27757105 -0.39389145
000140 c8 bd 6d 3e ee 5c 6a 3e 96 0a 16 3e 8a 6b 6a 3e
       0.23216927 0.22887012 0.14652476 0.22892585
000150 f9 85 b2 bd 10 16 b2 be 80 af 90 be 66 f6 c1 3d
       -0.087169595 -0.34782457 -0.28258896 0.09470825
000160 68 91 e4 be 2c 45 e2 3e 55 d2 62 be 44 fb 0b 3f
       -0.44642186 0.441934 -0.22150548 0.54680276
000170 d2 81 88 3e 9f 97 12 3f f2 a9 21 be d3 33 d7 be
       0.26661545 0.57262605 -0.15787485 -0.42031726
000180 63 3c 0b 3f ba 98 70 be 3d e1 a1 3d 21 1e 7f be
       0.5438902 -0.2349576 0.07904289 -0.24913837
000190 c8 a8 f6 be 34 f9 a6 bd d9 5e c9 be 3f 6f d2 3d
       -0.48175645 -0.081530005 -0.39330176 0.10275125
0001a0 2b a0 48 3e 0a d7 25 3e 4e ec bb be d7 35 8e 3d
       0.19592349 0.16195312 -0.36703724 0.06943863
0001b0 a4 cb 66 be f0 48 bb 3e 23 70 d2 be 1d a0 bc be
       -0.2253862 0.36579084 -0.4110118 -0.36840907
0001c0 28 d3 a2 3e cb b8 4f be 5a 1a 79 3e 34 91 01 be
       0.31801724 -0.20285337 0.24326459 -0.12653047
0001d0 dc 12 f8 3d c2 52 b3 3e a6 fb e5 be 48 38 c1 3e
       0.12112972 0.35024077 -0.44918555 0.37738252
0001e0 67 9f 21 bd 2a 95 45 be 0d 6c 14 bf a0 7e 5a 3e
       -0.03945866 -0.19295183 -0.5797737 0.21337366
0001f0 40 d8 d6 3e 09 db 2b 3f 8c d7 e6 bc ae 95 eb 3e
       0.4196186 0.67131096 -0.028178953 0.46012634
000200 70 1d b7 3e 51 f5 b9 3b 60 40 c5 bd dc a5 06 be
       0.35764647 0.005674996 -0.09631419 -0.13149208
000210 17 de 3a 3d 01 58 a0 be a9 7c 0b bd 18 9a 1f 3e
       0.045621958 -0.31317142 -0.034054432 0.15586126
000220 9a a4 8d 3e dd 8a 66 3d 3f b3 a1 3e df fc 00 3f
       0.27664644 0.056284774 0.31582066 0.5038585
000230 20 7b 18 bf 0c f0 9c be 02 ab ac bd 7e 27 2c bf
       -0.59562874 -0.3065189 -0.08431055 -0.6724776
000240 c1 53 a3 be e2 1b 7c bc cd 13 2b bc 6a e5 93 be
       -0.31899837 -0.015387507 -0.010441733 -0.28885967
000250 d8 ee e7 be 94 d9 c3 3e e4 e6 84 be aa 4d 1f bf
       -0.4529941 0.38251936 -0.25957406 -0.6222788
000260 a9 95 e9 3e 37 54 10 3f 99 76 0a bf c0 a9 f6 be
       0.45621994 0.563785 -0.54087216 -0.48176384
000270 64 f8 23 be 6e eb 88 3d 5e 60 35 3e 37 13 c9 be
       -0.16012722 0.0668553 0.17712542 -0.39272472
000280 f7 16 fe 3e 64 47 85 bd 24 8c bd be d9 27 8a 3e
       0.49626896 -0.06507757 -0.3702098 0.26983526
000290 0a 58 63 3e 63 de b7 3e 18 cd 17 3f f6 3c bb 3d
       0.22201553 0.35911855 0.59297323 0.09142487
0002a0 45 31 ca 3e 2b 20 ff 3c ef da fc 3e 1e 8c 85 be
       0.39490715 0.031143269 0.49385783 -0.26083463
0002b0 c3 51 8a bd ca a0 07 bf 16 63 c3 3d cf 29 06 3f
       -0.06753876 -0.5297972 0.095403835 0.52407545
0002c0 cd 04 a9 3e 1c cb 7b bd 1b f5 1f 3f 18 44 17 3f
       0.33011475 -0.061472997 0.62483376 0.5908828
0002d0 be 15 bd 3e 8c 7d c0 be 1c 55 ec 3e af 0d 98 3e
       0.3693065 -0.37595785 0.46158683 0.2969794
0002e0 90 ba b1 3e 88 8c 96 3e 24 f7 14 3f ed e9 a5 3e
       0.34712648 0.29404092 0.58189607 0.32405034
0002f0 b4 e5 91 bd 4a 94 9b be 87 4f ea bd 79 d2 83 3e
       -0.071238905 -0.30386573 -0.1144095 0.25746515
000300 3a a7 dc be 37 0c 1d 3e 26 fb a6 3e b1 53 a8 3e
       -0.43096334 0.15336691 0.32613486 0.3287635
000310 a6 30 05 3f 90 89 ab be eb e7 9a 3b 62 9d f2 bd
       0.52027357 -0.3350339 0.004727354 -0.11846425

sequential_2/dense_8/BiasAdd/ReadVariableOp f4 [4]
000000 1b d3 2d bc a3 31 d2 3c 5a 3c 91 3e ca 30 0d be
       -0.0106094135 0.025658434 0.28366357 -0.13788143

sequential_2/dense_7/BiasAdd/ReadVariableOp f4 [10]
000000 d4 c0 96 bd 23 fb 69 3e 90 dd 5a bd 82 11 f6 3d
       -0.07360998 0.22849707 -0.053433955 0.12015058
000010 d9 05 9d 3e 5a f7 2b 3e 5c b7 eb bb 67 6c b4 3e
       0.30668524 0.16793576 -0.007193489 0.35238954
000020 47 48 c8 bd e6 bf 33 bd
       -0.09779411 -0.04388418

sequential_2/dense_6/BiasAdd/ReadVariableOp f4 [20]
000000 c4 d2 bc 3c c9 97 a0 bd d5 49 f0 3d da be 25 3e
       0.02304972 -0.07841451 0.11732832 0.16186085
000010 bf f5 d0 3c d5 42 85 bd f4 be 3c 3e 3b b4 41 be
       0.025507806 -0.06506888 0.18432218 -0.18916409
000020 cd 3d 80 bd 1d de 61 3d f6 e1 52 be f4 23 0b 3e
       -0.062617876 0.055143464 -0.2059401 0.13587934
000030 f1 f2 a1 3d df 53 5f 3e 42 4a f2 3d ea 52 4f 3c
       0.079076655 0.21809338 0.1183057 0.012654046
000040 ac 05 2d 3e 0b 80 6c bd fa 04 e4 3d 29 8e 3e be
       0.16896695 -0.0577393 0.11133762 -0.18608917

sequential_2/dense_6/MatMul i1 [20, 84] scale=0.0039838618 zero_point=0
000000 0e eb be 03 d1 24 0c 28 d8 f6 25 17 eb e8 e2 f2
       0.055774063 -0.083661094 -0.26293486 0.011951585 -0.18724151 0.14341903 0.04780634 0.15935448 -0.15935448 -0.03983862 0.14740288 0.09162882 -0.083661094 -0.09561268 -0.11951585 -0.055774063
000010 ed b7 d7 ec 07 1d 19 1a c2 26 b1 38 dd 16 ce f3
       -0.07569338 -0.2908219 -0.16333833 -0.07967724 0.027887031 0.11553199 0.099596545 0.10358041 -0.24699943 0.15138675 -0.31472507 0.22309625 -0.13943516 0.08764496 -0.19919309 -0.051790204
000020 00 11 15 48 ca fd 06 38 0a 4e 0d f0 fc 7a c7 37
       0.0 0.06772565 0.083661094 0.28683805 -0.21512854 -0.011951585 0.02390317 0.22309625 0.03983862 0.31074122 0.051790204 -0.06374179 -0.015935447 0.48603114 -0.22708012 0.2191124
000030 13 54 f3 18 ef fd cc 09 10 cf 13 ec 90 e7 fb 00
       0.07569338 0.33464438 -0.051790204 0.09561268 -0.06772565 -0.011951585 -0.20716082 0.035854757 0.06374179 -0.19520922 0.07569338 -0.07967724 -0.4461925 -0.099596545 -0.01991931 0.0
000040 eb c6 e4 0e a6 e2 00 11 ca 0e dd 1d f4 db db df
       -0.083661094 -0.23106398 -0.111548126 0.055774063 -0.35854757 -0.11951585 0.0 0.06772565 -0.21512854 0.055774063 -0.13943516 0.11553199 -0.04780634 -0.14740288 -0.14740288 -0.13146743
000050 e7 c7 f3 fa fe ec b8 17 ff f3 e7 16 f1 04 ff d7
       -0.099596545 -0.22708012 -0.051790204 -0.02390317 -0.0079677235 -0.07967724 -0.28683805 0.09162882 -0.0039838618 -0.051790204 -0.099596545 0.08764496 -0.059757926 0.015935447 -0.0039838618 -0.16333833
000060 17 0c e2 13 f9 e1 cc 35 d0 28 13 08 04 09 f8 36
       0.09162882 0.04780634 -0.11951585 0.07569338 -0.027887031 -0.123499714 -0.20716082 0.21114467 -0.19122536 0.15935448 0.07569338 0.031870894 0.015935447 0.035854757 -0.031870894 0.21512854
000070 09 dc 25 e4 28 14 e8 10 1b e0 d9 e9 0d 21 02 0e
       0.035854757 -0.14341903 0.14740288 -0.111548126 0.15935448 0.07967724 -0.09561268 0.06374179 0.10756427 -0.12748358 -0.15537061 -0.09162882 0.051790204 0.13146743 0.0079677235 0.055774063
000080 f3 1c 3d d5 24 3e dc d6 d6 01 09 21 1f 13 e4 42
       -0.051790204 0.111548126 0.24301557 -0.17130606 0.14341903 0.24699943 -0.14341903 -0.16732219 -0.16732219 0.0039838618 0.035854757 0.13146743 0.123499714 0.07569338 -0.111548126 0.26293486
000090 40 f6 ff db e4 dd e5 0b d4 31 43 1b 0a ff 42 cb
       0.25496715 -0.03983862 -0.0039838618 -0.14740288 -0.111548126 -0.13943516 -0.10756427 0.04382248 -0.17528991 0.19520922 0.26691875 0.10756427 0.03983862 -0.0039838618 0.26293486 -0.21114467
0000a0 0c 03 2c 10 ce 10 3e 38 30 e3 3d 0d 48 c1 26 12
       0.04780634 0.011951585 0.17528991 0.06374179 -0.19919309 0.06374179 0.24699943 0.22309625 0.19122536 -0.11553199 0.24301557 0.051790204 0.28683805 -0.2509833 0.15138675 0.07170951
0000b0 e9 e6 f5 af 48 1c f2 45 0f 41 f5 f7 41 16 e9 20
       -0.09162882 -0.10358041 -0.04382248 -0.3226928 0.28683805 0.111548126 -0.055774063 0.27488646 0.059757926 0.258951 -0.04382248 -0.035854757 0.258951 0.08764496 -0.09162882 0.12748358
0000c0 03 2b b4 06 07 49 f5 1d d6 47 10 f1 c3 f0 f4 43
       0.011951585 0.17130606 -0.3027735 0.02390317 0.027887031 0.2908219 -0.04382248 0.11553199 -0.16732219 0.2828542 0.06374179 -0.059757926 -0.24301557 -0.06374179 -0.04780634 0.26691875
0000d0 09 48 22 c6 fa e7 af f3 0e e0 ce 0c e1 1f b9 de
       0.035854757 0.28683805 0.1354513 -0.23106398 -0.02390317 -0.099596545 -0.3226928 -0.051790204 0.055774063 -0.12748358 -0.19919309 0.04780634 -0.123499714 0.123499714 -0.2828542 -0.1354513
0000e0 ec f7 d1 2e e4 0f eb 0a dd 22 f3 11 1d cb e5 40
       -0.07967724 -0.035854757 -0.18724151 0.18325764 -0.111548126 0.059757926 -0.083661094 0.03983862 -0.13943516 0.1354513 -0.051790204 0.06772565 0.11553199 -0.21114467 -0.10756427 0.25496715
0000f0 d6 04 0a 1e 5a 03 f8 25 33 15 13 fe 07 04 29 b4
       -0.16732219 0.015935447 0.03983862 0.11951585 0.35854757 0.011951585 -0.031870894 0.14740288 0.20317695 0.083661094 0.07569338 -0.0079677235 0.027887031 0.015935447 0.16333833 -0.3027735
