model/keypoint_classifier/keypoint_classifier.tflite (tflite, 26392 bytes, 8 tensors)

sequential_1/dense_7/BiasAdd/ReadVariableOp f4 [53]
000000 ae da 90 be 18 7f 9c 3e 68 fc 08 3e 22 6c d9 3a
       -0.2829184 0.30565715 0.13377535 0.0016588012
000010 93 50 11 3f 88 36 88 be 32 3d 89 3d 8d 95 30 be
       0.5676357 -0.26604104 0.06701125 -0.17244549
000020 a8 27 e7 bc 52 03 2e bc e4 ba 5c be 22 5b 56 be
       -0.028217152 -0.010620909 -0.21555668 -0.20933202
000030 97 16 68 be a0 bc 42 be 1e fd 2c 3e 8b c3 d7 3b
       -0.22664867 -0.19017267 0.16893432 0.00658459
000040 08 2e 8d 3e ee 02 ab 3d e0 cb 62 bd bc cf a2 bd
       0.27574182 0.08350168 -0.05537021 -0.079497784
000050 9a 48 88 3e 54 2b d7 3d 07 be b6 be 56 bc 25 be
       0.2661789 0.10506311 -0.35691854 -0.16185126
000060 4a 35 9f bd ca 01 9e bd e2 96 16 bd 54 37 9c 3d
       -0.07773836 -0.07715185 -0.036764987 0.076277405
000070 e2 76 05 bd b8 84 a6 bd a4 c2 63 3e fb a8 dc 3e
       -0.03258408 -0.08130783 0.22242218 0.43097672
000080 0a a9 09 3f 59 98 b4 3e 27 00 2c 3e b9 f8 09 bf
       0.5377356 0.35272482 0.16796933 -0.53895146
000090 fe 4f 95 3d d5 bc b7 3d 59 8d 3a 3e 8d d9 30 3d
       0.07290648 0.08971564 0.18217982 0.043176223
0000a0 43 67 18 be 8a 5f f7 3d 68 21 9d 3d c3 30 7e bc
       -0.14883141 0.120787695 0.07672387 -0.015514555
0000b0 ec 04 50 be d9 06 2a bf d0 75 ba 3e 6a 95 91 be
       -0.20314378 -0.664167 0.3641801 -0.28434306
0000c0 a8 4c 02 bf 96 1a 1e be 7e 63 bb 3d c0 0a dd be
       -0.5089822 -0.15439829 0.09149836 -0.43172264
0000d0 40 bd 63 be
       -0.22240162

sequential_1/dense_6/BiasAdd/ReadVariableOp f4 [50]
000000 38 df 37 3d ff e4 08 be 2f eb dc be 6c 81 73 3c
       0.044890612 -0.13368605 -0.4314818 0.0148624
000010 ce 34 e0 3e 65 cb 95 bd 97 f3 d6 3d fa 4b b6 3d
       0.43790287 -0.07314185 0.1049568 0.0890121
000020 ff 3d e6 3d c9 8e a5 be 8c e9 1e 3f 53 36 98 be
       0.112422936 -0.323355 0.62075114 -0.29728946
000030 a0 90 25 3e 5a e2 72 3e 1a b1 32 be 0c 5e b0 3e
       0.16168451 0.23719159 -0.17450371 0.34446752
000040 3c 6c 9d 3e c2 a6 eb 3e 97 46 25 bd 55 f2 55 3d
       0.3074664 0.46025664 -0.040350523 0.05223306
000050 04 3a 0a 3e c7 d1 4a 3e 2d 47 54 3f 9e 13 c8 3e
       0.13498694 0.19806586 0.82921106 0.39077467
000060 d2 43 0c be 43 ca 5a 3e 3f 57 8c 3f 03 16 ee 3d
       -0.13697746 0.21366219 1.0964125 0.11625292
000070 59 75 4a 3e 65 d0 db 3e 8f 1c 0b 3e c7 3d 24 3f
       0.19771327 0.4293243 0.13585113 0.64156765
000080 f9 e4 29 3e 03 d9 ab bd 6b 80 97 3e e9 ad 12 3c
       0.16591252 -0.08391001 0.29590163 0.008952596
000090 81 03 ee 3e ed 19 ba 3d fc b2 18 3f 92 62 0f 3f
       0.46487048 0.09086976 0.5964811 0.5600978
0000a0 a2 9a ca be 1e cd e0 3e ea 43 c8 3d 78 c3 05 3c
       -0.395711 0.43906492 0.097785786 0.008164279
0000b0 79 8e 28 3e 73 69 71 3e a0 34 10 3e 9d a8 0a 3f
       0.16460599 0.23575382 0.14082575 0.54163533
0000c0 91 04 7e 3e 3c ad 6c be
       0.2480643 -0.23112959

sequential_1/dense_5/BiasAdd/ReadVariableOp f4 [100]
000000 24 99 22 3e 2f 40 a0 3d 50 6b 57 bc ca 49 81 3c
       0.15878731 0.07824742 -0.013148144 0.015782256
000010 08 70 37 be 45 7c d5 3c 59 ef ce 3e d5 08 ee 3a
       -0.1791383 0.026060233 0.40416983 0.0018160591
000020 7b cf 65 3d 92 1d 44 3e c0 2f 91 3e 2f 8e 6b 3d
       0.056106072 0.19151905 0.28356743 0.057508644
000030 71 b1 87 3e 35 68 16 be 75 f1 3b 3e f6 cc a8 bc
       0.26502565 -0.1468819 0.18353827 -0.020605545
000040 13 75 af bc 59 67 08 3d 03 54 e2 3e c1 11 0e bd
       -0.02141813 0.033301685 0.4420472 -0.0346849
000050 08 aa 6d be e0 a7 99 3e 2b ee ec bb 96 e9 7a 3e
       -0.23209393 0.3001089 -0.0072305403 0.24503168
000060 de 05 ea 3d e1 64 50 3e 0c 3d 0c 3e e3 a8 dc 3c
       0.114269 0.20350982 0.13695163 0.026936
000070 3d ba 69 3e 2a 21 c2 3e c6 51 2c bd cc e2 e0 bd
       0.2282495 0.37915927 -0.042070173 -0.10980758
000080 76 22 c8 3e 38 84 87 3d c0 64 32 3e be d9 cc 3b
       0.39088792 0.066170156 0.17421246 0.006251543
000090 f5 c7 6a 3e 8a 4e 79 be 92 59 ef 3c 68 06 30 3e
       0.2292784 -0.24346367 0.029217515 0.17189944
0000a0 cf c4 14 be f6 a8 3c 3c 08 9a 73 3e b0 0b 46 3e
       -0.14528202 0.011514893 0.23789227 0.19340396
0000b0 7b 59 a8 3e 67 da 42 bd ae 5d 51 3e 31 42 72 be
       0.32880768 -0.047571566 0.20445892 -0.23658063
0000c0 41 4c 8a 3e bf 04 59 3e 76 5e 9a 3e 15 b7 79 3d
       0.27011302 0.21193217 0.30150193 0.060965616
0000d0 f0 d6 79 3c a8 a7 40 3e 54 1e ac bc bd 48 5c 3e
       0.015248999 0.18813956 -0.021010555 0.21512122
0000e0 e5 f0 fd bc 2b 39 57 3e bd e9 36 3e bb 0d 76 3e
       -0.030998657 0.21017902 0.17862602 0.24028675
0000f0 70 64 05 bd bc 78 76 3d a5 ec 7d 3e bb ba 04 3c
       -0.032566488 0.060173735 0.24797304 0.008101161
000100 f3 fe 78 3d af 4d cb bd d6 7c 49 bd c4 30 c1 3e
       0.060790014 -0.09926926 -0.04919132 0.37732518
000110 c4 04 76 3d e7 6a ee 3d 94 e0 ca 3d 7a 8d cc bd
       0.06006314 0.11641484 0.09906116 -0.09987922
000120 aa 1c 0f be f1 e5 4f 3c 24 58 02 3e 7c 0d 42 3d
       -0.13975778 0.0126891 0.12728935 0.04737614
000130 47 28 8b be 32 bb 19 bd e6 97 83 3c fb 04 08 3e
       -0.27179167 -0.03753204 0.016063642 0.1328315
000140 93 37 ee 3c 3c c3 5b 3e 50 a5 86 be 12 b4 a5 3e
       0.029079234 0.21461195 -0.26297998 0.32363945
000150 25 e4 8b 3e 60 bc 8f 3e 2a c4 52 3e e4 ab 9f 3d
       0.27322498 0.28073406 0.20582643 0.077964574
000160 e1 0f 8c 3e 2a 3a 64 bd 49 71 06 be f7 bf 0f bd
       0.27355865 -0.055719532 -0.13129152 -0.03509518
000170 ef 6e 03 bc 61 d9 8e bb b0 6c 81 3d a7 01 2d bd
       -0.008022054 -0.0043594097 0.063195586 -0.042237904
000180 92 63 a6 bc d4 db a7 3e 65 11 d4 3d 47 d7 06 ba
       -0.02031115 0.32784903 0.1035488 -0.0005143773

sequential_1/dense_4/BiasAdd/ReadVariableOp f4 [80]
000000 e8 b6 d1 bd e7 13 aa bd cc 49 17 be 2c 6a 10 3d
       -0.10239965 -0.08304577 -0.14774245 0.035257503
000010 d3 fd 71 be 77 ba 61 3a c4 ce 96 3c 49 c9 a7 bd
       -0.23631983 0.0008610854 0.01840914 -0.08192689
000020 3d 1c 9b bd 3b 82 9e be 6a f6 02 be c9 9f b0 be
       -0.075737454 -0.30958733 -0.12789312 -0.34496906
000030 04 d7 58 be 33 c4 44 be f1 9c 05 be 1f bb f2 bd
       -0.21175772 -0.19215469 -0.1304815 -0.11852097
000040 c8 d3 fc bd 7f 82 24 be 64 79 aa bd f6 89 cc 3d
       -0.123450816 -0.16065405 -0.08323935 0.099872515
000050 50 38 54 be 2b 87 91 bd 7f 93 ea bd 21 19 fb bc
       -0.20724607 -0.07105859 -0.11453914 -0.03065163
000060 7f 5e 0b bd 45 32 82 be b2 76 13 be 21 67 02 3b
       -0.034025665 -0.25428978 -0.14400747 0.0019897895
000070 25 0f bb bd 54 63 63 be 4a e3 4e bd dc 27 77 bd
       -0.09133748 -0.2220586 -0.05050973 -0.060340747
000080 d0 d1 32 be 8b a3 95 bd 9b 40 82 be 62 07 f5 bd
       -0.1746285 -0.07306584 -0.25439915 -0.11964299
000090 ac 29 3b 3d 5c 00 47 3e 7c 4a 8a bd 5e 31 83 be
       0.04569404 0.19433731 -0.06752488 -0.25623602
0000a0 6b 34 31 be 34 f2 91 bd 36 b0 11 be 6b 18 5a be
       -0.17305152 -0.07126275 -0.14227375 -0.21298377
0000b0 e4 bf 1f bc 38 8a ad 3d 62 cf 46 be ff ff 09 be
       -0.00975034 0.08473629 -0.19415048 -0.13476561
0000c0 f5 91 e3 bc 02 ef 16 bd 91 13 ef bc 0c f5 b0 bd
       -0.027779559 -0.03684903 -0.029184135 -0.08640489
0000d0 2d db e9 bd 2b 2d 35 be 7c aa 99 be 71 7b cf 3c
       -0.114187576 -0.17693011 -0.30012882 0.025327416
0000e0 c6 09 c7 bd 0e 4a 2b be 6b 9f ad 3c 5c 0b e8 bd
       -0.09718661 -0.16727468 0.02119418 -0.11330292
0000f0 04 d1 61 3e 33 cb 9d bd b8 67 28 3d 13 f5 26 be
       0.2205239 -0.07704773 0.04111454 -0.16304426
000100 b5 b4 0a be a1 58 2a be 92 14 a8 bc 6b 01 3d bd
       -0.13545497 -0.16635372 -0.020517621 -0.04614393
000110 dd 7c 02 3e ba b5 2a bc 28 a7 5e bd 94 41 ab bd
       0.12742944 -0.010419304 -0.05435863 -0.083621174
000120 a4 e9 12 be c3 0c 5b bd 0e d1 da bc 97 40 cd bd
       -0.1434694 -0.053478967 -0.026711013 -0.10022085
000130 32 03 70 be 4e 32 65 be 3c 3d 8c 3e 26 10 21 3d
       -0.23438719 -0.22382471 0.27390468 0.03932204

sequential_1/dense_4/MatMul i1 [80, 86] scale=0.013008126 zero_point=0
000000 0c d5 e9 e9 29 f1 3f ea 3f eb 23 c4 96 ee d1 e6
       0.15609752 -0.5593494 -0.2991869 -0.2991869 0.5333332 -0.19512188 0.81951195 -0.28617877 0.81951195 -0.27317065 0.45528442 -0.78048754 -1.3788613 -0.23414627 -0.61138195 -0.33821127
000010 03 29 fe 59 ac e4 e4 ef 1d 1f 07 58 a8 e2 01 e0
       0.03902438 0.5333332 -0.026016252 1.1577232 -1.0926826 -0.36422753 -0.36422753 -0.22113815 0.37723565 0.40325192 0.09105688 1.1447151 -1.1447151 -0.39024377 0.013008126 -0.41626003
000020 34 1a 09 44 df da 00 dd 3b f0 4d 0b fe fb fc f8
       0.67642254 0.33821127 0.11707313 0.8845526 -0.42926815 -0.4943088 0.0 -0.45528442 0.7674794 -0.20813002 1.0016257 0.14308938 -0.026016252 -0.06504063 -0.052032504 -0.10406501
000030 f4 fb f9 f3 02 f8 fc 0f f5 ff 0e f9 04 07 06 0b
       -0.15609752 -0.06504063 -0.09105688 -0.16910563 0.026016252 -0.10406501 -0.052032504 0.19512188 -0.14308938 -0.013008126 0.18211377 -0.09105688 0.052032504 0.09105688 0.07804876 0.14308938
000040 04 fb 0e f5 0b fd 03 f6 fd f5 00 07 f9 f3 07 f9
       0.052032504 -0.06504063 0.18211377 -0.14308938 0.14308938 -0.03902438 0.03902438 -0.13008127 -0.03902438 -0.14308938 0.0 0.09105688 -0.09105688 -0.16910563 0.09105688 -0.09105688
000050 f9 0a 07 01 ff 05 fd 00 07 fc f8 ee fa e1 10 e4
       -0.09105688 0.13008127 0.09105688 0.013008126 -0.013008126 0.06504063 -0.03902438 0.0 0.09105688 -0.052032504 -0.10406501 -0.23414627 -0.07804876 -0.40325192 0.20813002 -0.36422753
000060 03 ee 0a e7 09 fd f8 f6 09 15 f4 ea 08 e9 ff fe
       0.03902438 -0.23414627 0.13008127 -0.32520315 0.11707313 -0.03902438 -0.10406501 -0.13008127 0.11707313 0.27317065 -0.15609752 -0.28617877 0.10406501 -0.2991869 -0.013008126 -0.026016252
000070 0d 06 ff e9 06 ef 16 02 ff fd 02 e2 f8 f2 06 f2
       0.16910563 0.07804876 -0.013008126 -0.2991869 0.07804876 -0.22113815 0.28617877 0.026016252 -0.013008126 -0.03902438 0.026016252 -0.39024377 -0.10406501 -0.18211377 0.07804876 -0.18211377
000080 fe f7 f1 17 fe 13 0f 07 19 dd 0f ca fc 08 f5 fd
       -0.026016252 -0.11707313 -0.19512188 0.2991869 -0.026016252 0.2471544 0.19512188 0.09105688 0.32520315 -0.45528442 0.19512188 -0.70243883 -0.052032504 0.10406501 -0.14308938 -0.03902438
000090 f1 f4 18 e0 fd 0a f2 f0 01 fc ff fa ef f1 e6 f0
       -0.19512188 -0.15609752 0.31219503 -0.41626003 -0.03902438 0.13008127 -0.18211377 -0.20813002 0.013008126 -0.052032504 -0.013008126 -0.07804876 -0.22113815 -0.19512188 -0.33821127 -0.20813002
0000a0 fd 0c 19 1e eb 04 db f1 ff fd fd 14 f3 78 ef e9
       -0.03902438 0.15609752 0.32520315 0.39024377 -0.27317065 0.052032504 -0.48130065 -0.19512188 -0.013008126 -0.03902438 -0.03902438 0.26016253 -0.16910563 1.5609751 -0.22113815 -0.2991869
0000b0 00 f6 e9 e7 04 06 ed 0a 04 02 fe 0b fb 14 0f 30
       0.0 -0.13008127 -0.2991869 -0.32520315 0.052032504 0.07804876 -0.2471544 0.13008127 0.052032504 0.026016252 -0.026016252 0.14308938 -0.06504063 0.26016253 0.19512188 0.62439007
0000c0 03 03 fa 08 f1 f7 06 f9 02 00 04 15 fd fc f5 19
       0.03902438 0.03902438 -0.07804876 0.10406501 -0.19512188 -0.11707313 0.07804876 -0.09105688 0.026016252 0.0 0.052032504 0.27317065 -0.03902438 -0.052032504 -0.14308938 0.32520315
0000d0 10 eb 00 00 f9 00 09 0f de ff fd ff f3 e4 0d e2
       0.20813002 -0.27317065 0.0 0.0 -0.09105688 0.0 0.11707313 0.19512188 -0.4422763 -0.013008126 -0.03902438 -0.013008126 -0.16910563 -0.36422753 0.16910563 -0.39024377
0000e0 16 e1 2c d9 1b f6 10 12 24 18 15 fc f7 f5 e4 f9
       0.28617877 -0.40325192 0.57235754 -0.5073169 0.35121942 -0.13008127 0.20813002 0.23414627 0.46829253 0.31219503 0.27317065 -0.052032504 -0.11707313 -0.14308938 -0.36422753 -0.09105688
0000f0 c5 00 0e ff f2 f5 fa 12 04 22 13 fb eb 11 f6 19
       -0.7674794 0.0 0.18211377 -0.013008126 -0.18211377 -0.14308938 -0.07804876 0.23414627 0.052032504 0.4422763 0.2471544 -0.06504063 -0.27317065 0.22113815 -0.13008127 0.32520315

sequential_1/dense_5/MatMul i1 [100, 80] scale=0.012531428 zero_point=0
000000 0c f9 be fa 19 05 08 fe fc e8 0f 05 eb fe e8 28
       0.15037712 -0.08771999 -0.8270742 -0.07518856 0.31328568 0.06265714 0.10025142 -0.025062855 -0.05012571 -0.30075425 0.18797141 0.06265714 -0.26316 -0.025062855 -0.30075425 0.5012571
000010 e2 07 ff e9 e9 f6 e4 05 1d f4 d1 00 05 de 1b fa
       -0.37594283 0.08771999 -0.012531428 -0.28822285 -0.28822285 -0.12531428 -0.35087997 0.06265714 0.3634114 -0.15037712 -0.5889771 0.0 0.06265714 -0.42606854 0.33834854 -0.07518856
000020 02 fe fa f9 00 26 f9 04 03 00 03 ef 00 0b 11 0e
       0.025062855 -0.025062855 -0.07518856 -0.08771999 0.0 0.47619426 -0.08771999 0.05012571 0.03759428 0.0 0.03759428 -0.21303427 0.0 0.13784571 0.21303427 0.17543998
000030 f4 fb fd db e7 00 ec 41 00 f5 0c 01 ff 09 09 03
       -0.15037712 -0.06265714 -0.03759428 -0.46366283 -0.31328568 0.0 -0.25062856 0.8145428 0.0 -0.13784571 0.15037712 0.012531428 -0.012531428 0.11278285 0.11278285 0.03759428
000040 a2 ec fc c7 16 f7 01 2d ee f3 f5 06 2a 07 02 31
       -1.1779542 -0.25062856 -0.05012571 -0.7142914 0.27569142 -0.11278285 0.012531428 0.56391424 -0.2255657 -0.16290855 -0.13784571 0.07518856 0.52632 0.08771999 0.025062855 0.61403996
000050 60 16 04 a5 fe 0c ea c0 0a bc f5 04 05 08 f5 c9
       1.203017 0.27569142 0.05012571 -1.1403599 -0.025062855 0.15037712 -0.27569142 -0.8020114 0.12531428 -0.8521371 -0.13784571 0.05012571 0.06265714 0.10025142 -0.13784571 -0.68922853
000060 27 0a 03 db 08 ff fc 9f f7 00 d7 f9 ed a8 e7 0e
       0.4887257 0.12531428 0.03759428 -0.46366283 0.10025142 -0.012531428 -0.05012571 -1.2155485 -0.11278285 0.0 -0.5137885 -0.08771999 -0.23809713 -1.1027657 -0.31328568 0.17543998
000070 fb fd f5 fe fb 0d fe fc fc 08 00 0f 27 07 12 fb
       -0.06265714 -0.03759428 -0.13784571 -0.025062855 -0.06265714 0.16290855 -0.025062855 -0.05012571 -0.05012571 0.10025142 0.0 0.18797141 0.4887257 0.08771999 0.2255657 -0.06265714
000080 e7 f9 14 fd 01 22 0c a1 17 03 d1 01 0e f9 04 e2
       -0.31328568 -0.08771999 0.25062856 -0.03759428 0.012531428 0.42606854 0.15037712 -1.1904856 0.28822285 0.03759428 -0.5889771 0.012531428 0.17543998 -0.08771999 0.05012571 -0.37594283
000090 0b 0d f7 fe 03 16 f7 09 09 10 03 c0 f7 09 fe dc
       0.13784571 0.16290855 -0.11278285 -0.025062855 0.03759428 0.27569142 -0.11278285 0.11278285 0.11278285 0.20050284 0.03759428 -0.8020114 -0.11278285 0.11278285 -0.025062855 -0.4511314
0000a0 1c d4 30 fa d8 db 21 10 06 3b f8 fe eb f3 fe 14
       0.35087997 -0.55138284 0.6015085 -0.07518856 -0.5012571 -0.46366283 0.4135371 0.20050284 0.07518856 0.73935425 -0.10025142 -0.025062855 -0.26316 -0.16290855 -0.025062855 0.25062856
0000b0 ed f7 02 18 ec f8 1b f7 e1 12 00 03 03 0a ef f6
       -0.23809713 -0.11278285 0.025062855 0.30075425 -0.25062856 -0.10025142 0.33834854 -0.11278285 -0.38847426 0.2255657 0.0 0.03759428 0.03759428 0.12531428 -0.21303427 -0.12531428
0000c0 fb 09 03 d4 10 03 1a 0b db eb c3 1c 0d cd 0d ee
       -0.06265714 0.11278285 0.03759428 -0.55138284 0.20050284 0.03759428 0.3258171 0.13784571 -0.46366283 -0.26316 -0.7644171 0.35087997 0.16290855 -0.6391028 0.16290855 -0.2255657
0000d0 12 f4 04 26 f8 f1 08 db 04 e8 fc 10 d1 e8 e6 04
       0.2255657 -0.15037712 0.05012571 0.47619426 -0.10025142 -0.18797141 0.10025142 -0.46366283 0.05012571 -0.30075425 -0.05012571 0.20050284 -0.5889771 -0.30075425 -0.3258171 0.05012571
0000e0 1c e9 fc 40 d3 e7 ef 03 20 16 14 f8 ed 0a fe da
       0.35087997 -0.28822285 -0.05012571 0.8020114 -0.56391424 -0.31328568 -0.21303427 0.03759428 0.4010057 0.27569142 0.25062856 -0.10025142 -0.23809713 0.12531428 -0.025062855 -0.47619426
0000f0 ed 0a f4 f6 f1 07 0c 00 fe 0c b7 b9 06 fb ff f4
       -0.23809713 0.12531428 -0.15037712 -0.12531428 -0.18797141 0.08771999 0.15037712 0.0 -0.025062855 0.15037712 -0.9147942 -0.88973135 0.07518856 -0.06265714 -0.012531428 -0.15037712

sequential_1/dense_6/MatMul i1 [50, 100] scale=0.01177425 zero_point=0
000000 0c 0f 15 1b f7 f4 12 04 0d 12 00 1b 0a 08 1e 0d
       0.141291 0.17661375 0.24725926 0.31790477 -0.10596825 -0.141291 0.2119365 0.047097 0.15306525 0.2119365 0.0 0.31790477 0.1177425 0.094194 0.3532275 0.15306525
000010 17 ff c8 02 f3 b0 0e 06 e4 16 07 0f 08 16 fd 11
       0.27080774 -0.01177425 -0.659358 0.0235485 -0.15306525 -0.94194 0.1648395 0.0706455 -0.329679 0.2590335 0.08241975 0.17661375 0.094194 0.2590335 -0.03532275 0.20016226
000020 0e 00 05 1c f4 10 17 02 1e 05 f6 06 06 13 02 26
       0.1648395 0.0 0.05887125 0.329679 -0.141291 0.188388 0.27080774 0.0235485 0.3532275 0.05887125 -0.1177425 0.0706455 0.0706455 0.22371076 0.0235485 0.44742152
000030 05 06 e1 ee 0f f6 0f 11 f1 ee 06 f6 05 02 07 0a
       0.05887125 0.0706455 -0.36500177 -0.2119365 0.17661375 -0.1177425 0.17661375 0.20016226 -0.17661375 -0.2119365 0.0706455 -0.1177425 0.05887125 0.0235485 0.08241975 0.1177425
000040 05 0e 02 fb 0e 18 ec 29 ee fd 0b fb 0f 22 17 0a
       0.05887125 0.1648395 0.0235485 -0.05887125 0.1648395 0.282582 -0.235485 0.48274428 -0.2119365 -0.03532275 0.12951675 -0.05887125 0.17661375 0.40032452 0.27080774 0.1177425
000050 d2 ed 19 12 e1 14 f6 09 28 16 f9 fd 14 e6 0f 0c
       -0.5416155 -0.22371076 0.29435626 0.2119365 -0.36500177 0.235485 -0.1177425 0.10596825 0.47097 0.2590335 -0.08241975 -0.03532275 0.235485 -0.3061305 0.17661375 0.141291
000060 0b b6 ca 14 04 14 ff 1e c6 f0 09 d5 de 1a 1e 0c
       0.12951675 -0.8712945 -0.63580954 0.235485 0.047097 0.235485 -0.01177425 0.3532275 -0.6829065 -0.188388 0.10596825 -0.50629276 -0.40032452 0.3061305 0.3532275 0.141291
000070 15 f8 ed cc ed e5 fa 15 23 07 11 00 0d 11 f2 12
       0.24725926 -0.094194 -0.22371076 -0.612261 -0.22371076 -0.31790477 -0.0706455 0.24725926 0.41209877 0.08241975 0.20016226 0.0 0.15306525 0.20016226 -0.1648395 0.2119365
000080 01 11 2c 1b ef 08 d6 f2 e8 fe e3 0a 0f 11 f5 03
       0.01177425 0.20016226 0.518067 0.31790477 -0.20016226 0.094194 -0.49451852 -0.1648395 -0.282582 -0.0235485 -0.34145325 0.1177425 0.17661375 0.20016226 -0.12951675 0.03532275
000090 01 f4 03 12 e6 0e d0 2a 16 fe 0e 1f 05 e7 13 f9
       0.01177425 -0.141291 0.03532275 0.2119365 -0.3061305 0.1648395 -0.565164 0.49451852 0.2590335 -0.0235485 0.1648395 0.36500177 0.05887125 -0.29435626 0.22371076 -0.08241975
0000a0 20 09 05 1f fa 13 0c 04 f3 fa 15 f2 f8 16 df 11
       0.376776 0.10596825 0.05887125 0.36500177 -0.0706455 0.22371076 0.141291 0.047097 -0.15306525 -0.0706455 0.24725926 -0.1648395 -0.094194 0.2590335 -0.38855025 0.20016226
0000b0 23 14 10 06 f8 dc f6 ef 0d fd 0f 0c 05 e4 1e e3
       0.41209877 0.235485 0.188388 0.0706455 -0.094194 -0.423873 -0.1177425 -0.20016226 0.15306525 -0.03532275 0.17661375 0.141291 0.05887125 -0.329679 0.3532275 -0.34145325
0000c0 f6 07 08 0e 12 02 11 ed f2 2b 00 e8 cf 19 f8 13
       -0.1177425 0.08241975 0.094194 0.1648395 0.2119365 0.0235485 0.20016226 -0.22371076 -0.1648395 0.50629276 0.0 -0.282582 -0.5769383 0.29435626 -0.094194 0.22371076
0000d0 fe 0a 27 e1 de 07 06 0f f8 0b fa 12 1d 27 10 fa
       -0.0235485 0.1177425 0.45919576 -0.36500177 -0.40032452 0.08241975 0.0706455 0.17661375 -0.094194 0.12951675 -0.0706455 0.2119365 0.34145325 0.45919576 0.188388 -0.0706455
0000e0 13 f5 1a 2f f6 f6 23 f7 1e 02 ed 05 f7 0f c5 d2
       0.22371076 -0.12951675 0.3061305 0.5533898 -0.1177425 -0.1177425 0.41209877 -0.10596825 0.3532275 0.0235485 -0.22371076 0.05887125 -0.10596825 0.17661375 -0.69468075 -0.5416155
0000f0 07 1c fb 02 fa 10 d6 07 e5 24 f8 13 1c 07 10 08
       0.08241975 0.329679 -0.05887125 0.0235485 -0.0706455 0.188388 -0.49451852 0.08241975 -0.31790477 0.423873 -0.094194 0.22371076 0.329679 0.08241975 0.188388 0.094194

sequential_1/dense_7/MatMul i1 [53, 50] scale=0.009670706 zero_point=0
000000 21 00 e9 01 10 f8 03 e2 e9 f1 17 09 01 d6 f7 e2
       0.31913328 0.0 -0.22242622 0.009670706 0.15473129 -0.077365644 0.029012118 -0.29012117 -0.22242622 -0.14506058 0.22242622 0.08703635 0.009670706 -0.40616962 -0.08703635 -0.29012117
000010 f3 f4 c7 19 eb c9 ef 04 0c ed e9 12 23 0e d5 ed
       -0.12571917 -0.11604847 -0.5512302 0.24176764 -0.20308481 -0.5318888 -0.164402 0.038682822 0.11604847 -0.1837434 -0.22242622 0.1740727 0.3384747 0.13538988 -0.41584033 -0.1837434
000020 e8 e4 0f f0 bc 12 cd d9 18 0e e6 1e fe fa 11 ef
       -0.23209694 -0.27077976 0.14506058 -0.15473129 -0.657608 0.1740727 -0.493206 -0.3771575 0.23209694 0.13538988 -0.25143835 0.29012117 -0.019341411 -0.058024235 0.164402 -0.164402
000030 f1 e1 e9 dd 13 fb b5 e4 00 fc f1 f4 e9 07 f7 d7
       -0.14506058 -0.29979187 -0.22242622 -0.3384747 0.1837434 -0.048353527 -0.72530293 -0.27077976 0.0 -0.038682822 -0.14506058 -0.11604847 -0.22242622 0.06769494 -0.08703635 -0.39649892
000040 c7 ff 11 cf f4 09 02 2c 15 e2 05 1f d0 df f8 16
       -0.5512302 -0.009670706 0.164402 -0.4738646 -0.11604847 0.08703635 0.019341411 0.42551103 0.20308481 -0.29012117 0.048353527 0.29979187 -0.46419388 -0.31913328 -0.077365644 0.21275552
000050 e6 0f df ff d5 e8 ef f0 ed b8 01 ed f4 18 10 ff
       -0.25143835 0.14506058 -0.31913328 -0.009670706 -0.41584033 -0.23209694 -0.164402 -0.15473129 -0.1837434 -0.6962908 0.009670706 -0.1837434 -0.11604847 0.23209694 0.15473129 -0.009670706
000060 06 f8 22 18 1c c8 f3 15 19 0a 10 1a f8 00 cc f5
       0.058024235 -0.077365644 0.328804 0.23209694 0.27077976 -0.5415595 -0.12571917 0.20308481 0.24176764 0.09670705 0.15473129 0.25143835 -0.077365644 0.0 -0.5028767 -0.10637776
000070 ee 0a fd 05 1f de ea fd f7 00 fb ed ff be c8 e0
       -0.1740727 0.09670705 -0.029012118 0.048353527 0.29979187 -0.328804 -0.21275552 -0.029012118 -0.08703635 0.0 -0.048353527 -0.1837434 -0.009670706 -0.63826656 -0.5415595 -0.30946258
000080 1e 06 1d 07 cf ee f2 dc ed dd 19 1d e4 e9 f6 ff
       0.29012117 0.058024235 0.28045046 0.06769494 -0.4738646 -0.1740727 -0.13538988 -0.3481454 -0.1837434 -0.3384747 0.24176764 0.28045046 -0.27077976 -0.22242622 -0.09670705 -0.009670706
000090 18 fb 0d 15 f3 0c de dd f3 19 ec c4 0b d0 f4 13
       0.23209694 -0.048353527 0.12571917 0.20308481 -0.12571917 0.11604847 -0.328804 -0.3384747 -0.12571917 0.24176764 -0.1934141 -0.58024234 0.10637776 -0.46419388 -0.11604847 0.1837434
0000a0 f5 e7 15 b5 e0 26 18 05 ea ff fc 1a d4 de 14 13
       -0.10637776 -0.24176764 0.20308481 -0.72530293 -0.30946258 0.3674868 0.23209694 0.048353527 -0.21275552 -0.009670706 -0.038682822 0.25143835 -0.42551103 -0.328804 0.1934141 0.1837434
0000b0 ef ca fd 0d 08 11 d0 fa b9 10 f1 d8 10 de 0d ce
       -0.164402 -0.5222181 -0.029012118 0.12571917 0.077365644 0.164402 -0.46419388 -0.058024235 -0.6866201 0.15473129 -0.14506058 -0.3868282 0.15473129 -0.328804 0.12571917 -0.4835353
0000c0 0e 23 2a ff 03 cf db d5 fd e2 f4 1e cd d2 eb 1c
       0.13538988 0.3384747 0.40616962 -0.009670706 0.029012118 -0.4738646 -0.3578161 -0.41584033 -0.029012118 -0.29012117 -0.11604847 0.29012117 -0.493206 -0.44485244 -0.20308481 0.27077976
0000d0 04 e9 06 1a eb c3 d9 2a fb 1f e9 1a 14 01 05 fa
       0.038682822 -0.22242622 0.058024235 0.25143835 -0.20308481 -0.589913 -0.3771575 0.40616962 -0.048353527 0.29979187 -0.22242622 0.25143835 0.1934141 0.009670706 0.048353527 -0.058024235
0000e0 1e f9 cd cf dc 27 f6 10 d7 f9 d1 04 f2 ce ed db
       0.29012117 -0.06769494 -0.493206 -0.4738646 -0.3481454 0.3771575 -0.09670705 0.15473129 -0.39649892 -0.06769494 -0.45452315 0.038682822 -0.13538988 -0.4835353 -0.1837434 -0.3578161
0000f0 fd 0c cb 02 e5 c8 f9 c9 26 d1 ff 21 e0 f6 d7 dd
       -0.029012118 0.11604847 -0.5125474 0.019341411 -0.26110905 -0.5415595 -0.06769494 -0.5318888 0.3674868 -0.45452315 -0.009670706 0.31913328 -0.30946258 -0.09670705 -0.39649892 -0.3384747
