model/keypoint_classifier/keypoint_classifier.tflite (tflite, 5216 bytes, 6 tensors)

sequential_13/dense_41/MatMul f4 [7, 10]
0	0xbf206d1a	-0.62666476
1	0x3ec7f52e	0.39054245
2	0x3c40013d	0.011719045
3	0xbe5bf11f	-0.21478699
4	0x3e534173	0.20630436
5	0xbceaa132	-0.028641317
6	0xbec87a50	-0.39155817
7	0x3f2b65c3	0.6695215
8	0xbd4693a8	-0.04848066
9	0xbf623687	-0.8836445
10	0xbea48f75	-0.321407
11	0x3eeb55c1	0.45963863
12	0x3aff69a8	0.0019486444
13	0x3f20dfce	0.628415
14	0x3ec5eb74	0.386562
15	0xbfa90899	-1.3205749
16	0xbda18c10	-0.07888043
17	0xbec625bf	-0.38700673
18	0xbee66b6a	-0.45003825
19	0x3f62c66f	0.88584036
20	0xbee8493a	-0.45368367
21	0x3e6341c7	0.22193061
22	0xbdd1eb06	-0.10249905
23	0x3ec2d1b4	0.38050616
24	0x3e9b7fb7	0.30370876
25	0x3ec3dfaf	0.38256595
26	0x3f681b03	0.90666217
27	0xbf4593eb	-0.7717883
28	0xbf6a5447	-0.9153485
29	0xbe0d0d46	-0.13774595
30	0xbede29e7	-0.43391344
31	0xbebfae8a	-0.3743785
32	0x3e97f7f8	0.29681373
33	0xbe4f9f17	-0.20275532
34	0xbf247329	-0.6423822
35	0xbea9763b	-0.33098015
36	0x3f157062	0.5837461
37	0xbf80dc41	-1.0067216
38	0x3ef0bcf6	0.47019166
39	0x3f4c1c95	0.7973111
40	0xbf0a1079	-0.53931385
41	0xbe9c924b	-0.30580363
42	0xbf84c72a	-1.037328
43	0xbea40aa6	-0.32039374
44	0x3f2b9aae	0.670329
45	0x3ed986f7	0.42485783
46	0xbe4e2610	-0.20131707
47	0xbe95f647	-0.29289457
48	0x3f0cc1e0	0.5498333
49	0x3f3e6c99	0.74384457
50	0x3f98f8e2	1.1950953
51	0x3e9b1484	0.3028909
52	0xbf01154b	-0.50423115
53	0xbe515d52	-0.20445755
54	0xbf6f1882	-0.9339677
55	0x3eb29a40	0.34883308
56	0xbf02bbbe	-0.5106772
57	0x3dcccb96	0.099997684
58	0xbee2be11	-0.44285634
59	0x3ed725a0	0.42020893
60	0x3e595426	0.21223506
61	0xbf99f45f	-1.2027701
62	0x3f55242b	0.8325831
63	0x3f2fecee	0.687209
64	0x3e721ebb	0.23644535
65	0xbe9b319d	-0.3031129
66	0x3eaf47e3	0.34234533
67	0xbf670a21	-0.9024983
68	0x3efe077c	0.49615085
69	0xbf9e98ae	-1.2390344

sequential_13/dense_40/MatMul f4 [10, 20]
0	0xbee51d75	-0.44749036
1	0xbee34d99	-0.4439514
2	0xbe4f187c	-0.20224184
3	0x3e8b327a	0.27186948
4	0x3ea93ec7	0.33055708
5	0xbea4bbbf	-0.3217449
6	0x3f2a73f8	0.66583204
7	0xbe8f6bb9	-0.28011873
8	0xbeab1343	-0.33413133
9	0xbdd91c72	-0.10601129
10	0xbec2faff	-0.3808212
11	0xbeae6080	-0.34058
12	0x3efc9658	0.49333453
13	0x3daa146e	0.08304678
14	0xbe967892	-0.29388863
15	0xbf10ea38	-0.5660739
16	0x3e6832d1	0.22675635
17	0xbe072652	-0.13198212
18	0xbe894d08	-0.26816583
19	0x3e803810	0.25042772
20	0x3da423a4	0.080146104
21	0x3e9ee712	0.31035668
22	0x3f255ed7	0.6459784
23	0x3eccd469	0.40005806
24	0x3e7ea33a	0.24866953
25	0x3dc0778c	0.09397802
26	0xbe8c8f0e	-0.27452892
27	0xbf317fd7	-0.69335693
28	0x3f018dea	0.5060717
29	0x3eaf31d0	0.3421769
30	0x3e99ae52	0.30015808
31	0x3da007f8	0.0781402
32	0x3f65dd82	0.8979112
33	0x3ecad4c2	0.39615446
34	0xbe0eaae1	-0.13932373
35	0xbc0e8182	-0.008697869
36	0x3f0ee2df	0.5581493
37	0x3f93f911	1.1560384
38	0xbd3e7db2	-0.04650659
39	0x3cd7d588	0.026346937
40	0x3f024fa7	0.5090279
41	0xbf279ef6	-0.6547693
42	0xbed238c5	-0.41058937
43	0xbd636ae7	-0.055521872
44	0xbef3ee01	-0.4764252
45	0xbea24ec8	-0.3170073
46	0xbdf9b6a3	-0.12193038
47	0x3e8d4d59	0.27598074
48	0x3eba5267	0.36390993
49	0xbea94209	-0.33058193
50	0xbea7ace7	-0.32749102
51	0x3f3d6ee5	0.73997337
52	0x3e03a6ca	0.12856594
53	0xbed45d17	-0.41477272
54	0x3f3b4081	0.731453
55	0x3f1a0556	0.6016439
56	0xbf08fe83	-0.53513354
57	0x3f3623ed	0.7114857
58	0x3db87bb2	0.09007968
59	0xbc820993	-0.015873706
60	0x3ec0261f	0.37529084
61	0xbe1e515b	-0.15460722
62	0x3e17c4d8	0.14821184
63	0x3df07ea0	0.11742902
64	0xbf0159ae	-0.50527465
65	0x3c502561	0.012704224
66	0x3e406e5d	0.187921
67	0xbdf7c1bb	-0.12097498
68	0xbe5ba883	-0.21451001
69	0xbe569719	-0.20956077
70	0xbcaf3a7f	-0.021390198
71	0x3f087b30	0.5331297
72	0x3eb58e65	0.354602
73	0xbef6c5a7	-0.48197672
74	0xbe2c3a7d	-0.16819187
75	0x3ea06aa6	0.31331366
76	0x3e300588	0.1718961
77	0x3f183e0e	0.5946969
78	0x3d62777c	0.05528973
79	0xbe9c717b	-0.3055533
80	0x3f231d32	0.63716424
81	0x3f48dc55	0.784612
82	0x3c630766	0.013856744
83	0x3db275ab	0.0871385
84	0x3df2f73e	0.11863564
85	0xbeb32eff	-0.34996793
86	0xbf38598c	-0.7201164
87	0x3ead7637	0.33879253
88	0x3f072ea3	0.52805537
89	0x3e63e243	0.22254281
90	0x3e8632c8	0.26210618
91	0xbebd5525	-0.36979023
92	0xbc52b125	-0.012859617
93	0x3c56547c	0.013081666
94	0xbf4dedc8	-0.8044095
95	0xbf22e0f0	-0.6362448
96	0xbd8ed1e8	-0.0697363
97	0x3f115c9a	0.56781924
98	0x3f2d6122	0.6772634
99	0xbe0f557b	-0.13997452
100	0x3e329364	0.17439038
101	0x3e42f009	0.19036879
102	0x3f427090	0.75953007
103	0x3db822b7	0.08990996
104	0x3f404a5d	0.7511347
105	0xbec14204	-0.37745678
106	0xbe15c01b	-0.14624064
107	0x3f5aa2ea	0.8540484
108	0xbd9d3984	-0.07676986
109	0x3e8c214a	0.27369148
110	0x3ef2e311	0.47438863
111	0xbea30007	-0.31835958
112	0x3e21c4e7	0.15797769
113	0x3f2732b6	0.65311754
114	0x3e70030a	0.2343866
115	0x3e34d62e	0.17659828
116	0x3f03bbe9	0.51458603
117	0xbe9b8c59	-0.30380514
118	0xbc6d64ce	-0.014489366
119	0x3dec3c64	0.11534956
120	0x3c1c22eb	0.0095298095
121	0xbe5366ff	-0.20644759
122	0x3f06f952	0.5272418
123	0x3b956e27	0.0045602503
124	0xbe951811	-0.29119924
125	0x3c7e4c7f	0.015521168
126	0x3eb8af45	0.3607122
127	0x3f095bae	0.5365552
128	0x3f0efe93	0.558572
129	0x3f0dc7f9	0.5538326
130	0x3f0e8d92	0.5568477
131	0x3ee34788	0.44390512
132	0xbb99133b	-0.004671482
133	0xbe18326b	-0.14862983
134	0x3f3fdba9	0.7494455
135	0x3f2602cf	0.64848036
136	0x3f112ae8	0.56706095
137	0xbdc0c4c5	-0.09412531
138	0x3ea69542	0.3253575
139	0xbd681efc	-0.056670174
140	0x3eafeb32	0.34359127
141	0x3f8a2e53	1.0795387
142	0xbe23260d	-0.15932484
143	0x3d6375e3	0.055532347
144	0x3f4aa9be	0.79165256
145	0xbe45929f	-0.19294213
146	0x3d2d66af	0.042334255
147	0xbf00fca5	-0.50385505
148	0xbdf462a9	-0.119328804
149	0xbea8443f	-0.32864568
150	0x3da2a28a	0.07941158
151	0xbdbc5093	-0.09195056
152	0x3f0a4dc2	0.540249
153	0x3f30d769	0.6907869
154	0xbf07cd68	-0.530478
155	0x3dd2834d	0.1027895
156	0x3e1708b1	0.1474941
157	0x3eea31af	0.4574103
158	0x3e105b3b	0.14097302
159	0xbea07e6a	-0.31346446
160	0x3f2faa15	0.686189
161	0x3f11003e	0.56640995
162	0x3d62c5d3	0.05536444
163	0x3ef85d6e	0.4850878
164	0x3ddfeb83	0.10933592
165	0x3e986350	0.2976327
166	0x3ea9184b	0.33026347
167	0x3f045da3	0.5170538
168	0x3e175495	0.14778359
169	0xbdc40a31	-0.09572256
170	0xbde01d97	-0.10943144
171	0xbeae0f96	-0.33996266
172	0xbe652e9f	-0.22381066
173	0x3dc6b06c	0.097016186
174	0xbc0bcc60	-0.0085326135
175	0x3eb6e4fe	0.35721582
176	0xbecb3a16	-0.39692754
177	0xbf3b1e78	-0.73093367
178	0x3dc0a2bc	0.09406039
179	0xbf17c5af	-0.59286016
180	0x3c83d7da	0.016094137
181	0xbe5d4fb9	-0.21612443
182	0xbd2ae3bd	-0.041721094
183	0x3f8db6a3	1.1071361
184	0x3dbccbf5	0.09218589
185	0xbe93f318	-0.28896403
186	0x3df3a55d	0.11896775
187	0x3eb91efd	0.36156455
188	0x3f87fd67	1.0624207
189	0xbe20ab1d	-0.15690275
190	0xbda80bfe	-0.08205412
191	0x3cfb8969	0.03070517
192	0x3f112eba	0.56711924
193	0x3db421bc	0.08795497
194	0xbdcd8a02	-0.100360885
195	0xbd9084da	-0.070565894
196	0xbd4180fe	-0.047242157
197	0xbe997560	-0.29972363
198	0x3f8455a7	1.0338639
199	0x3de76234	0.11298028

sequential_13/dense_41/BiasAdd/ReadVariableOp f4 [7]
0	0x3e3240e3	0.17407565
1	0xbe53ca81	-0.20682718
2	0xbefec75f	-0.49761483
3	0x3e383559	0.179891
4	0xbaaa6c1d	-0.0013002191
5	0x3de05aef	0.10954844
6	0x3dd6cbc5	0.10488085

sequential_13/dense_40/BiasAdd/ReadVariableOp f4 [10]
0	0x3ec8c7ad	0.3921484
1	0x3e98cc7e	0.29843515
2	0x3f0819fa	0.5316464
3	0xbce76744	-0.028247483
4	0xbd4eaeaf	-0.05045956
5	0x3e6af9a0	0.22946787
6	0x3d6fa9a1	0.05851138
7	0x3efe7f10	0.49706316
8	0x3eaade62	0.3337279
9	0x3ea3d07e	0.31995004

sequential_13/dense_39/BiasAdd/ReadVariableOp f4 [20]
0	0xbd0fd705	-0.035117168
1	0xbe55e974	-0.20889837
2	0x3e075820	0.13217211
3	0x3de3d418	0.11124438
4	0xbe5f041c	-0.21778911
5	0xbdab3daf	-0.083613746
6	0xbca56ee5	-0.02019448
7	0x3eafb04f	0.343142
8	0x3e27b17e	0.16376302
9	0x3e3279b6	0.17429242
10	0x3e2b86cd	0.16750641
11	0x3d034709	0.032050166
12	0xbe63ba11	-0.22238947
13	0xbe76c07f	-0.24096869
14	0x3e9366d6	0.28789395
15	0x3d9b70d3	0.07589879
16	0x3e021668	0.1270386
17	0xbe54cf35	-0.20782168
18	0x3dc729f5	0.097247995
19	0x3b9e213e	0.00482574

sequential_13/dense_39/MatMul i1 [20, 86] scale=0.01186273 zero_point=0
0	0xf1	-0.17794095
1	0x49	0.86597925
2	0xf0	-0.18980367
3	0x14	0.23725459
4	0xe6	-0.30843097
5	0x0a	0.118627295
6	0xda	-0.45078373
7	0xf7	-0.10676457
8	0x07	0.083039105
9	0x01	0.01186273
10	0x16	0.26098004
11	0xed	-0.22539186
12	0xea	-0.26098004
13	0x0c	0.14235276
14	0x16	0.26098004
15	0x11	0.2016664
16	0x03	0.03558819
17	0xfe	-0.02372546
18	0xd6	-0.49823466
19	0xfe	-0.02372546
20	0x04	0.04745092
21	0x10	0.18980367
22	0x1e	0.3558819
23	0x09	0.10676457
24	0xdc	-0.42705828
25	0x02	0.02372546
26	0xbd	-0.7948029
27	0x01	0.01186273
28	0x26	0.45078373
29	0x11	0.2016664
30	0x47	0.8422538
31	0xff	-0.01186273
32	0x31	0.58127373
33	0xfe	-0.02372546
34	0x17	0.2728428
35	0x04	0.04745092
36	0x1d	0.34401917
37	0x0e	0.16607821
38	0x2d	0.53382283
39	0x09	0.10676457
40	0x24	0.42705828
41	0x05	0.059313647
42	0x30	0.56941104
43	0x06	0.07117638
44	0xf6	-0.118627295
45	0x11	0.2016664
46	0xef	-0.2016664
47	0x01	0.01186273
48	0xfe	-0.02372546
49	0x00	0.0
50	0xe1	-0.36774462
51	0xed	-0.22539186
52	0xec	-0.23725459
53	0xe4	-0.33215642
54	0x15	0.24911733
55	0x00	0.0
56	0x00	0.0
57	0xf8	-0.09490184
58	0x17	0.2728428
59	0x02	0.02372546
60	0x30	0.56941104
61	0xf4	-0.14235276
62	0x0f	0.17794095
63	0x0d	0.15421548
64	0x02	0.02372546
65	0x0c	0.14235276
66	0x23	0.41519552
67	0x0d	0.15421548
68	0x3d	0.7236265
69	0x07	0.083039105
70	0x0a	0.118627295
71	0xff	-0.01186273
72	0xe4	-0.33215642
73	0x04	0.04745092
74	0xe9	-0.2728428
75	0x0a	0.118627295
76	0x0c	0.14235276
77	0x03	0.03558819
78	0x01	0.01186273
79	0x03	0.03558819
80	0xe0	-0.37960735
81	0x05	0.059313647
82	0xea	-0.26098004
83	0x09	0.10676457
84	0xf9	-0.083039105
85	0x06	0.07117638
86	0xee	-0.21352914
87	0x64	1.186273
88	0x05	0.059313647
89	0x03	0.03558819
90	0xf1	-0.17794095
91	0xfd	-0.03558819
92	0x01	0.01186273
93	0xf9	-0.083039105
94	0xf7	-0.10676457
95	0xf5	-0.13049002
96	0x0d	0.15421548
97	0xf2	-0.16607821
98	0x05	0.059313647
99	0xf9	-0.083039105
100	0x14	0.23725459
101	0x08	0.09490184
102	0xf8	-0.09490184
103	0x02	0.02372546
104	0xde	-0.4033328
105	0xf9	-0.083039105
106	0x12	0.21352914
107	0x05	0.059313647
108	0xf3	-0.15421548
109	0xff	-0.01186273
110	0xc5	-0.69990104
111	0xff	-0.01186273
112	0xae	-0.9727438
113	0xfb	-0.059313647
114	0x0d	0.15421548
115	0x08	0.09490184
116	0x11	0.2016664
117	0xfe	-0.02372546
118	0xf6	-0.118627295
119	0x03	0.03558819
120	0xf7	-0.10676457
121	0xfc	-0.04745092
122	0x0f	0.17794095
123	0x05	0.059313647
124	0x13	0.22539186
125	0x01	0.01186273
126	0x05	0.059313647
127	0xff	-0.01186273
128	0xfb	-0.059313647
129	0x05	0.059313647
130	0xf8	-0.09490184
131	0x0c	0.14235276
132	0xf5	-0.13049002
133	0x01	0.01186273
134	0xdc	-0.42705828
135	0x01	0.01186273
136	0xe2	-0.3558819
137	0xf4	-0.14235276
138	0xe7	-0.29656824
139	0xf1	-0.17794095
140	0xdd	-0.41519552
141	0x02	0.02372546
142	0xf0	-0.18980367
143	0x08	0.09490184
144	0x48	0.85411656
145	0x0c	0.14235276
146	0x4c	0.90156746
147	0xfb	-0.059313647
148	0xff	-0.01186273
149	0x06	0.07117638
150	0x08	0.09490184
151	0x07	0.083039105
152	0x3c	0.7117638
153	0x08	0.09490184
154	0x64	1.186273
155	0xff	-0.01186273
156	0x03	0.03558819
157	0x0d	0.15421548
158	0xfd	-0.03558819
159	0x02	0.02372546
160	0x01	0.01186273
161	0x01	0.01186273
162	0x0e	0.16607821
163	0x07	0.083039105
164	0x03	0.03558819
165	0x10	0.18980367
166	0x05	0.059313647
167	0x00	0.0
168	0x0c	0.14235276
169	0x03	0.03558819
170	0x02	0.02372546
171	0x06	0.07117638
172	0xf4	-0.14235276
173	0x09	0.10676457
174	0xeb	-0.24911733
175	0x06	0.07117638
176	0xff	-0.01186273
177	0xfb	-0.059313647
178	0x0c	0.14235276
179	0x18	0.28470552
180	0x04	0.04745092
181	0xf9	-0.083039105
182	0x18	0.28470552
183	0x1a	0.30843097
184	0xf1	-0.17794095
185	0x03	0.03558819
186	0xf4	-0.14235276
187	0x07	0.083039105
188	0x06	0.07117638
189	0xfa	-0.07117638
190	0x1a	0.30843097
191	0x00	0.0
192	0x00	0.0
193	0x12	0.21352914
194	0xfa	-0.07117638
195	0xfb	-0.059313647
196	0x16	0.26098004
197	0x00	0.0
198	0xf8	-0.09490184
199	0xfd	-0.03558819
200	0x01	0.01186273
201	0x00	0.0
202	0x00	0.0
203	0xfb	-0.059313647
204	0x06	0.07117638
205	0xf9	-0.083039105
206	0x0d	0.15421548
207	0xf9	-0.083039105
208	0xf2	-0.16607821
209	0x09	0.10676457
210	0xfd	-0.03558819
211	0x0d	0.15421548
212	0x0d	0.15421548
213	0xf5	-0.13049002
214	0x14	0.23725459
215	0xfd	-0.03558819
216	0xf4	-0.14235276
217	0xf3	-0.15421548
218	0xf4	-0.14235276
219	0xea	-0.26098004
220	0xe2	-0.3558819
221	0xed	-0.22539186
222	0xfc	-0.04745092
223	0xfb	-0.059313647
224	0xeb	-0.24911733
225	0xde	-0.4033328
226	0xff	-0.01186273
227	0xfe	-0.02372546
228	0xf3	-0.15421548
229	0xfc	-0.04745092
230	0xfd	-0.03558819
231	0xfe	-0.02372546
232	0x01	0.01186273
233	0xf1	-0.17794095
234	0xf6	-0.118627295
235	0xe0	-0.37960735
236	0xf7	-0.10676457
237	0xe8	-0.28470552
238	0xec	-0.23725459
239	0xf0	-0.18980367
240	0xeb	-0.24911733
241	0xdf	-0.39147007
242	0xf4	-0.14235276
243	0xe0	-0.37960735
244	0xe3	-0.34401917
245	0xf4	-0.14235276
246	0xf7	-0.10676457
247	0xe1	-0.36774462
248	0xf1	-0.17794095
249	0xf8	-0.09490184
250	0xe8	-0.28470552
251	0xf8	-0.09490184
252	0xf4	-0.14235276
253	0xe8	-0.28470552
254	0xff	-0.01186273
255	0xe9	-0.2728428
