model/keypoint_classifier/keypoint_classifier.tflite (tflite, 26016 bytes, 8 tensors)

sequential_8/dense_35/BiasAdd/ReadVariableOp f4 [45]
0	0xbe10447c	-0.14088625
1	0x3e3aa50d	0.18227024
2	0x3d927baa	0.07152493
3	0x3e23acb3	0.15983848
4	0x3ec5dfcb	0.38647303
5	0xbdef1dbc	-0.11675593
6	0x3e95403c	0.2915057
7	0xbd9ff940	-0.078112125
8	0x3cf876f0	0.030330151
9	0x3d512177	0.051057305
10	0xbdbeee7a	-0.093228295
11	0xbdd26ce3	-0.10274675
12	0xbe9848af	-0.29742953
13	0xbe4b79d0	-0.19870687
14	0xbe35f5c7	-0.17769538
15	0xbda08a01	-0.07838822
16	0x3d78e127	0.060761597
17	0xbd8bc07a	-0.06823821
18	0xbe495eb5	-0.19665034
19	0xbe555dac	-0.20836514
20	0x3eb004cb	0.34378657
21	0xbdec22ca	-0.11530073
22	0xbe738925	-0.23782785
23	0xbe05c846	-0.1306468
24	0x3db3a70f	0.08772098
25	0xbe8e8683	-0.27837
26	0xbd911750	-0.07084525
27	0x3e8e0005	0.2773439
28	0xbc66fe39	-0.014098697
29	0xbd981832	-0.0742649
30	0xbecc9903	-0.3996049
31	0x3eb8e5e4	0.36112893
32	0x3eedc2ed	0.4643778
33	0x3e12fcfa	0.14354315
34	0x3da3f66d	0.08005986
35	0xbedf0951	-0.43561795
36	0x3cf8b0b0	0.030357689
37	0xbd5550b7	-0.05207893
38	0x3e860972	0.2617908
39	0xbdeac69f	-0.11463665
40	0xbe6f3a8c	-0.23362178
41	0x3d076605	0.033056278
42	0x3b05f66e	0.0020441073
43	0xbcac505e	-0.021034416
44	0xbdb9cc0d	-0.09072123

sequential_8/dense_34/BiasAdd/ReadVariableOp f4 [50]
0	0x3ef4f471	0.47842744
1	0xbbe865ca	-0.0070922123
2	0x3e746a79	0.23868741
3	0xbeedf1ce	-0.46473545
4	0x3e684375	0.22681983
5	0x3e67bb5e	0.22630069
6	0x3f2c79b9	0.67373234
7	0x3e9b730b	0.30361208
8	0xbe965bfc	-0.29367054
9	0x3e7d5960	0.24741125
10	0xbe480604	-0.19533545
11	0x3f0abcf5	0.54194576
12	0x3e1064c3	0.14100938
13	0x3ef21d9f	0.47288224
14	0xbd812d72	-0.06307496
15	0xbd40869b	-0.04700337
16	0x3d2328de	0.039833896
17	0x3e109f48	0.14123261
18	0xbdd18538	-0.102304876
19	0x3ea6fffa	0.3261717
20	0x3e9b70f2	0.30359608
21	0x3ed9d1ac	0.4254278
22	0xbd0bc3b1	-0.034122173
23	0xbc8a4caf	-0.016882269
24	0xbdb86de1	-0.09005333
25	0x3ea9bf7e	0.3315391
26	0xbe5e669a	-0.21718827
27	0xbeddab3e	-0.4329471
28	0x3d7a66ad	0.061133076
29	0x3e113443	0.14180093
30	0x3eea446f	0.45755336
31	0xbcf85d1e	-0.03031784
32	0xbcf3c76e	-0.029758181
33	0x3d89bf5e	0.067259535
34	0x3d64a782	0.05582381
35	0x3dfd69e0	0.1237371
36	0x3e830b98	0.25594783
37	0x3dd3987a	0.10331817
38	0x3ed5c1e8	0.417495
39	0x3ea38949	0.31940678
40	0x3f58d268	0.84696054
41	0x3e89eb30	0.26937246
42	0x3f05291e	0.52015865
43	0x3d3ed030	0.04658526
44	0x3f1068ea	0.56410086
45	0xbcb7eb28	-0.022450998
46	0xbe5f11d0	-0.21784139
47	0xbc72a335	-0.014809419
48	0x3eaa938e	0.333157
49	0xbcdce881	-0.026966335

sequential_8/dense_33/BiasAdd/ReadVariableOp f4 [100]
0	0x3ec64e8c	0.38731802
1	0xbdbfe847	-0.09370475
2	0x3dbe9335	0.09305421
3	0x3ebc30a2	0.36755854
4	0x3da1de3c	0.07903716
5	0x3cb459c4	0.02201546
6	0xbdcd0217	-0.10010164
7	0x3d7f192c	0.062279865
8	0xbd51a503	-0.051182758
9	0xbde984fb	-0.11402317
10	0xbd4a00fa	-0.049317338
11	0xbd4dd7a4	-0.05025448
12	0xbab19c4c	-0.0013550608
13	0x3e97c665	0.2964355
14	0xbb95f4ce	-0.004576302
15	0x3e09ae65	0.13445432
16	0xbd9836f0	-0.074323535
17	0xbe23995c	-0.1597647
18	0x3d7e6548	0.062108308
19	0x3d765009	0.06013492
20	0x3e3fe0a5	0.18738039
21	0xbd1e75e9	-0.038686667
22	0xbcca571a	-0.024699736
23	0x3de1b1da	0.110202506
24	0xbdd443b1	-0.103644736
25	0xbc95d7b2	-0.018291328
26	0x3d74d79c	0.059775934
27	0xbdcffec8	-0.101560175
28	0x3b896df4	0.0041940156
29	0xbb3faba0	-0.0029246584
30	0x3d5b42c3	0.053530466
31	0x3d8aa670	0.06770027
32	0x3e4ed149	0.20197023
33	0x3df2fdb4	0.11864796
34	0xbdfb979e	-0.12284778
35	0x3b21bdac	0.0024679704
36	0xbd6210e6	-0.055191897
37	0x3e932837	0.2874162
38	0x3d9c9f55	0.07647578
39	0x3dd02b07	0.10164457
40	0x3c9a5df1	0.018843623
41	0x3c1c4d27	0.009539879
42	0x3e0f2429	0.13978638
43	0x3e8318df	0.25604913
44	0xbe702637	-0.23452078
45	0x3b05300b	0.0020322825
46	0x3e01ae03	0.12664036
47	0xbd9fe364	-0.07807043
48	0xbe28f5e5	-0.16500051
49	0x3d60bc0b	0.05486683
50	0x3e60e61d	0.21962781
51	0x3e80f226	0.25184745
52	0x3d54f3ec	0.051990435
53	0xbde046f7	-0.109510355
54	0x3e15ff0c	0.14648074
55	0xbd0b0e91	-0.03394944
56	0x3e0e279d	0.13882299
57	0x3d70c49b	0.058781248
58	0x3de25e2d	0.11053119
59	0x3dac021b	0.08398839
60	0x3d6f7237	0.058458533
61	0x3e2a45a2	0.16628125
62	0xbd79dee8	-0.061003596
63	0xbca01db1	-0.019545408
64	0x3d78b133	0.060715865
65	0x3e8b6f75	0.27233472
66	0x3c809a7d	0.015698666
67	0xbb5ac864	-0.0033383602
68	0x3dbfe44c	0.09369716
69	0x3d673deb	0.056455534
70	0x3e609860	0.21933126
71	0x3dff12e8	0.12454778
72	0x3d966609	0.073436804
73	0xbe4a166f	-0.1973512
74	0x3d7d041f	0.06177151
75	0x3e99278b	0.2991298
76	0x3dcaa4c5	0.098947085
77	0x3dcdeb1e	0.10054611
78	0x3d3bc5f4	0.04584308
79	0x3e72045e	0.23634478
80	0x3d464ccd	0.048413087
81	0x3e2d5d31	0.16930081
82	0x3e72f410	0.23725915
83	0x3c668e00	0.014071941
84	0x3e7a69b7	0.2445439
85	0x3d3a6941	0.045510534
86	0x3c29ad0f	0.010356202
87	0x3df21f80	0.118224144
88	0x3e2df0c9	0.16986383
89	0x3e1c7aaf	0.15281175
90	0xbb8554ca	-0.0040689455
91	0x3e176bc2	0.147872
92	0xbd8c47fa	-0.06849666
93	0x3e2ffdfa	0.17186728
94	0xbd276531	-0.040867988
95	0x3cd8c9a0	0.02646333
96	0x3ea0c4ea	0.31400234
97	0xbc0ce923	-0.008600506
98	0x3d01e408	0.03171161
99	0xbddd7211	-0.10812772

sequential_8/dense_32/BiasAdd/ReadVariableOp f4 [80]
0	0xbdbd18fd	-0.09233282
1	0xbd82ebbf	-0.06392621
2	0xbe82efb7	-0.25573513
3	0x3ccf60bc	0.025314681
4	0xbe25b335	-0.16181643
5	0xbce17c8b	-0.027525207
6	0xbe2a9f2e	-0.16662285
7	0x3d87dfa0	0.0663445
8	0x3e096b5b	0.13419859
9	0xbe3dc91c	-0.18533748
10	0xbe499c03	-0.1968842
11	0xbe30190c	-0.17197055
12	0xbc96a95f	-0.01839131
13	0xbe5a735e	-0.21333072
14	0x3d8683bc	0.06568095
15	0xbab440f9	-0.0013752274
16	0xbdb6ac8e	-0.08919631
17	0xbdcacd80	-0.09902477
18	0xbe636167	-0.22205125
19	0x3e22979a	0.15878144
20	0x3b7838bd	0.0037875616
21	0xbe0ef0c4	-0.13959032
22	0xbd459630	-0.048238933
23	0xbcdd9efd	-0.02705335
24	0xbd00032a	-0.031253017
25	0xbd82bd85	-0.06383804
26	0x3cd784bc	0.02630841
27	0xbe2ec34e	-0.1706669
28	0xbde199bd	-0.110156514
29	0x3c6ecabc	0.014574703
30	0xbdb8c557	-0.090220146
31	0xbd5f74d1	-0.054554764
32	0xbe06e493	-0.13173132
33	0x3c349294	0.011021275
34	0xbe2e1716	-0.17000994
35	0xbbb64f8f	-0.0055636833
36	0x3c009bb9	0.007849627
37	0x3e22f60f	0.15914176
38	0xbc2bf6f3	-0.010495889
39	0xbe8c86a8	-0.27446485
40	0x3da82f01	0.0821209
41	0xbe4d4fc9	-0.20049967
42	0xbdf9e5fb	-0.122020684
43	0xbd2fbcb1	-0.04290456
44	0xbe1f7da4	-0.15575272
45	0xbe2e5103	-0.17023091
46	0xbca5c20f	-0.020234136
47	0xbd91dd98	-0.07122344
48	0x3e02622b	0.1273276
49	0xbe840aca	-0.2578948
50	0x3da83f62	0.08215214
51	0xbe84e985	-0.2595941
52	0xbd059443	-0.032612097
53	0xbd89e17c	-0.06732461
54	0x3dc600cf	0.09668123
55	0xbdb87d51	-0.09008277
56	0xbd8cea8b	-0.06880673
57	0x3ddbe761	0.107374914
58	0xbda368d2	-0.07978977
59	0x3c60827c	0.013702985
60	0xbe434cb8	-0.19072235
61	0xbbcd5c8d	-0.0062671364
62	0xbe0f78ac	-0.14010876
63	0xbe195b39	-0.14976205
64	0xbd80e148	-0.06292969
65	0xbe3666f6	-0.17812714
66	0x3d9ac97c	0.07557961
67	0xbd8bbe66	-0.06823425
68	0xbd5c428f	-0.053774413
69	0xbebb130e	-0.36537975
70	0xbdb1cd98	-0.08681792
71	0xbdf65cf9	-0.12029452
72	0xbc8eb601	-0.01742077
73	0xbe070d03	-0.13188557
74	0xbd13dd74	-0.036099866
75	0xbe913e26	-0.28367728
76	0x3c861cc4	0.016371138
77	0xbd859aed	-0.065236904
78	0x3c5893c3	0.013218823
79	0xbe84f917	-0.2597129

sequential_8/dense_32/MatMul i1 [80, 86] scale=0.01310657 zero_point=0
0	0xf3	-0.1703854
1	0x05	0.06553285
2	0x00	0.0
3	0xf4	-0.15727884
4	0xff	-0.01310657
5	0xf3	-0.1703854
6	0xfe	-0.02621314
7	0xe5	-0.35387737
8	0x12	0.23591825
9	0xf5	-0.14417227
10	0x1a	0.3407708
11	0xe6	-0.3407708
12	0xf7	-0.11795913
13	0xf4	-0.15727884
14	0xf3	-0.1703854
15	0xf6	-0.1310657
16	0x0c	0.15727884
17	0x01	0.01310657
18	0x16	0.28834453
19	0x12	0.23591825
20	0xf2	-0.18349198
21	0xed	-0.24902482
22	0xfd	-0.03931971
23	0xec	-0.2621314
24	0xfc	-0.05242628
25	0x0b	0.14417227
26	0x13	0.24902482
27	0x2b	0.5635825
28	0xf4	-0.15727884
29	0xe3	-0.38009053
30	0x05	0.06553285
31	0xe2	-0.3931971
32	0xfd	-0.03931971
33	0xf5	-0.14417227
34	0x01	0.01310657
35	0x13	0.24902482
36	0x00	0.0
37	0xe3	-0.38009053
38	0x05	0.06553285
39	0xe3	-0.38009053
40	0x13	0.24902482
41	0xe0	-0.41941023
42	0x0b	0.14417227
43	0xf2	-0.18349198
44	0x01	0.01310657
45	0xf9	-0.09174599
46	0x0e	0.18349198
47	0xf9	-0.09174599
48	0xfe	-0.02621314
49	0x07	0.09174599
50	0x04	0.05242628
51	0xf6	-0.1310657
52	0x04	0.05242628
53	0xf3	-0.1703854
54	0xfb	-0.06553285
55	0x1a	0.3407708
56	0xf6	-0.1310657
57	0x07	0.09174599
58	0xf2	-0.18349198
59	0x01	0.01310657
60	0xfe	-0.02621314
61	0xfd	-0.03931971
62	0xef	-0.22281168
63	0x0c	0.15727884
64	0xfe	-0.02621314
65	0x04	0.05242628
66	0x0b	0.14417227
67	0xf9	-0.09174599
68	0xf9	-0.09174599
69	0x03	0.03931971
70	0xea	-0.28834453
71	0x19	0.32766426
72	0x00	0.0
73	0xf3	-0.1703854
74	0x0b	0.14417227
75	0xf5	-0.14417227
76	0x0b	0.14417227
77	0xe4	-0.36698395
78	0x03	0.03931971
79	0x0b	0.14417227
80	0xef	-0.22281168
81	0xf7	-0.11795913
82	0x00	0.0
83	0xdc	-0.4718365
84	0xf9	-0.09174599
85	0xd3	-0.58979565
86	0xfc	-0.05242628
87	0x1d	0.38009053
88	0x26	0.49804965
89	0x07	0.09174599
90	0x29	0.5373694
91	0xf3	-0.1703854
92	0x2d	0.58979565
93	0xee	-0.23591825
94	0x29	0.5373694
95	0xe5	-0.35387737
96	0x0e	0.18349198
97	0xe1	-0.40630364
98	0xf7	-0.11795913
99	0xff	-0.01310657
100	0x12	0.23591825
101	0xf8	-0.10485256
102	0xfd	-0.03931971
103	0x14	0.2621314
104	0xcf	-0.6422219
105	0x1e	0.3931971
106	0x03	0.03931971
107	0x10	0.20970511
108	0xfe	-0.02621314
109	0x03	0.03931971
110	0xf5	-0.14417227
111	0x0d	0.1703854
112	0xda	-0.49804965
113	0x0b	0.14417227
114	0x0b	0.14417227
115	0xfb	-0.06553285
116	0x0c	0.15727884
117	0x11	0.22281168
118	0x02	0.02621314
119	0x10	0.20970511
120	0xdd	-0.45872992
121	0x0b	0.14417227
122	0x18	0.31455767
123	0x0f	0.19659854
124	0x0f	0.19659854
125	0xf7	-0.11795913
126	0x12	0.23591825
127	0x0f	0.19659854
128	0x13	0.24902482
129	0x08	0.10485256
130	0xed	-0.24902482
131	0x26	0.49804965
132	0xfd	-0.03931971
133	0x07	0.09174599
134	0xfd	-0.03931971
135	0x13	0.24902482
136	0xf1	-0.19659854
137	0x0d	0.1703854
138	0xea	-0.28834453
139	0xf1	-0.19659854
140	0x09	0.11795913
141	0xff	-0.01310657
142	0x25	0.4849431
143	0xed	-0.24902482
144	0x12	0.23591825
145	0xef	-0.22281168
146	0x04	0.05242628
147	0xf8	-0.10485256
148	0x0c	0.15727884
149	0xf9	-0.09174599
150	0x0e	0.18349198
151	0xec	-0.2621314
152	0xf7	-0.11795913
153	0xfe	-0.02621314
154	0xf6	-0.1310657
155	0x07	0.09174599
156	0x0d	0.1703854
157	0x11	0.22281168
158	0x01	0.01310657
159	0xff	-0.01310657
160	0xeb	-0.27523798
161	0xfa	-0.07863942
162	0xe3	-0.38009053
163	0xf8	-0.10485256
164	0x13	0.24902482
165	0x09	0.11795913
166	0xfb	-0.06553285
167	0xf6	-0.1310657
168	0xfa	-0.07863942
169	0xfc	-0.05242628
170	0xef	-0.22281168
171	0x15	0.27523798
172	0x08	0.10485256
173	0x30	0.62911534
174	0xf2	-0.18349198
175	0xfb	-0.06553285
176	0x0e	0.18349198
177	0xff	-0.01310657
178	0x03	0.03931971
179	0xf4	-0.15727884
180	0x13	0.24902482
181	0x02	0.02621314
182	0x0b	0.14417227
183	0x01	0.01310657
184	0xfb	-0.06553285
185	0xff	-0.01310657
186	0x08	0.10485256
187	0xf6	-0.1310657
188	0x15	0.27523798
189	0x12	0.23591825
190	0x17	0.3014511
191	0x09	0.11795913
192	0xf2	-0.18349198
193	0x03	0.03931971
194	0x08	0.10485256
195	0x02	0.02621314
196	0x0b	0.14417227
197	0xf0	-0.20970511
198	0xf9	-0.09174599
199	0xf4	-0.15727884
200	0xf3	-0.1703854
201	0xf1	-0.19659854
202	0xfc	-0.05242628
203	0x04	0.05242628
204	0xff	-0.01310657
205	0x00	0.0
206	0xfb	-0.06553285
207	0x06	0.07863942
208	0x09	0.11795913
209	0xfc	-0.05242628
210	0xee	-0.23591825
211	0x01	0.01310657
212	0xef	-0.22281168
213	0x0b	0.14417227
214	0xec	-0.2621314
215	0xf9	-0.09174599
216	0x06	0.07863942
217	0xf3	-0.1703854
218	0x14	0.2621314
219	0x04	0.05242628
220	0x08	0.10485256
221	0xf9	-0.09174599
222	0x1d	0.38009053
223	0xe6	-0.3407708
224	0x26	0.49804965
225	0xef	-0.22281168
226	0x18	0.31455767
227	0xfe	-0.02621314
228	0x13	0.24902482
229	0xfa	-0.07863942
230	0x18	0.31455767
231	0x01	0.01310657
232	0xfc	-0.05242628
233	0x04	0.05242628
234	0x0b	0.14417227
235	0xfc	-0.05242628
236	0xeb	-0.27523798
237	0x08	0.10485256
238	0xfd	-0.03931971
239	0x1a	0.3407708
240	0xf9	-0.09174599
241	0x07	0.09174599
242	0xfd	-0.03931971
243	0x01	0.01310657
244	0xf1	-0.19659854
245	0x00	0.0
246	0x07	0.09174599
247	0x23	0.45872992
248	0x1f	0.40630364
249	0x1f	0.40630364
250	0xf4	-0.15727884
251	0xf5	-0.14417227
252	0xe2	-0.3931971
253	0x11	0.22281168
254	0xed	-0.24902482
255	0x16	0.28834453

sequential_8/dense_33/MatMul i1 [100, 80] scale=0.012678075 zero_point=0
0	0xdd	-0.44373262
1	0xc8	-0.7099722
2	0x0e	0.17749305
3	0x2b	0.5451572
4	0xf4	-0.15213689
5	0xf1	-0.19017112
6	0xec	-0.2535615
7	0xd4	-0.5578353
8	0xc7	-0.72265023
9	0xe6	-0.32962993
10	0xe8	-0.30427378
11	0xfc	-0.0507123
12	0x01	0.012678075
13	0xff	-0.012678075
14	0x10	0.2028492
15	0xd8	-0.507123
16	0x16	0.27891764
17	0xe1	-0.3930203
18	0x01	0.012678075
19	0xe3	-0.36766416
20	0x03	0.038034223
21	0x21	0.41837648
22	0xef	-0.21552727
23	0xfa	-0.076068446
24	0xdc	-0.45641068
25	0x10	0.2028492
26	0xfb	-0.063390374
27	0xe9	-0.29159573
28	0x02	0.02535615
29	0x19	0.31695187
30	0x1d	0.36766416
31	0x23	0.44373262
32	0x10	0.2028492
33	0xf6	-0.12678075
34	0xd7	-0.5198011
35	0xd9	-0.4944449
36	0x0f	0.19017112
37	0x2a	0.5324791
38	0xdb	-0.46908876
39	0x03	0.038034223
40	0xdc	-0.45641068
41	0xf8	-0.1014246
42	0x05	0.063390374
43	0x0a	0.12678075
44	0xe5	-0.342308
45	0xf7	-0.11410267
46	0xc6	-0.7353283
47	0x00	0.0
48	0xf2	-0.17749305
49	0x02	0.02535615
50	0xfe	-0.02535615
51	0xe0	-0.4056984
52	0xc3	-0.7733626
53	0xf6	-0.12678075
54	0x06	0.076068446
55	0x0b	0.13945882
56	0xda	-0.48176685
57	0x08	0.1014246
58	0x10	0.2028492
59	0x14	0.2535615
60	0xe2	-0.38034225
61	0xe4	-0.3549861
62	0xfb	-0.063390374
63	0xea	-0.27891764
64	0xf6	-0.12678075
65	0xea	-0.27891764
66	0x0a	0.12678075
67	0xf4	-0.15213689
68	0xcb	-0.67193794
69	0xf9	-0.088746525
70	0xfc	-0.0507123
71	0x07	0.088746525
72	0x11	0.21552727
73	0x08	0.1014246
74	0xdf	-0.41837648
75	0xf1	-0.19017112
76	0xf5	-0.13945882
77	0x07	0.088746525
78	0x03	0.038034223
79	0x18	0.30427378
80	0xe2	-0.38034225
81	0xf4	-0.15213689
82	0x19	0.31695187
83	0xfa	-0.076068446
84	0xf4	-0.15213689
85	0xfd	-0.038034223
86	0x07	0.088746525
87	0x03	0.038034223
88	0x0c	0.15213689
89	0xfa	-0.076068446
90	0x13	0.24088342
91	0x10	0.2028492
92	0x0b	0.13945882
93	0x0b	0.13945882
94	0xf5	-0.13945882
95	0xd0	-0.60854757
96	0x28	0.507123
97	0x03	0.038034223
98	0x13	0.24088342
99	0x02	0.02535615
100	0xc7	-0.72265023
101	0xf3	-0.16481496
102	0xdd	-0.44373262
103	0xf3	-0.16481496
104	0x0a	0.12678075
105	0x04	0.0507123
106	0xfd	-0.038034223
107	0xfd	-0.038034223
108	0x2c	0.5578353
109	0x0e	0.17749305
110	0xfb	-0.063390374
111	0x04	0.0507123
112	0x03	0.038034223
113	0x11	0.21552727
114	0xf4	-0.15213689
115	0x00	0.0
116	0x0b	0.13945882
117	0xdd	-0.44373262
118	0xca	-0.684616
119	0x08	0.1014246
120	0x03	0.038034223
121	0x07	0.088746525
122	0xfc	-0.0507123
123	0x1d	0.36766416
124	0x32	0.63390374
125	0x09	0.11410267
126	0x01	0.012678075
127	0xd2	-0.58319145
128	0xf4	-0.15213689
129	0x08	0.1014246
130	0x01	0.012678075
131	0x06	0.076068446
132	0x0b	0.13945882
133	0xbb	-0.87478715
134	0xfa	-0.076068446
135	0xcf	-0.62122566
136	0x14	0.2535615
137	0xdf	-0.41837648
138	0xf6	-0.12678075
139	0xfb	-0.063390374
140	0xff	-0.012678075
141	0x0e	0.17749305
142	0xe2	-0.38034225
143	0x03	0.038034223
144	0xc8	-0.7099722
145	0x0a	0.12678075
146	0xdb	-0.46908876
147	0xe1	-0.3930203
148	0xd1	-0.5958695
149	0x13	0.24088342
150	0x04	0.0507123
151	0x08	0.1014246
152	0xe0	-0.4056984
153	0xf4	-0.15213689
154	0xda	-0.48176685
155	0x0d	0.16481496
156	0xff	-0.012678075
157	0x00	0.0
158	0xe5	-0.342308
159	0x3b	0.7480064
160	0x06	0.076068446
161	0xfb	-0.063390374
162	0xff	-0.012678075
163	0x08	0.1014246
164	0xfc	-0.0507123
165	0xfc	-0.0507123
166	0x06	0.076068446
167	0x09	0.11410267
168	0xba	-0.88746524
169	0x04	0.0507123
170	0xfe	-0.02535615
171	0x01	0.012678075
172	0x07	0.088746525
173	0xfc	-0.0507123
174	0x0e	0.17749305
175	0x09	0.11410267
176	0x19	0.31695187
177	0xdd	-0.44373262
178	0xf2	-0.17749305
179	0x0b	0.13945882
180	0x0f	0.19017112
181	0x13	0.24088342
182	0x14	0.2535615
183	0x05	0.063390374
184	0x02	0.02535615
185	0x0b	0.13945882
186	0x01	0.012678075
187	0xd5	-0.5451572
188	0x15	0.26623955
189	0x11	0.21552727
190	0x05	0.063390374
191	0x12	0.22820534
192	0x01	0.012678075
193	0x04	0.0507123
194	0xec	-0.2535615
195	0xd4	-0.5578353
196	0xff	-0.012678075
197	0x12	0.22820534
198	0x10	0.2028492
199	0xec	-0.2535615
200	0x10	0.2028492
201	0xff	-0.012678075
202	0xf9	-0.088746525
203	0xf8	-0.1014246
204	0xe0	-0.4056984
205	0x09	0.11410267
206	0xcf	-0.62122566
207	0xec	-0.2535615
208	0x01	0.012678075
209	0xf0	-0.2028492
210	0x04	0.0507123
211	0xd2	-0.58319145
212	0xe6	-0.32962993
213	0x0c	0.15213689
214	0x01	0.012678075
215	0x03	0.038034223
216	0x10	0.2028492
217	0x1e	0.38034225
218	0x00	0.0
219	0x15	0.26623955
220	0xf8	-0.1014246
221	0xed	-0.24088342
222	0xfc	-0.0507123
223	0xc5	-0.7480064
224	0x2b	0.5451572
225	0xf8	-0.1014246
226	0xff	-0.012678075
227	0xf4	-0.15213689
228	0x07	0.088746525
229	0x01	0.012678075
230	0xe6	-0.32962993
231	0xf2	-0.17749305
232	0x05	0.063390374
233	0x03	0.038034223
234	0x1b	0.342308
235	0xee	-0.22820534
236	0x0b	0.13945882
237	0x1b	0.342308
238	0xf6	-0.12678075
239	0x05	0.063390374
240	0x08	0.1014246
241	0xf4	-0.15213689
242	0x11	0.21552727
243	0x09	0.11410267
244	0x01	0.012678075
245	0x01	0.012678075
246	0xd2	-0.58319145
247	0x0c	0.15213689
248	0x0f	0.19017112
249	0x12	0.22820534
250	0x0a	0.12678075
251	0xf5	-0.13945882
252	0xf7	-0.11410267
253	0xfd	-0.038034223
254	0x19	0.31695187
255	0xff	-0.012678075

sequential_8/dense_34/MatMul i1 [50, 100] scale=0.011863581 zero_point=0
0	0x0e	0.16609013
1	0xc7	-0.6762241
2	0x26	0.45081607
3	0x1f	0.367771
4	0xfe	-0.023727162
5	0xf5	-0.1304994
6	0x16	0.2609988
7	0x18	0.28472593
8	0xff	-0.011863581
9	0x2b	0.510134
10	0xe5	-0.32031667
11	0xf8	-0.09490865
12	0x06	0.07118148
13	0x13	0.22540803
14	0xfc	-0.047454324
15	0x28	0.47454324
16	0x0a	0.11863581
17	0x04	0.047454324
18	0x21	0.39149818
19	0xf1	-0.17795372
20	0x01	0.011863581
21	0x0e	0.16609013
22	0x00	0.0
23	0x0e	0.16609013
24	0xfa	-0.07118148
25	0xfb	-0.059317905
26	0xe3	-0.34404385
27	0xf0	-0.1898173
28	0x00	0.0
29	0x13	0.22540803
30	0x04	0.047454324
31	0xf5	-0.1304994
32	0xed	-0.22540803
33	0x01	0.011863581
34	0xe5	-0.32031667
35	0x02	0.023727162
36	0xee	-0.21354446
37	0x0d	0.15422656
38	0xd2	-0.54572475
39	0xf0	-0.1898173
40	0xf7	-0.10677223
41	0xda	-0.45081607
42	0xf3	-0.15422656
43	0x00	0.0
44	0x0c	0.14236297
45	0xd0	-0.56945187
46	0x19	0.29658952
47	0xf4	-0.14236297
48	0xce	-0.59317905
49	0xf2	-0.16609013
50	0x04	0.047454324
51	0x0e	0.16609013
52	0xee	-0.21354446
53	0x25	0.4389525
54	0xf8	-0.09490865
55	0x2d	0.53386116
56	0x0b	0.1304994
57	0x2f	0.5575883
58	0x13	0.22540803
59	0x03	0.03559074
60	0xf6	-0.11863581
61	0xf6	-0.11863581
62	0xd1	-0.5575883
63	0xef	-0.20168087
64	0xfd	-0.03559074
65	0x0d	0.15422656
66	0x05	0.059317905
67	0x26	0.45081607
68	0x32	0.59317905
69	0x0c	0.14236297
70	0x29	0.4864068
71	0xf8	-0.09490865
72	0x0f	0.17795372
73	0x16	0.2609988
74	0x0d	0.15422656
75	0x0f	0.17795372
76	0xf9	-0.083045065
77	0x06	0.07118148
78	0x21	0.39149818
79	0xfc	-0.047454324
80	0xef	-0.20168087
81	0x05	0.059317905
82	0x00	0.0
83	0xf3	-0.15422656
84	0x06	0.07118148
85	0x11	0.20168087
86	0x0f	0.17795372
87	0x17	0.27286237
88	0x0d	0.15422656
89	0xf9	-0.083045065
90	0x04	0.047454324
91	0x05	0.059317905
92	0x08	0.09490865
93	0xfa	-0.07118148
94	0xce	-0.59317905
95	0x1f	0.367771
96	0x38	0.6643605
97	0x14	0.23727162
98	0x04	0.047454324
99	0x18	0.28472593
100	0xfa	-0.07118148
101	0x08	0.09490865
102	0xfe	-0.023727162
103	0x01	0.011863581
104	0x15	0.2491352
105	0x0c	0.14236297
106	0xfe	-0.023727162
107	0xcf	-0.58131546
108	0xe5	-0.32031667
109	0xf4	-0.14236297
110	0xdc	-0.42708892
111	0xd2	-0.54572475
112	0xfb	-0.059317905
113	0x32	0.59317905
114	0x10	0.1898173
115	0x0c	0.14236297
116	0xeb	-0.2491352
117	0x0b	0.1304994
118	0xf8	-0.09490865
119	0xfb	-0.059317905
120	0xe6	-0.3084531
121	0x08	0.09490865
122	0x19	0.29658952
123	0x2e	0.54572475
124	0x1c	0.33218026
125	0x0e	0.16609013
126	0x0a	0.11863581
127	0x1f	0.367771
128	0x0e	0.16609013
129	0x05	0.059317905
130	0xfe	-0.023727162
131	0xf6	-0.11863581
132	0xe3	-0.34404385
133	0x14	0.23727162
134	0x2b	0.510134
135	0x01	0.011863581
136	0xf2	-0.16609013
137	0xff	-0.011863581
138	0xff	-0.011863581
139	0xfc	-0.047454324
140	0x0c	0.14236297
141	0x18	0.28472593
142	0x0d	0.15422656
143	0xfd	-0.03559074
144	0x00	0.0
145	0x25	0.4389525
146	0x14	0.23727162
147	0x08	0.09490865
148	0xf7	-0.10677223
149	0x09	0.10677223
150	0x21	0.39149818
151	0x1f	0.367771
152	0x2b	0.510134
153	0xff	-0.011863581
154	0x08	0.09490865
155	0x10	0.1898173
156	0x07	0.083045065
157	0x01	0.011863581
158	0x07	0.083045065
159	0xf7	-0.10677223
160	0xfc	-0.047454324
161	0x08	0.09490865
162	0x00	0.0
163	0x08	0.09490865
164	0xf0	-0.1898173
165	0x10	0.1898173
166	0xd8	-0.47454324
167	0x06	0.07118148
168	0xf7	-0.10677223
169	0xff	-0.011863581
170	0xf6	-0.11863581
171	0xf8	-0.09490865
172	0x1c	0.33218026
173	0xf3	-0.15422656
174	0x1b	0.32031667
175	0x06	0.07118148
176	0x12	0.21354446
177	0x04	0.047454324
178	0xed	-0.22540803
179	0x0e	0.16609013
180	0x24	0.42708892
181	0x11	0.20168087
182	0x15	0.2491352
183	0xfc	-0.047454324
184	0x33	0.60504264
185	0xf6	-0.11863581
186	0x0b	0.1304994
187	0x16	0.2609988
188	0x0b	0.1304994
189	0x1d	0.34404385
190	0xea	-0.2609988
191	0xfa	-0.07118148
192	0x12	0.21354446
193	0x14	0.23727162
194	0x04	0.047454324
195	0x0e	0.16609013
196	0x06	0.07118148
197	0x1d	0.34404385
198	0x00	0.0
199	0xea	-0.2609988
200	0xfd	-0.03559074
201	0x17	0.27286237
202	0x05	0.059317905
203	0xeb	-0.2491352
204	0x1c	0.33218026
205	0xfe	-0.023727162
206	0x39	0.6762241
207	0xd0	-0.56945187
208	0xd7	-0.4864068
209	0x2a	0.4982704
210	0x15	0.2491352
211	0x0d	0.15422656
212	0xff	-0.011863581
213	0x0b	0.1304994
214	0x11	0.20168087
215	0xfb	-0.059317905
216	0xfe	-0.023727162
217	0xe2	-0.35590744
218	0x34	0.6169062
219	0x31	0.58131546
220	0xfe	-0.023727162
221	0xf6	-0.11863581
222	0xea	-0.2609988
223	0xfa	-0.07118148
224	0x22	0.40336174
225	0xfc	-0.047454324
226	0xef	-0.20168087
227	0x09	0.10677223
228	0x29	0.4864068
229	0x0a	0.11863581
230	0xf6	-0.11863581
231	0xf7	-0.10677223
232	0xef	-0.20168087
233	0x0f	0.17795372
234	0x17	0.27286237
235	0x07	0.083045065
236	0xfb	-0.059317905
237	0x11	0.20168087
238	0xfe	-0.023727162
239	0xf7	-0.10677223
240	0x1d	0.34404385
241	0xff	-0.011863581
242	0x0a	0.11863581
243	0xfe	-0.023727162
244	0x03	0.03559074
245	0x19	0.29658952
246	0x12	0.21354446
247	0x0b	0.1304994
248	0x16	0.2609988
249	0x04	0.047454324
250	0xf5	-0.1304994
251	0x04	0.047454324
252	0xfc	-0.047454324
253	0xec	-0.23727162
254	0xf7	-0.10677223
255	0x00	0.0

sequential_8/dense_35/MatMul i1 [45, 50] scale=0.008654835 zero_point=0
0	0xce	-0.43274173
1	0x06	0.05192901
2	0x15	0.18175153
3	0x1b	0.23368053
4	0xed	-0.16444185
5	0xef	-0.14713219
6	0xdf	-0.28560954
7	0x29	0.35484824
8	0x05	0.04327417
9	0x25	0.32022887
10	0xe7	-0.21637087
11	0x11	0.14713219
12	0xf4	-0.10385802
13	0x0e	0.12116769
14	0xf3	-0.11251285
15	0xf8	-0.06923868
16	0x15	0.18175153
17	0x01	0.008654835
18	0xf8	-0.06923868
19	0xfd	-0.025964504
20	0x12	0.15578702
21	0x00	0.0
22	0xe7	-0.21637087
23	0xce	-0.43274173
24	0x20	0.2769547
25	0xe3	-0.2509902
26	0xf8	-0.06923868
27	0xff	-0.008654835
28	0xf8	-0.06923868
29	0xe2	-0.25964504
30	0x08	0.06923868
31	0x08	0.06923868
32	0xef	-0.14713219
33	0xd8	-0.34619337
34	0x0a	0.08654834
35	0xe6	-0.2250257
36	0xd7	-0.35484824
37	0xb7	-0.6318029
38	0x09	0.07789351
39	0x02	0.01730967
40	0xd2	-0.3981224
41	0xd3	-0.38946757
42	0xba	-0.6058384
43	0xe6	-0.2250257
44	0xef	-0.14713219
45	0x09	0.07789351
46	0x08	0.06923868
47	0x19	0.21637087
48	0xf4	-0.10385802
49	0xb9	-0.61449325
50	0xc8	-0.48467076
51	0x06	0.05192901
52	0x18	0.20771603
53	0xeb	-0.18175153
54	0x07	0.060583845
55	0xee	-0.15578702
56	0x1b	0.23368053
57	0xc7	-0.4933256
58	0xcc	-0.4500514
59	0x16	0.19040637
60	0xfb	-0.04327417
61	0xad	-0.7183513
62	0xc5	-0.51063526
63	0xff	-0.008654835
64	0xed	-0.16444185
65	0x1b	0.23368053
66	0x28	0.34619337
67	0xe4	-0.24233538
68	0xfc	-0.03461934
69	0x15	0.18175153
70	0x00	0.0
71	0x04	0.03461934
72	0xd0	-0.41543207
73	0xd6	-0.36350307
74	0xcd	-0.44139656
75	0xff	-0.008654835
76	0xc3	-0.5279449
77	0xe5	-0.23368053
78	0xe2	-0.25964504
79	0xd2	-0.3981224
80	0xf6	-0.08654834
81	0x2a	0.36350307
82	0xe9	-0.1990612
83	0xef	-0.14713219
84	0xdf	-0.28560954
85	0xd3	-0.38946757
86	0x37	0.4760159
87	0x13	0.16444185
88	0x0a	0.08654834
89	0x2c	0.38081273
90	0xf8	-0.06923868
91	0xce	-0.43274173
92	0x2a	0.36350307
93	0x04	0.03461934
94	0xd1	-0.40677723
95	0xcc	-0.4500514
96	0xe3	-0.2509902
97	0xef	-0.14713219
98	0x09	0.07789351
99	0xde	-0.29426438
100	0x12	0.15578702
101	0xf2	-0.12116769
102	0xea	-0.19040637
103	0x07	0.060583845
104	0x22	0.29426438
105	0xda	-0.3288837
106	0x13	0.16444185
107	0xc4	-0.5192901
108	0x21	0.28560954
109	0xfc	-0.03461934
110	0x02	0.01730967
111	0xfe	-0.01730967
112	0xe3	-0.2509902
113	0xf0	-0.13847736
114	0x2a	0.36350307
115	0x20	0.2769547
116	0x18	0.20771603
117	0x01	0.008654835
118	0xd7	-0.35484824
119	0xdf	-0.28560954
120	0x04	0.03461934
121	0x0a	0.08654834
122	0x06	0.05192901
123	0x0e	0.12116769
124	0xcb	-0.45870623
125	0x15	0.18175153
126	0xec	-0.17309669
127	0x2f	0.40677723
128	0xfb	-0.04327417
129	0xfe	-0.01730967
130	0xf7	-0.07789351
131	0x1c	0.24233538
132	0x04	0.03461934
133	0xe5	-0.23368053
134	0x06	0.05192901
135	0xed	-0.16444185
136	0xf6	-0.08654834
137	0xf3	-0.11251285
138	0x04	0.03461934
139	0xfd	-0.025964504
140	0xa9	-0.75297064
141	0x00	0.0
142	0x16	0.19040637
143	0x05	0.04327417
144	0xf4	-0.10385802
145	0xcf	-0.4240869
146	0xf0	-0.13847736
147	0xe3	-0.2509902
148	0x0b	0.09520318
149	0x02	0.01730967
150	0xc7	-0.4933256
151	0x04	0.03461934
152	0x13	0.16444185
153	0x04	0.03461934
154	0x36	0.46736106
155	0x1f	0.26829988
156	0x08	0.06923868
157	0xfa	-0.05192901
158	0x08	0.06923868
159	0xda	-0.3288837
160	0xd4	-0.38081273
161	0xeb	-0.18175153
162	0xeb	-0.18175153
163	0xc1	-0.5452546
164	0xf6	-0.08654834
165	0xe7	-0.21637087
166	0x14	0.17309669
167	0xf7	-0.07789351
168	0xe1	-0.26829988
169	0x0a	0.08654834
170	0x03	0.025964504
171	0xfe	-0.01730967
172	0xf6	-0.08654834
173	0xd5	-0.3721579
174	0xdb	-0.32022887
175	0x17	0.1990612
176	0xd0	-0.41543207
177	0xd9	-0.33753854
178	0x05	0.04327417
179	0xd1	-0.40677723
180	0x20	0.2769547
181	0xcc	-0.4500514
182	0x01	0.008654835
183	0x29	0.35484824
184	0xc6	-0.5019804
185	0xd7	-0.35484824
186	0x0b	0.09520318
187	0x2a	0.36350307
188	0x19	0.21637087
189	0x09	0.07789351
190	0xb7	-0.6318029
191	0xdc	-0.31157404
192	0x1a	0.2250257
193	0xee	-0.15578702
194	0xe4	-0.24233538
195	0xdf	-0.28560954
196	0xf4	-0.10385802
197	0x0c	0.10385802
198	0xe2	-0.25964504
199	0xfc	-0.03461934
200	0xde	-0.29426438
201	0xd0	-0.41543207
202	0xf5	-0.09520318
203	0xc5	-0.51063526
204	0x17	0.1990612
205	0x09	0.07789351
206	0xcf	-0.4240869
207	0xf9	-0.060583845
208	0xe2	-0.25964504
209	0xef	-0.14713219
210	0xc7	-0.4933256
211	0x26	0.3288837
212	0xf2	-0.12116769
213	0x2f	0.40677723
214	0xe3	-0.2509902
215	0xdf	-0.28560954
216	0x15	0.18175153
217	0xd1	-0.40677723
218	0xf0	-0.13847736
219	0x25	0.32022887
220	0x18	0.20771603
221	0xe6	-0.2250257
222	0xe2	-0.25964504
223	0xdd	-0.3029192
224	0xd6	-0.36350307
225	0xee	-0.15578702
226	0xc6	-0.5019804
227	0xf7	-0.07789351
228	0x03	0.025964504
229	0xdc	-0.31157404
230	0x08	0.06923868
231	0x04	0.03461934
232	0xfe	-0.01730967
233	0x1c	0.24233538
234	0xc8	-0.48467076
235	0xd9	-0.33753854
236	0x2c	0.38081273
237	0xf1	-0.12982252
238	0xcf	-0.4240869
239	0xf2	-0.12116769
240	0xd5	-0.3721579
241	0xde	-0.29426438
242	0x1d	0.2509902
243	0xfc	-0.03461934
244	0x01	0.008654835
245	0x11	0.14713219
246	0xad	-0.7183513
247	0x06	0.05192901
248	0x09	0.07789351
249	0x06	0.05192901
250	0x45	0.5971836
251	0xee	-0.15578702
252	0xdd	-0.3029192
253	0x17	0.1990612
254	0xf1	-0.12982252
255	0x32	0.43274173
