model/keypoint_classifier/keypoint_classifier.tflite (tflite, 4904 bytes, 6 tensors)

sequential_1/dense_5/MatMul f4 [2, 10]
-0.08158685 0.3913773 0.6602154 -0.62792027 -0.21322182 -0.5181676 0.6082028 0.0017157912
-0.8092319 0.16017792 0.12341954 -0.17842223 -0.32788387 0.3025409 0.30509946 -0.47853047
-0.6717172 0.14700864 0.58409107 0.72221893
00000000: 0217 a7bd 9b62 c83e e003 293f 62bf 20bf
00000010: d256 5abe a2a6 04bf 2eb3 1b3f 66e4 e03a
00000020: d229 4fbf ae05 243e 62c3 fc3d 51b4 36be
00000030: 65e0 a7be a4e6 9a3e ff35 9c3e f201 f5be
00000040: a9f5 2bbf 6f89 163e fe86 153f 57e3 383f

sequential_1/dense_4/MatMul f4 [10, 20]
-0.19520919 -0.144306 0.25717607 0.24540676 -0.3411678 -0.16668025 -0.3998529 0.13114458
0.23996888 -0.23025782 -0.16466357 0.3513671 0.35799104 -0.057668567 -0.09833859 0.13005504
0.3945469 -0.448305 0.07892816 0.26713118 -0.27459076 -0.0909555 0.11154557 0.4012753
-0.09879128 -0.18964617 0.14842497 -0.3800693 -0.10753402 -0.37695608 0.06342616 -0.33529812
-0.40738726 -0.2040099 -0.024145577 0.14689575 0.17330714 0.25693566 -0.40971515 -0.21978441
-0.038868558 0.3247893 0.115997635 0.3957206 0.17932904 -0.4023949 0.13387212 0.037732817
0.45412168 -0.16374886 0.17905949 0.4743048 0.23935214 -0.31391248 -0.3538601 0.30361012
-0.115037076 -0.38151848 -0.050690565 -0.20828384 -0.018510744 -0.29978326 -0.0985001 0.073327534
-0.011573673 0.13282189 0.061477337 0.06583042 -0.26600733 0.083118305 -0.09635664 0.10090773
-0.3706791 -0.005686371 -0.46985456 0.18710585 -0.20607784 -0.19393739 0.10482753 -0.33125418
0.46633518 -0.3363973 0.3426465 -0.09705807 0.16379285 -0.006686432 0.20316926 -0.14833938
0.30179235 -0.35951516 -0.32231957 0.34968594 0.09922582 -0.11028312 -0.10607539 -0.045540623
0.24428682 0.30661893 -0.0635744 0.31370908 0.2973852 0.2717212 -0.09956728 0.19468766
0.18585053 -0.27453014 0.34285006 -0.0377388 -0.056391843 0.26296994 -0.39680684 -0.07211804
0.11245921 0.22873785 -0.35860854 0.17214815 -0.4019412 0.09397399 -0.3479635 -0.100247554
-0.18782726 0.15115428 -0.07906872 0.36246648 0.43264458 -0.004034848 0.4022686 -0.11781942
-0.034427997 0.085823886 -0.4219285 0.41244754 0.4786048 -0.26486608 -0.013727597 -0.0010461663
0.38139158 0.20598967 -0.15072383 0.1351745 0.38574108 -0.28422207 -0.03567045 -0.42987794
0.067792825 0.2240359 -0.4525918 0.10005385 -0.39745358 0.47971418 -0.067888886 0.292602
-0.18667714 -0.21105649 0.47140223 0.13305618 -0.24850778 -0.19423679 0.037965294 0.20864244
0.009713963 -0.21766584 0.24076883 -0.036685076 -0.20748751 0.14334099 -0.41698617 -0.06806164
-0.32964757 0.22075072 0.44383794 -0.3212514 0.05427895 0.124340765 0.32855144 -0.27218243
-0.12539937 -0.3844707 0.3272682 -0.13281535 -0.19319196 -0.38463753 -0.3272975 0.17228417
-0.2477927 -0.098226905 -0.4805623 -0.057206694 0.264029 -0.1297305 0.008826843 0.15598775
-0.09261973 0.051348824 0.3899566 0.1028912 -0.32821432 0.1525355 0.35458785 -0.23122275
00000000: ebe4 47be f4c4 13be 95ac 833e e94b 7b3e
00000010: 8cad aebe 3aae 2abe 85b9 ccbe c44a 063e
00000020: 67ba 753e b5c8 6bbe 919d 28be 63e6 b33e
00000030: 9a4a b73e e035 6cbd be65 c9bd 262d 053e
00000040: 0d02 ca3e 3c88 e5be 16a5 a13d 6bc5 883e
00000050: 2997 8cbe e146 babd 0172 e43d f573 cd3e
00000060: 1553 cabd 9b32 42be b7fc 173e 7198 c2be
00000070: cc3a dcbd 6300 c1be 93e5 813d 32ac abbe
00000080: 1095 d0be f9e7 50be f2cc c5bc d76b 163e
00000090: 6d77 313e 128d 833e 2fc6 d1be 2a0f 61be
000000a0: a334 1fbd c84a a63e 2b90 ed3d e49b ca3e
000000b0: 08a2 373e b406 cebe c615 093e ba8d 1a3d
000000c0: a382 e83e c8ad 27be 5f5b 373e 14d8 f23e
000000d0: ba18 753e 23b9 a0be 272d b5be c972 9b3e
000000e0: 8f98 ebbd 6456 c3be e9a0 4fbd 5c48 55be
000000f0: d8a3 97bc 317d 99be 6cba c9bd bf2c 963d
00000100: 819f 3dbc 7602 083e a9cf 7b3d 19d2 863d
00000110: 1d32 88be ee39 aa3d a156 c5bd b6a8 ce3d
00000120: a7c9 bdbe bd54 babb c790 f0be ad98 3f3e
00000130: 1206 53be 8697 46be d1af d63d 269a a9be
00000140: 7cc3 ee3e 443c acbe 5d6f af3e 62c6 c6bd
00000150: 50b9 273e db19 dbbb 9a0b 503e 47e6 17be
00000160: 8784 9a3e 5f12 b8be 1207 a5be 090a b33e
00000170: e836 cb3d 1edc e1bd 0e3e d9bd ce88 3abd
00000180: 5326 7a3e 28fd 9c3e 4c33 82bd 7a9e a03e
00000190: df42 983e 0b1f 8b3e eee9 cbbd 345c 473e
000001a0: 9a4f 3e3e 378f 8cbe 0b8a af3e 0094 1abd
000001b0: 22fb 66bd ffa3 863e 442a cbbe 9fb2 93bd
000001c0: 0451 e63d 413a 6a3e 8a9b b7be 9b47 303e
000001d0: 3dcb cdbe 6f75 c03d 4628 b2be 974e cdbd
000001e0: ca55 40be 30c8 1a3e c8ee a1bd 3595 b93e
000001f0: 9783 dd3e c236 84bb 26f6 cd3e 4f4b f1bd
00000200: 5f04 0dbd 6fc4 af3d 0307 d8be 532c d33e
00000210: b00b f53e 879c 87be b7e9 60bc 841f 89ba
00000220: c245 c33e f5ee 523e 5957 1abe 2f6b 0a3e
00000230: db7f c53e 8e85 91be 2e1b 12bd f618 dcbe
00000240: f7d6 8a3d ab69 653e 1dba e7be 08e9 cc3d
00000250: 097f cbbe 199d f53e 5409 8bbd eecf 953e
00000260: 4b28 3fbe 311f 58be a25b f13e e13f 083e
00000270: d378 7ebe 02e6 46be 7f81 1b3d 5da6 553e
00000280: 5027 1f3c cbe3 5ebe 1b8c 763e 1743 16bd
00000290: 9b77 54be fbc7 123e 367f d5be e763 8bbd
000002a0: 91c7 a8be 7a0c 623e ba3e e33e 107b a4be
000002b0: 9b53 5e3d 5fa6 fe3d e537 a83e 7f5b 8bbe
000002c0: b168 00be 58d9 c4be b38f a73e bf00 08be
000002d0: 1dd4 45be 36ef c4be 8a93 a7be 436b 303e
000002e0: 5fbd 7dbe 302b c9bd 430c f6be 9151 6abd
000002f0: cf2e 873e 12d8 04be 779e 103c 41bb 1f3e
00000300: 6aaf bdbd 2553 523d 64a8 c73e 9fb8 d23d
00000310: b50b a8be 4432 1c3e 8a8c b53e a8c5 6cbe

sequential_1/dense_5/BiasAdd/ReadVariableOp f4 [2]
-0.04685439 0.04685439
00000000: 64ea 3fbd 64ea 3f3d

sequential_1/dense_4/BiasAdd/ReadVariableOp f4 [10]
-0.012549092 -0.0023748558 0.031316504 0.047332976 0.054146778 0.0025074221 0.026743213 0.058955554
0.080125734 0.024815908
00000000: b59a 4dbc 78a3 1bbb bc45 003d 39e0 413d
00000010: 03c9 5d3d 9053 243b 9514 db3c 617b 713d
00000020: f618 a43d bb4a cb3c

sequential_1/dense_3/BiasAdd/ReadVariableOp f4 [20]
0.007908225 0.035119373 0.044779174 0.02740071 0.020937173 -0.007391154 0.06958003 -0.030383386
0.050472807 0.017271942 0.0014759842 0.0382614 0.062201563 -0.009248433 -0.0044261324 0.03878673
0.019745663 -0.015019202 -0.024070937 -0.013798436
00000000: 8091 013c 55d9 0f3d 5e6a 373d 7477 e03c
00000010: 6f84 ab3c 7e31 f2bb fa7f 8e3d 94e6 f8bc
00000020: 93bc 4e3d e37d 8d3c d075 c13a fcb7 1c3d
00000030: 11c7 7e3d bd86 17bc 1709 91bb d6de 1e3d
00000040: a8c1 a13c 1913 76bc 6a30 c5bc d612 62bc

sequential_1/dense_3/MatMul i1 [20, 84] scale=0.002525073 zero_point=0
-0.2247315 0.09090263 -0.07575219 -0.10857814 0.073227115 0.10605307 0.020200584 0.1969557
-0.16412975 -0.1868554 -0.03282595 -0.14392917 0.17170496 -0.055551607 0.03282595 -0.2348318
0.19948077 -0.035351023 -0.020200584 0.020200584 -0.15150438 0.14392917 0.22725657 -0.27523297
0.22725657 -0.11867843 0.015150438 -0.28280818 -0.18180525 -0.10352799 -0.047976386 -0.0656519
0.23230672 -0.26765773 0.07827726 -0.10352799 -0.05050146 -0.26513267 -0.14140409 0.017675512
0.17928018 -0.1969557 -0.13887902 0.22725657 0.21210614 -0.11362828 -0.08837756 0.121203505
0.111103214 0.1489793 0.012625365 0.17170496 -0.007575219 0.13887902 0.10857814 -0.015150438
0.18433033 -0.28785834 0.11615336 0.17675512 -0.15150438 0.10857814 -0.13887902 -0.045451313
-0.23230672 0.16665483 0.08837756 -0.22220643 0.030300876 -0.22978164 0.0934277 0.05050146
-0.035351023 -0.13382886 -0.2626076 0.005050146 -0.073227115 -0.012625365 0.037876096 0.1590796
-0.027775804 -0.09847785 -0.21968135 -0.13887902 -0.07827726 -0.08585248 0.10857814 0.020200584
-0.073227115 -0.25503236 -0.0934277 0.10100292 0.24745716 -0.22725657 0.24998222 -0.09847785
0.25503236 0.2600825 0.027775804 -0.17170496 -0.18180525 -0.16917989 0.1489793 -0.19190554
0.1590796 0.23735686 0.055551607 -0.027775804 -0.22220643 0.27018282 0.027775804 0.017675512
-0.15655452 0.26513267 0.047976386 0.22725657 0.08585248 -0.09090263 -0.27523297 -0.07575219
0.060601752 -0.17675512 -0.111103214 0.23988193 -0.17928018 -0.017675512 0.035351023 -0.20958106
-0.12877873 -0.045451313 0.02525073 0.15402946 -0.2146312 0.15655452 -0.07827726 0.16160467
0.17423004 0.16412975 -0.2600825 -0.15655452 0.010100292 0.13635394 -0.21715628 -0.19443062
-0.11615336 0.045451313 -0.21210614 -0.17423004 -0.015150438 0.0934277 0.073227115 0.13382886
0.2146312 -0.17675512 -0.20958106 0.15150438 -0.047976386 0.10605307 0.27018282 0.18180525
0.18433033 -0.1590796 0.017675512 0.20958106 0.03282595 -0.17675512 0.017675512 -0.055551607
0.07575219 -0.022725657 0.022725657 -0.12877873 -0.055551607 0.002525073 0.060601752 -0.002525073
0.23230672 0.20453091 -0.10857814 -0.022725657 0.10605307 -0.15150438 0.07827726 -0.25503236
-0.09847785 0.063126825 -0.19190554 -0.22220643 0.14392917 -0.12372858 -0.073227115 -0.09595277
0.19948077 -0.10100292 -0.010100292 0.12372858 -0.13887902 -0.08837756 0.21210614 0.11362828
0.022725657 -0.2802831 0.28785834 0.045451313 0.2525073 -0.09847785 -0.11867843 0.037876096
-0.012625365 -0.08585248 -0.16917989 -0.23988193 0.13635394 -0.060601752 0.17170496 0.15150438
-0.05807668 0.19190554 -0.07827726 0.11867843 -0.037876096 0.10100292 0.19948077 -0.08585248
-0.16412975 -0.010100292 -0.030300876 -0.27775803 0.1313038 -0.1868554 -0.24998222 -0.10857814
-0.10352799 -0.26765773 -0.07827726 -0.29543355 -0.19443062 0.13887902 0.07575219 -0.24745716
0.012625365 -0.06817697 -0.24745716 0.16917989 0.053026535 -0.020200584 0.12877873 0.04292624
-0.11867843 -0.19948077 0.13635394 -0.0934277 -0.17170496 -0.0934277 -0.047976386 -0.11362828
00000000: a724 e2d5 1d2a 084e bfb6 f3c7 44ea 0da3
00000010: 4ff2 f808 c439 5a93 5ad1 0690 b8d7 ede6
00000020: 5c96 1fd7 ec97 c807 47b2 c95a 54d3 dd30
00000030: 2c3b 0544 fd37 2bfa 498e 2e46 c42b c9ee
00000040: a442 23a8 0ca5 2514 f2cb 9802 e3fb 0f3f
00000050: f5d9 a9c9 e1de 2b08 e39b db28 62a6 63d9
00000060: 6567 0bbc b8bd 3bb4 3f5e 16f5 a86b 0b07
00000070: c269 135a 22dc 93e2 18ba d45f b9f9 0ead
00000080: cdee 0a3d ab3e e140 4541 99c2 0436 aab3
00000090: d212 acbb fa25 1d35 55ba ad3c ed2a 6b48
000000a0: 49c1 0753 0dba 07ea 1ef7 09cd ea01 18ff
000000b0: 5c51 d5f7 2ac4 1f9b d919 b4a8 39cf e3da
000000c0: 4fd8 fc31 c9dd 542d 0991 7212 64d9 d10f
000000d0: fbde bda1 36e8 443c e94c e12f f128 4fde
000000e0: bffc f492 34b6 9dd5 d796 e18b b337 1e9e
000000f0: 05e5 9e43 15f8 3311 d1b1 36db bcdb edd3
