model/keypoint_classifier/keypoint_classifier.tflite (tflite, 42584 bytes, 8 tensors)

sequential_9/dense_33/MatMul f4 [2, 10]
0	0xbf126aa2	-0.5719396
1	0xbe6c7459	-0.23091258
2	0xbe62945d	-0.22126909
3	0x3e902dd8	0.28159976
4	0xbec2de91	-0.3806043
5	0xbe905f1b	-0.2819756
6	0x3f197d8e	0.59957206
7	0xbf1f7774	-0.62291646
8	0x3f3404cf	0.7031984
9	0xbd6db7d7	-0.05803665
10	0xbf2c051d	-0.671953
11	0x3f0a6821	0.5406514
12	0xbf1d05a9	-0.6133676
13	0xbe0447ef	-0.12918065
14	0xbf10065c	-0.56259704
15	0x3eadb918	0.33930278
16	0xbf08bb70	-0.53411007
17	0xbeebb882	-0.46039206
18	0x3eea3031	0.45739892
19	0xbf17546c	-0.5911319

sequential_9/dense_32/MatMul f4 [10, 76]
0	0xbe85ce55	-0.2613398
1	0xbe44cec1	-0.19219495
2	0xbdde17b0	-0.10844362
3	0x3d827dac	0.06371626
4	0xbd1ff6de	-0.03905379
5	0x3cfcf67c	0.030879252
6	0x3e5cdb99	0.21568145
7	0xbe631300	-0.22175217
8	0xbdd29ade	-0.10283445
9	0x3e697359	0.22797908
10	0x3e744a87	0.23856555
11	0x3e2d4755	0.16921742
12	0x3de17615	0.110088505
13	0x3dc3656a	0.095408276
14	0x3d785b3a	0.060633875
15	0xbdef8863	-0.116959356
16	0x3c878205	0.01654149
17	0xbd981c88	-0.07427317
18	0xbe710c14	-0.23539764
19	0x3c6ba28b	0.014382015
20	0x3e639dab	0.22228114
21	0x3cfdce15	0.030982057
22	0x3e3f2055	0.18664677
23	0xbdcbfcca	-0.09960325
24	0xbdde142e	-0.10843693
25	0xbe488bcc	-0.19584578
26	0x3e871e25	0.26390186
27	0x3e0ea82f	0.13931344
28	0xbd13e2c1	-0.03610492
29	0xbe1d6825	-0.15371759
30	0xbe6139f7	-0.21994768
31	0x3e182bd1	0.14860465
32	0xbe1707d7	-0.14749084
33	0x3e7b8d7d	0.24565692
34	0x3e1e58d3	0.15463571
35	0xbc410b0b	-0.011782418
36	0xbd96506e	-0.073395595
37	0xbd9582fb	-0.07300373
38	0xbdf2c8e0	-0.1185472
39	0x3e809b79	0.25118616
40	0x3e75dfbe	0.24011132
41	0xbe3e1748	-0.18563569
42	0x3d9bf2e3	0.07614686
43	0x3c923bb9	0.017850744
44	0x3e68949b	0.22712938
45	0x3dfdd6a8	0.12394458
46	0xbdaaadd9	-0.0833394
47	0x3cdda6be	0.027057048
48	0x3e12d5bb	0.14339344
49	0xbe81555e	-0.25260442
50	0x3c3a4a2c	0.011370223
51	0xbd614010	-0.054992735
52	0x3e242af8	0.16032016
53	0x3e1fe72f	0.15615533
54	0x3e2161d9	0.15759982
55	0xbe63dbae	-0.2225177
56	0xbe6062ac	-0.2191264
57	0xbd424fae	-0.04743927
58	0xbe4b36ff	-0.19845198
59	0x3d6303fb	0.055423718
60	0xbe7f7ae5	-0.24949224
61	0x3d6eeefe	0.05833339
62	0xbd6d04a4	-0.057865754
63	0x3e3b6a24	0.18302208
64	0x3e110d05	0.14165123
65	0xbd54dbf7	-0.051967587
66	0x3de11996	0.10991208
67	0x3ccc951c	0.024973445
68	0xbdc11676	-0.09428112
69	0xbdfef340	-0.1244874
70	0xbe38d083	-0.18048291
71	0x3ddd7fa1	0.10815359
72	0x3d65068d	0.05591445
73	0xbe3fe530	-0.18739772
74	0xbdbcb5fc	-0.09214398
75	0x3cb770af	0.022392599
76	0x3c5e2e60	0.013560861
77	0xbe798bc6	-0.24369726
78	0xbc0164a0	-0.007897526
79	0x3e6ca4a7	0.23109685
80	0xbae65e40	-0.0017575696
81	0x3e0da402	0.13832095
82	0x3deada55	0.11467425
83	0xbd3339cd	-0.043756295
84	0xbe259210	-0.16169
85	0xbd348e29	-0.044080887
86	0xbe117452	-0.14204529
87	0x3e88577f	0.26629254
88	0x3e5a7f6a	0.21337667
89	0xbe03f603	-0.12886815
90	0x3e491333	0.1963623
91	0xbe810895	-0.2520186
92	0xbe5f0195	-0.21777947
93	0x3e4241cd	0.18970414
94	0xbe66c1ce	-0.22534868
95	0x3e3b8b9c	0.18314976
96	0x3e83509b	0.25647435
97	0x3e13763f	0.14400576
98	0xbd23be4e	-0.03997641
99	0xbd7775e9	-0.060415182
100	0xbdb125f1	-0.08649815
101	0xbe39b200	-0.18134308
102	0xbe075b6b	-0.13218467
103	0xbe057bf2	-0.13035563
104	0x3e16c7e5	0.14724691
105	0xbd09b1b5	-0.03361674
106	0x3e8a0a43	0.26960954
107	0xbbd25af0	-0.006419532
108	0x3dfc7d82	0.12328626
109	0x3e80549f	0.2506456
110	0x3ce30c76	0.027715903
111	0xbe329467	-0.17439424
112	0x3e4a0589	0.19728674
113	0xbdee45e9	-0.11634428
114	0xbe541d55	-0.20714314
115	0xbe4bdc63	-0.1990829
116	0x3de39636	0.11112635
117	0x3e0e673d	0.1390657
118	0xbde1a85e	-0.110184416
119	0x3ea546c4	0.32280552
120	0xbe02b0bb	-0.1276273
121	0x3d4cd25a	0.050005294
122	0x3e417b1f	0.18894623
123	0x3d244fce	0.04011517
124	0xbd028e3b	-0.031873923
125	0xbe4cd6ab	-0.20003764
126	0xbd5aa12e	-0.05337637
127	0xbe4e8741	-0.20168783
128	0xbddc91c8	-0.10769993
129	0x3e30b9b3	0.17258339
130	0x3d2d7cfe	0.04235553
131	0x3e8dc738	0.27691054
132	0x3e32c88d	0.17459317
133	0x3cec250b	0.028826257
134	0x3e591a4f	0.21201442
135	0x3d554db7	0.052076068
136	0x3e6e2f99	0.23260345
137	0xbe2d8c04	-0.16947943
138	0x3e1dde28	0.15416777
139	0x3e14024f	0.14454006
140	0x3e8c4abc	0.27400768
141	0xbe33ba2d	-0.17551489
142	0x3dab5820	0.08366418
143	0xbd8a1dce	-0.06743966
144	0xbe2765f2	-0.16347483
145	0x3d337a6c	0.043817922
146	0xbe3e5f03	-0.18590932
147	0x3e2f6568	0.17128527
148	0xbe70c0b7	-0.23511015
149	0xbe93603c	-0.28784359
150	0xbe6a35f0	-0.22872138
151	0x3e6cbbd6	0.23118529
152	0xbd824a15	-0.06361786
153	0x3e105c37	0.14097677
154	0xbddee671	-0.10883797
155	0xbe6fee97	-0.23430859
156	0x3c95b244	0.01827348
157	0x3e112c96	0.14177164
158	0xbe4b59ed	-0.19858523
159	0x3e288e0d	0.16460438
160	0x3e8f07aa	0.27935535
161	0x3d8a98a3	0.067673944
162	0x3db0e7e7	0.08637982
163	0x3d8e292e	0.06941448
164	0xbe8db30d	-0.27675667
165	0xbdc7599c	-0.097338885
166	0x3e6cd7c4	0.23129183
167	0xbd9f2517	-0.07770746
168	0xbe6829ec	-0.22672242
169	0xbe858ccd	-0.26083985
170	0x3e68cf91	0.2273543
171	0xbe7a50f5	-0.24444945
172	0xbd085d7a	-0.03329227
173	0x3d16a8ec	0.03678219
174	0x3e505689	0.2034551
175	0xbcd4c800	-0.025974274
176	0xbcd9bee3	-0.02658028
177	0x3d9deb69	0.077109165
178	0xbd9c6215	-0.07635895
179	0xbe691c7a	-0.22764769
180	0x3e7f20c1	0.24914838
181	0x3e13ad34	0.1442154
182	0xbe45413c	-0.19263166
183	0x3e687f17	0.22704731
184	0xbd61a2ba	-0.05508683
185	0xbb53af6f	-0.0032300611
186	0xbe456887	-0.19278155
187	0xbe4b309e	-0.19842765
188	0x3d3f3850	0.046684563
189	0xbe524505	-0.20534141
190	0x3e4864c2	0.19569686
191	0x3b741484	0.0037243674
192	0xbe1aae5b	-0.15105574
193	0xbded0657	-0.11573475
194	0x3e44aeb8	0.19207275
195	0x3e066fb8	0.13128555
196	0x3d6d834f	0.057986554
197	0x3cd37e28	0.025816992
198	0xbd12b6ce	-0.035818867
199	0xbe2ac86f	-0.16678022
200	0xbe4a5469	-0.19758762
201	0x3e4739cb	0.1945564
202	0x3df72b22	0.12068774
203	0xbe5c2453	-0.21498232
204	0x3e58ab92	0.21159199
205	0x3df4f559	0.11960859
206	0x3e43950f	0.1909983
207	0x3e0362b2	0.12830618
208	0xbb44bc13	-0.0030019328
209	0x3d60726f	0.054796632
210	0xbe6a7670	-0.22896743
211	0x3e6bd87d	0.23031802
212	0xbe5763ba	-0.21034136
213	0xbe8445c4	-0.25834477
214	0x3d312bab	0.043254536
215	0xbe25fbba	-0.16209307
216	0xbe22f89e	-0.15915152
217	0x3e50a266	0.2037445
218	0x3b93809d	0.004501416
219	0xbe505985	-0.20346649
220	0xbd62fcbf	-0.05541682
221	0x3c81f57a	0.015864123
222	0x3e80002b	0.25000128
223	0xbe2fd37f	-0.17170523
224	0x3e5e4759	0.21706904
225	0x3de2a411	0.110664494
226	0xbd6c2693	-0.057653975
227	0xbe81b528	-0.25333524
228	0x3e65edf3	0.22454052
229	0x3e77460f	0.24147819
230	0xbdd99d15	-0.10625664
231	0xbe4938cf	-0.19650577
232	0xbd74f1e7	-0.05980101
233	0xbe01016a	-0.12598196
234	0x3e49170f	0.19637702
235	0xbd8de7f9	-0.06929011
236	0x3e84f421	0.25967506
237	0xbe1421e4	-0.14466053
238	0xbe3982e5	-0.18116339
239	0xbe5847c6	-0.2112113
240	0x3e32a52c	0.1744582
241	0xbd7f2816	-0.06229409
242	0xbe2d3fc2	-0.16918853
243	0x3e2498ab	0.16073863
244	0x3e0d5556	0.13802084
245	0xbe75a836	-0.23989949
246	0xbdff8c7d	-0.12477968
247	0xbc6b1cd2	-0.014350133
248	0x3e6699ca	0.22519603
249	0xbda82c57	-0.08211582
250	0xbdba4da7	-0.09096842
251	0x3dde3887	0.108506255
252	0x3dc8119a	0.09768982
253	0xbd291805	-0.041282672
254	0x3e6dcc13	0.2322238
255	0x3d784c65	0.06061973

sequential_9/dense_33/BiasAdd/ReadVariableOp f4 [2]
0	0xbd2ef5fd	-0.04271506
1	0x3d2ef5fd	0.04271506

sequential_9/dense_32/BiasAdd/ReadVariableOp f4 [10]
0	0xbcc450fb	-0.023964396
1	0x3d6a463f	0.0571959
2	0xbc0fa437	-0.008767179
3	0xbcbc43f2	-0.022981618
4	0xbc6925fc	-0.014230248
5	0x3d4e12cf	0.050310906
6	0xbb906918	-0.0044070594
7	0x3d55b5bb	0.052175265
8	0xbd0ea067	-0.03482094
9	0xb99a1658	-0.00029389816

sequential_9/dense_31/BiasAdd/ReadVariableOp f4 [76]
0	0xbc64d852	-0.01396759
1	0x3ab7ffaf	0.0014037992
2	0x3c93d85c	0.018047504
3	0x3bc909db	0.006135208
4	0xbca89405	-0.020578394
5	0xbc263244	-0.01014382
6	0xbaf32025	-0.0018549009
7	0x39457f6f	0.00018834857
8	0x3c209fc8	0.00980372
9	0xbc838cdc	-0.016058378
10	0x3c4c3b75	0.012465348
11	0xbcb69b02	-0.02229071
12	0x3c86cc89	0.016454952
13	0xbc06edd7	-0.008235416
14	0x3affc758	0.0019514365
15	0xbbbd7509	-0.005781774
16	0xbbb9207c	-0.0056496244
17	0x3b86b812	0.0041112984
18	0x3c58cf03	0.013232949
19	0x3cc10049	0.023559706
20	0xbc44112b	-0.011966984
21	0x3ca8eb3b	0.02061998
22	0x3b8e4cbe	0.0043426445
23	0xbb2f85c7	-0.0026782618
24	0xbc7a692f	-0.015283867
25	0xbcab42fd	-0.020905966
26	0x3b775a7f	0.003774315
27	0x3c05626c	0.008141141
28	0x3c74850e	0.014924301
29	0x3cc15159	0.02359836
30	0x3cc865d3	0.024462616
31	0x3b1f9b59	0.002435407
32	0x3d285b09	0.041102443
33	0x3b06dc05	0.002057792
34	0x3c2fe83a	0.0107365195
35	0x3b70bc0e	0.0036733183
36	0x3c20a49c	0.009804871
37	0xbc16c849	-0.009203025
38	0x3a1717b3	0.00057637243
39	0x3b6ffcb6	0.0036619133
40	0x3c90650d	0.01762631
41	0x3d3b0559	0.045659397
42	0xbb33bf94	-0.0027427422
43	0x3cb9102c	0.02259072
44	0xbcb4fb22	-0.022092406
45	0xbb647673	-0.003486064
46	0x3c9b9753	0.018993055
47	0x3cbeacaf	0.023275701
48	0xbc0d2d4f	-0.008616759
49	0xbc4e70c1	-0.012600125
50	0xbc66fecc	-0.014098834
51	0xbcb4f4e4	-0.02208943
52	0x3cd7b51c	0.026331477
53	0x3d212958	0.03934607
54	0x3c00b4a9	0.007855573
55	0x3b90b645	0.0044162595
56	0xbc05e009	-0.00817109
57	0x3c6d81cf	0.014496281
58	0x3d38079d	0.044929136
59	0xbc260020	-0.010131866
60	0x3cf173be	0.029474135
61	0xbc6e636d	-0.014550072
62	0xbc895f64	-0.016769119
63	0xbc51f3c3	-0.012814465
64	0x3cd1a471	0.025591107
65	0xbbcbc1eb	-0.006218185
66	0x3b14936c	0.0022670878
67	0xbc6a7a49	-0.014311382
68	0x3c15e7c9	0.0091495
69	0xbc36c148	-0.01115448
70	0x3c879490	0.016550332
71	0x3bee0e76	0.0072649075
72	0xbcb089fb	-0.02155017
73	0x3c73cc17	0.014880202
74	0xbb2aba1b	-0.002605087
75	0x3bd522df	0.006504401

sequential_9/dense_30/BiasAdd/ReadVariableOp f4 [200]
0	0x3c2b2dac	0.010447901
1	0xbc36a9d5	-0.01114889
2	0xbc5f894e	-0.013643576
3	0x3c3489dd	0.011019197
4	0x3bf5f5cf	0.0075061093
5	0x3cd8a062	0.026443664
6	0x3ba158f0	0.0049239323
7	0xbc3984f5	-0.011323203
8	0x3c40b5f9	0.011762136
9	0xbc8bc9bf	-0.017063973
10	0xbc555669	-0.01302109
11	0xbbaf7ca6	-0.0053554354
12	0x3b2b8eba	0.00261776
13	0x3b23f90f	0.0025020277
14	0xbc7842fa	-0.015152687
15	0x3c41f1ba	0.011837417
16	0x3c840290	0.016114503
17	0x3ca9b0ff	0.020714281
18	0x3c1ee880	0.009698987
19	0xbcd8f0d8	-0.02648203
20	0x3c710ec4	0.014712993
21	0xbb573456	-0.003283759
22	0x3bcd7a0e	0.0062706536
23	0x3b78115a	0.003785214
24	0x3ccf67d0	0.025318056
25	0xbaf7cab0	-0.001890501
26	0x3c7008d2	0.01465054
27	0xbbe3ddfa	-0.006953952
28	0x3ba6cd6f	0.0050904076
29	0xbc87c93f	-0.016575454
30	0xbcaf4525	-0.021395275
31	0x3b85043b	0.004059342
32	0xbc66ed41	-0.014094652
33	0x3afe7ae6	0.0019415289
34	0xbc4e614f	-0.012596442
35	0x3a76224e	0.0009389267
36	0xbc2fc074	-0.010727037
37	0x3ccabb34	0.024747469
38	0x3c8f4f13	0.01749376
39	0xbaaaabde	-0.0013021191
40	0x38660238	5.483834e-05
41	0xbc0054c5	-0.007832711
42	0xbc1f5945	-0.009725873
43	0x3c392968	0.011301376
44	0x3c2cc7c5	0.010545676
45	0x3b9128e8	0.0044299252
46	0x3c1df487	0.009640819
47	0x3c836770	0.016040534
48	0x3c47ee45	0.012202804
49	0x3c477eb7	0.012176207
50	0xbc894688	-0.016757265
51	0xbca20bcd	-0.019781018
52	0xbae547dd	-0.001749273
53	0x3964c5b1	0.0002181742
54	0x3c4a5cd6	0.012351235
55	0x3ba61c7e	0.0050693145
56	0xbbe10a4f	-0.006867684
57	0x3c8fe8e3	0.017567104
58	0xbc849afc	-0.016187184
59	0xbb8e0df2	-0.0043351585
60	0xbc31ded8	-0.010856353
61	0x3bdd5666	0.0067546843
62	0x3c76627f	0.015038132
63	0x3b9bfc0d	0.0047602714
64	0xbc9d7def	-0.019225089
65	0xbc1354a1	-0.008992345
66	0xbc769d35	-0.0150521295
67	0xbc25e88f	-0.010126247
68	0xbb79aa48	-0.003809588
69	0xbb2fe2d9	-0.0026838093
70	0x3ac13e3a	0.0014743276
71	0xbc2953c2	-0.010334911
72	0x3c402004	0.011726383
73	0x3c605ac7	0.013693518
74	0x3c65b6d8	0.014020644
75	0xbb4a79db	-0.0030895385
76	0xbc7cfb01	-0.015440703
77	0xbbafb662	-0.005362318
78	0x3b60a80c	0.0034279851
79	0xbbd2fab8	-0.0064385794
80	0xbbdf731d	-0.0068191425
81	0xbaaf9716	-0.0013396468
82	0xbb2cc31c	-0.0026361411
83	0xbc97c746	-0.018527638
84	0xbb1aedaa	-0.0023640194
85	0x3cb860b8	0.022507057
86	0x3c4405e1	0.011964292
87	0xbac4120d	-0.0014958993
88	0x3c5f27c2	0.013620319
89	0xbba17887	-0.004927698
90	0xbc709633	-0.014684248
91	0xbc50602b	-0.012718241
92	0xbc4a6cc3	-0.012355032
93	0x3c27f3b3	0.0102509735
94	0xbbf646d8	-0.0075157695
95	0xbaf9f60f	-0.0019070524
96	0xbba4dc6c	-0.005031159
97	0xbbe1e087	-0.006893221
98	0xba893b2a	-0.0010469903
99	0xbc3f11cc	-0.011661958
100	0xbb0e500c	-0.0021715192
101	0xbb707916	-0.0036693267
102	0xbb298b06	-0.0025870218
103	0xbc2b54d9	-0.010457241
104	0xbc676462	-0.014123054
105	0xbb7bd1e8	-0.0038424674
106	0x3c111014	0.008853931
107	0xbc670f9b	-0.014102842
108	0x3c36f556	0.011166891
109	0x3bbaa055	0.0056953826
110	0xbbc99618	-0.006151926
111	0xbb1d519f	-0.0024004949
112	0x3bdf0be0	0.0068068355
113	0x3c3840e1	0.011245937
114	0xbb3627e9	-0.0027794784
115	0x3c4f6824	0.012659106
116	0xbb8d0f5f	-0.004304811
117	0x3ad28980	0.0016062707
118	0xbbf1a340	-0.0073741972
119	0x3c5cae17	0.013469241
120	0xbc275ece	-0.010215474
121	0xbc66108c	-0.014042031
122	0xbc832ef7	-0.016013606
123	0x3c3ab58d	0.011395824
124	0x3c8ace97	0.016944213
125	0xbbf246d0	-0.0073936954
126	0x3a6b1969	0.0008968325
127	0x3b9cda98	0.0047868006
128	0x3c5ac6f5	0.013353099
129	0x3bd101e2	0.0063783983
130	0x3c3c7335	0.011502077
131	0x3c8de0d1	0.017319115
132	0xbc4921f6	-0.012276163
133	0x3c754cdb	0.014971937
134	0x3c03d159	0.008045518
135	0x3b84f89d	0.0040579573
136	0xb9d44d56	-0.0004049341
137	0x3ae4e72f	0.0017463918
138	0x3b238068	0.0024948362
139	0x3c0e99d7	0.00870367
140	0xbaebfdd4	-0.0018004724
141	0xbc8f0f37	-0.01746331
142	0xbc033595	-0.00800838
143	0x3bc342c1	0.0059588854
144	0xbbdd2e60	-0.006749913
145	0x3c126cad	0.008937043
146	0x3b1067c1	0.0022034498
147	0xbc51c837	-0.012804083
148	0xbbd5424b	-0.006508147
149	0x3c47708b	0.012172828
150	0xb817860c	-3.6126046e-05
151	0xbae9dc1c	-0.0017842087
152	0xbc4bf182	-0.012447717
153	0x3caebe2c	0.021330915
154	0x3c20d07f	0.009815334
155	0xbc11da73	-0.00890218
156	0xbb5ceafe	-0.0033709402
157	0xbc818f31	-0.01581535
158	0x3c115247	0.008869714
159	0xbbf37c95	-0.007430623
160	0x3a57fb2a	0.00082390255
161	0x3a9aea0e	0.0011819021
162	0xbc73eab2	-0.014887499
163	0xbc76018a	-0.015015015
164	0xbc638433	-0.013886499
165	0x3a059851	0.0005096244
166	0x3bde0bc6	0.006776306
167	0x3bbf5945	0.005839499
168	0xbbf4a724	-0.007466214
169	0x3cadb8f4	0.021206357
170	0x3cbd8d62	0.023138706
171	0xbc2978c0	-0.01034373
172	0xbc01b484	-0.007916573
173	0xbbad1394	-0.005281875
174	0xbc8fca43	-0.0175525
175	0x3cc78147	0.024353636
176	0xbbde28ad	-0.0067797513
177	0xbba8533f	-0.005136877
178	0xbbf8d46a	-0.007593681
179	0x3c001ebd	0.007819829
180	0xbb775cc5	-0.0037744504
181	0xbbef1468	-0.007296134
182	0x3ac532d1	0.0015045052
183	0xbc199c4b	-0.009375642
184	0xbbc948a3	-0.006142692
185	0xbc18d9c6	-0.009329265
186	0xbc0a4421	-0.008439095
187	0x3bd5247e	0.0065045943
188	0x3b899fde	0.004199966
189	0xbc5e0313	-0.013550538
190	0xbbea54d9	-0.007151228
191	0xba55fc56	-0.0008162906
192	0x3c86c00b	0.016448995
193	0x3ce3df1d	0.02781635
194	0x3b490062	0.0030670394
195	0xbba78b41	-0.005113036
196	0xbc5cf74e	-0.013486696
197	0x3ba39017	0.004991542
198	0xbbef3481	-0.00729996
199	0xbb92779f	-0.0044698264

sequential_9/dense_30/MatMul i1 [200, 102] scale=0.0018672677 zero_point=0
0	0x43	0.12510693
1	0x3f	0.117637865
2	0x47	0.132576
3	0xf4	-0.022407211
4	0xf5	-0.020539945
5	0x24	0.067221634
6	0x1b	0.050416227
7	0x0e	0.026141748
8	0xb4	-0.14191234
9	0x14	0.037345354
10	0x02	0.0037345353
11	0xe5	-0.050416227
12	0xbe	-0.123239666
13	0x4b	0.14004508
14	0xef	-0.03174355
15	0x01	0.0018672677
16	0x14	0.037345354
17	0xde	-0.0634871
18	0xf3	-0.02427448
19	0x43	0.12510693
20	0xd4	-0.08215978
21	0xe4	-0.052283496
22	0xc9	-0.10269972
23	0x31	0.09149612
24	0x50	0.14938141
25	0x0e	0.026141748
26	0x29	0.07655797
27	0x0c	0.022407211
28	0x46	0.13070874
29	0x54	0.15685049
30	0x42	0.123239666
31	0x2c	0.08215978
32	0xc7	-0.106434256
33	0x20	0.059752565
34	0xb7	-0.13631053
35	0xb3	-0.1437796
36	0x46	0.13070874
37	0x12	0.033610817
38	0xe8	-0.044814423
39	0x43	0.12510693
40	0xd7	-0.07655797
41	0x12	0.033610817
42	0xb2	-0.14564687
43	0xdf	-0.061619833
44	0xca	-0.100832455
45	0xe4	-0.052283496
46	0x24	0.067221634
47	0xf8	-0.014938141
48	0x09	0.016805409
49	0x17	0.042947154
50	0x15	0.03921262
51	0xf5	-0.020539945
52	0xda	-0.07095617
53	0x3e	0.11577059
54	0xcb	-0.09896518
55	0xcd	-0.095230654
56	0xcb	-0.09896518
57	0x1c	0.052283496
58	0xf6	-0.018672677
59	0xb8	-0.13444327
60	0x22	0.0634871
61	0xc6	-0.10830152
62	0xf2	-0.026141748
63	0x22	0.0634871
64	0xd2	-0.08589431
65	0x26	0.07095617
66	0xb6	-0.13817781
67	0xfc	-0.0074690706
68	0xa4	-0.17178862
69	0x37	0.10269972
70	0xd7	-0.07655797
71	0x0f	0.028009014
72	0xf3	-0.02427448
73	0xf1	-0.028009014
74	0x3e	0.11577059
75	0xba	-0.13070874
76	0x48	0.13444327
77	0x28	0.07469071
78	0xb9	-0.132576
79	0xc5	-0.11016879
80	0x9f	-0.18112496
81	0xb0	-0.14938141
82	0x47	0.132576
83	0x13	0.035478085
84	0x02	0.0037345353
85	0xba	-0.13070874
86	0xe4	-0.052283496
87	0x52	0.15311594
88	0x16	0.04107989
89	0x19	0.04668169
90	0x61	0.18112496
91	0xc4	-0.11203606
92	0x0d	0.02427448
93	0xda	-0.07095617
94	0xdb	-0.069088906
95	0x43	0.12510693
96	0x02	0.0037345353
97	0x37	0.10269972
98	0x23	0.06535437
99	0xca	-0.100832455
100	0x5e	0.17552316
101	0xc1	-0.117637865
102	0xbc	-0.1269742
103	0xc3	-0.11390333
104	0xca	-0.100832455
105	0xff	-0.0018672677
106	0xe4	-0.052283496
107	0x1e	0.05601803
108	0x11	0.03174355
109	0xfb	-0.009336338
110	0x13	0.035478085
111	0x0b	0.020539945
112	0xe5	-0.050416227
113	0xf6	-0.018672677
114	0x0f	0.028009014
115	0xe8	-0.044814423
116	0xfb	-0.009336338
117	0xed	-0.035478085
118	0xed	-0.035478085
119	0xba	-0.13070874
120	0x18	0.044814423
121	0x0a	0.018672677
122	0xc6	-0.10830152
123	0x0c	0.022407211
124	0xc2	-0.11577059
125	0x28	0.07469071
126	0xc8	-0.10456699
127	0xea	-0.04107989
128	0xd5	-0.08029251
129	0xea	-0.04107989
130	0x4a	0.13817781
131	0x43	0.12510693
132	0xfe	-0.0037345353
133	0x45	0.12884147
134	0xf9	-0.013070874
135	0xd3	-0.084027044
136	0x33	0.095230654
137	0x1a	0.04854896
138	0x30	0.089628845
139	0xda	-0.07095617
140	0xc5	-0.11016879
141	0x30	0.089628845
142	0x15	0.03921262
143	0xe4	-0.052283496
144	0xb8	-0.13444327
145	0x29	0.07655797
146	0xdf	-0.061619833
147	0x3b	0.11016879
148	0x08	0.014938141
149	0xd4	-0.08215978
150	0x05	0.009336338
151	0xce	-0.09336338
152	0xdb	-0.069088906
153	0x03	0.005601803
154	0xfa	-0.011203606
155	0xe1	-0.057885297
156	0x32	0.09336338
157	0x33	0.095230654
158	0xdd	-0.06535437
159	0x40	0.11950513
160	0xe8	-0.044814423
161	0x45	0.12884147
162	0x30	0.089628845
163	0x3f	0.117637865
164	0xca	-0.100832455
165	0x26	0.07095617
166	0xbb	-0.12884147
167	0x37	0.10269972
168	0xdc	-0.067221634
169	0x44	0.1269742
170	0xdc	-0.067221634
171	0x3d	0.11390333
172	0xb2	-0.14564687
173	0xb8	-0.13444327
174	0xf4	-0.022407211
175	0xcb	-0.09896518
176	0xf4	-0.022407211
177	0xe6	-0.04854896
178	0x55	0.15871775
179	0x1c	0.052283496
180	0xd7	-0.07655797
181	0x32	0.09336338
182	0x0d	0.02427448
183	0xaf	-0.15124868
184	0x4e	0.14564687
185	0xf6	-0.018672677
186	0x1d	0.05415076
187	0x0d	0.02427448
188	0x20	0.059752565
189	0xf2	-0.026141748
190	0x26	0.07095617
191	0xbf	-0.121372394
192	0xe9	-0.042947154
193	0x0d	0.02427448
194	0x2e	0.08589431
195	0xd7	-0.07655797
196	0x09	0.016805409
197	0x19	0.04668169
198	0x16	0.04107989
199	0x1f	0.057885297
200	0xf9	-0.013070874
201	0x36	0.100832455
202	0x4a	0.13817781
203	0xed	-0.035478085
204	0xc5	-0.11016879
205	0x27	0.072823435
206	0xe6	-0.04854896
207	0x35	0.09896518
208	0x1c	0.052283496
209	0xfe	-0.0037345353
210	0xbe	-0.123239666
211	0xf4	-0.022407211
212	0xfd	-0.005601803
213	0x29	0.07655797
214	0xda	-0.07095617
215	0xc9	-0.10269972
216	0x32	0.09336338
217	0xfe	-0.0037345353
218	0x18	0.044814423
219	0x34	0.09709792
220	0xe9	-0.042947154
221	0xea	-0.04107989
222	0x4c	0.14191234
223	0xb6	-0.13817781
224	0xbe	-0.123239666
225	0xe6	-0.04854896
226	0xf3	-0.02427448
227	0x2c	0.08215978
228	0x37	0.10269972
229	0x44	0.1269742
230	0x0b	0.020539945
231	0xb4	-0.14191234
232	0x3a	0.10830152
233	0x23	0.06535437
234	0xd3	-0.084027044
235	0x39	0.106434256
236	0xc5	-0.11016879
237	0x06	0.011203606
238	0xc3	-0.11390333
239	0x07	0.013070874
240	0x3d	0.11390333
241	0x12	0.033610817
242	0xfc	-0.0074690706
243	0xf6	-0.018672677
244	0xbd	-0.12510693
245	0xdf	-0.061619833
246	0xf2	-0.026141748
247	0x17	0.042947154
248	0xdb	-0.069088906
249	0x15	0.03921262
250	0xe8	-0.044814423
251	0x2e	0.08589431
252	0xcd	-0.095230654
253	0x36	0.100832455
254	0xe5	-0.050416227
255	0xfe	-0.0037345353

sequential_9/dense_31/MatMul i1 [76, 200] scale=0.0016527236 zero_point=0
0	0xf8	-0.013221789
1	0xde	-0.056192603
2	0x4f	0.13056517
3	0xe5	-0.04462354
4	0x2c	0.07271984
5	0xe7	-0.041318092
6	0xd7	-0.06776167
7	0xa2	-0.15535602
8	0xb7	-0.12064882
9	0x43	0.11073248
10	0xac	-0.13882878
11	0xde	-0.056192603
12	0xa6	-0.14874513
13	0xae	-0.13552333
14	0x40	0.10577431
15	0xf9	-0.011569066
16	0x42	0.10907976
17	0x53	0.13717607
18	0xa0	-0.15866147
19	0xff	-0.0016527236
20	0xe5	-0.04462354
21	0xb6	-0.12230155
22	0x45	0.11403793
23	0x10	0.026443578
24	0xa2	-0.15535602
25	0x3c	0.09916342
26	0x1c	0.046276264
27	0x0e	0.023138132
28	0x35	0.08759435
29	0xdd	-0.057845328
30	0x57	0.14378695
31	0x42	0.10907976
32	0xeb	-0.034707196
33	0xae	-0.13552333
34	0xf4	-0.019832684
35	0xd4	-0.07271984
36	0x13	0.03140175
37	0xb8	-0.1189961
38	0xd0	-0.079330735
39	0xf6	-0.016527236
40	0xec	-0.03305447
41	0x25	0.061150774
42	0xe6	-0.042970814
43	0xa6	-0.14874513
44	0xb9	-0.11734338
45	0x41	0.10742704
46	0x1e	0.04958171
47	0x0c	0.019832684
48	0xe4	-0.046276264
49	0xb5	-0.123954274
50	0x2f	0.07767801
51	0xa9	-0.14378695
52	0xe5	-0.04462354
53	0xb9	-0.11734338
54	0xb2	-0.12891245
55	0x13	0.03140175
56	0xbf	-0.10742704
57	0x3f	0.10412159
58	0x37	0.0908998
59	0xd2	-0.076025285
60	0x1d	0.047928985
61	0xae	-0.13552333
62	0x35	0.08759435
63	0x33	0.0842889
64	0x11	0.028096301
65	0xb3	-0.12725972
66	0x31	0.08098346
67	0x25	0.061150774
68	0xe4	-0.046276264
69	0xc8	-0.09255253
70	0xf1	-0.024790855
71	0x23	0.057845328
72	0xc3	-0.100816146
73	0xc4	-0.09916342
74	0xef	-0.028096301
75	0xf4	-0.019832684
76	0x46	0.115690656
77	0x10	0.026443578
78	0xcc	-0.08594163
79	0xd6	-0.06941439
80	0x25	0.061150774
81	0xbd	-0.11073248
82	0x2d	0.07437257
83	0x33	0.0842889
84	0x3b	0.097510695
85	0xd7	-0.06776167
86	0x03	0.004958171
87	0xa0	-0.15866147
88	0xc7	-0.094205245
89	0x08	0.013221789
90	0xd3	-0.07437257
91	0x13	0.03140175
92	0xab	-0.14048152
93	0xe0	-0.052887157
94	0x2d	0.07437257
95	0xcc	-0.08594163
96	0x0d	0.021485407
97	0xca	-0.08924708
98	0x2d	0.07437257
99	0xa4	-0.15205057
100	0xf9	-0.011569066
101	0xa6	-0.14874513
102	0xf9	-0.011569066
103	0xe7	-0.041318092
104	0x24	0.05949805
105	0xe5	-0.04462354
106	0xb1	-0.13056517
107	0xb7	-0.12064882
108	0xc3	-0.100816146
109	0x16	0.03635992
110	0x13	0.03140175
111	0x16	0.03635992
112	0xed	-0.03140175
113	0xbd	-0.11073248
114	0xcf	-0.08098346
115	0x3d	0.100816146
116	0x18	0.039665367
117	0xcf	-0.08098346
118	0x38	0.09255253
119	0x04	0.0066108946
120	0x47	0.11734338
121	0xdd	-0.057845328
122	0xfc	-0.0066108946
123	0x32	0.082636185
124	0x03	0.004958171
125	0xe2	-0.04958171
126	0xa8	-0.14543968
127	0x1d	0.047928985
128	0xff	-0.0016527236
129	0x4c	0.125607
130	0xd9	-0.064456224
131	0x59	0.1470924
132	0x0d	0.021485407
133	0xf6	-0.016527236
134	0x56	0.14213423
135	0xcd	-0.0842889
136	0xd9	-0.064456224
137	0xe8	-0.039665367
138	0x2f	0.07767801
139	0x31	0.08098346
140	0x25	0.061150774
141	0xe9	-0.038012642
142	0xff	-0.0016527236
143	0x40	0.10577431
144	0x42	0.10907976
145	0xb9	-0.11734338
146	0x25	0.061150774
147	0xca	-0.08924708
148	0x27	0.064456224
149	0xd1	-0.07767801
150	0xa9	-0.14378695
151	0xf0	-0.026443578
152	0x27	0.064456224
153	0xc7	-0.094205245
154	0xc7	-0.094205245
155	0x44	0.112385206
156	0xff	-0.0016527236
157	0x12	0.029749025
158	0xab	-0.14048152
159	0x11	0.028096301
160	0x21	0.05453988
161	0xf6	-0.016527236
162	0x42	0.10907976
163	0xb3	-0.12725972
164	0x21	0.05453988
165	0xa0	-0.15866147
166	0x03	0.004958171
167	0xbf	-0.10742704
168	0x31	0.08098346
169	0x07	0.011569066
170	0xe7	-0.041318092
171	0xfa	-0.009916342
172	0x2d	0.07437257
173	0x03	0.004958171
174	0x1a	0.042970814
175	0x23	0.057845328
176	0xc0	-0.10577431
177	0xff	-0.0016527236
178	0x49	0.12064882
179	0xe8	-0.039665367
180	0xab	-0.14048152
181	0xb9	-0.11734338
182	0x36	0.08924708
183	0xde	-0.056192603
184	0xca	-0.08924708
185	0x48	0.1189961
186	0xb5	-0.123954274
187	0x36	0.08924708
188	0x43	0.11073248
189	0x4b	0.123954274
190	0xd3	-0.07437257
191	0xc4	-0.09916342
192	0xc2	-0.10246886
193	0x0e	0.023138132
194	0xee	-0.029749025
195	0x37	0.0908998
196	0x0f	0.024790855
197	0xe9	-0.038012642
198	0xff	-0.0016527236
199	0xba	-0.115690656
200	0x04	0.0066108946
201	0xb6	-0.12230155
202	0x38	0.09255253
203	0x23	0.057845328
204	0x33	0.0842889
205	0xac	-0.13882878
206	0xe8	-0.039665367
207	0x4e	0.12891245
208	0x27	0.064456224
209	0x14	0.03305447
210	0xcf	-0.08098346
211	0xb7	-0.12064882
212	0x0b	0.01817996
213	0x05	0.008263618
214	0xb1	-0.13056517
215	0x59	0.1470924
216	0xc5	-0.097510695
217	0xd1	-0.07767801
218	0x33	0.0842889
219	0x02	0.0033054473
220	0xef	-0.028096301
221	0x33	0.0842889
222	0x4d	0.12725972
223	0x13	0.03140175
224	0xec	-0.03305447
225	0xc2	-0.10246886
226	0xb1	-0.13056517
227	0xd1	-0.07767801
228	0x20	0.052887157
229	0xd4	-0.07271984
230	0x45	0.11403793
231	0xdb	-0.061150774
232	0x4d	0.12725972
233	0x46	0.115690656
234	0xeb	-0.034707196
235	0xf7	-0.014874512
236	0xec	-0.03305447
237	0xcb	-0.08759435
238	0x38	0.09255253
239	0xf3	-0.021485407
240	0x07	0.011569066
241	0x15	0.034707196
242	0xd8	-0.06610894
243	0xc4	-0.09916342
244	0x33	0.0842889
245	0x26	0.0628035
246	0x2e	0.076025285
247	0xb5	-0.123954274
248	0x24	0.05949805
249	0x53	0.13717607
250	0x21	0.05453988
251	0x4b	0.123954274
252	0xbc	-0.112385206
253	0x3c	0.09916342
254	0x0f	0.024790855
255	0x28	0.06610894
