model/keypoint_classifier/keypoint_classifier.tflite (tflite, 4984 bytes, 6 tensors)

sequential_6/dense_26/MatMul f4 [2, 10]
000000 e3 05 89 be 20 33 65 3d fc 44 b4 3e e5 78 56 3e
       -0.26762304 0.05595696 0.3520888 0.20944555
000010 31 ce 60 bd ab 56 60 be c2 f6 4d be 7e 2b bf 3c
       -0.05488414 -0.21908061 -0.20113662 0.023336168
000020 b9 19 8f 3d c1 6f c3 be f7 f1 39 bf 17 f3 c4 3e
       0.06987328 -0.381712 -0.72634834 0.38466713
000030 53 bf 33 3f a1 0f 95 be cf 46 a8 3d 43 c8 36 3f
       0.7021381 -0.29113486 0.08216631 0.71399325
000040 59 79 2e bf f9 1a 33 3f af 60 19 3f 77 fb 18 bf
       -0.6815391 0.6996303 0.5991315 -0.59758705

sequential_6/dense_25/MatMul f4 [10, 20]
000000 06 76 6c be 15 b8 13 3f e6 a9 b8 be 26 e1 ae 3d
       -0.23091897 0.5770276 -0.36067122 0.085390374
000010 c7 c2 12 3f fb 5d 8d be dd e3 92 3e e4 ca d3 3e
       0.57328457 -0.27610764 0.2868947 0.4136573
000020 65 87 55 be e4 b8 85 3e 98 e7 ff bd f2 c5 30 3e
       -0.2085243 0.26117623 -0.12495345 0.1726301
000030 a6 5b 1e be fd 3f 80 bc a4 a3 00 3f cd a5 ad 3e
       -0.15464649 -0.015655512 0.50249696 0.33915558
000040 e9 c8 0a be 75 f7 8f 3d af 3d 22 3e 8d 89 c1 3e
       -0.13553204 0.070296206 0.15843843 0.37800255
000050 c0 12 b7 3e fd 38 17 be 9c a2 8d bd 45 f1 6a 3e
       0.35756493 -0.14767833 -0.06915781 0.229436
000060 9a 0c 01 3e ab 6e cb 3e 73 e5 96 be cf ac cf 3e
       0.12602463 0.3973287 -0.2947193 0.4056153
000070 8a 91 99 3d 98 26 21 be 2e f5 98 be 59 56 b1 3e
       0.074984625 -0.15737379 -0.29874557 0.3463619
000080 e1 b5 8c be df 53 02 be 23 d8 b0 bd 71 56 81 be
       -0.27482513 -0.12727307 -0.08634975 -0.25261262
000090 d6 f0 a4 be 45 f5 65 3e 44 2e 3f be ce 40 dc bd
       -0.32214993 0.22456844 -0.18669993 -0.10754548
0000a0 9b 98 23 be b2 48 2b 3e 70 3b dd 3d b3 ae c6 3e
       -0.15976183 0.1672695 0.108023524 0.3880516
0000b0 c9 ca af bd fb ee 8f 3e a1 59 6c 3e 0a 0b 90 be
       -0.085836 0.28112015 0.23081066 -0.28133422
0000c0 e4 dc d1 bd 73 eb 62 3e 11 44 dd 3d cb b9 c7 be
       -0.1024721 0.22160129 0.10803998 -0.39008936
0000d0 e5 57 61 3d c3 1b b9 3e e3 cb fc be 84 f6 87 3e
       0.055015463 0.36153993 -0.49374303 0.26555264
0000e0 4b 95 a1 3e 55 15 26 bd e9 a4 e8 be 92 f9 22 bd
       0.31559214 -0.040547688 -0.45438316 -0.03978879
0000f0 3f 2d 0b 3c 4f 98 60 3e 78 f1 63 3d 2a 88 4d 3e
       0.008494674 0.21933101 0.055650204 0.20071474
000100 98 2f 97 be b5 26 5d be 48 a6 1d 3e 0e cd a7 be
       -0.295285 -0.21596797 0.15395463 -0.32773632
000110 40 0c 88 3d da 60 b6 bd 51 eb b3 be 67 97 51 3d
       0.066429615 -0.08905192 -0.3514047 0.05116978
000120 00 9f ff 3b b7 ae 1e be 6c b0 b8 bd 75 ee 25 3b
       0.0078009367 -0.15496336 -0.09018025 0.0025319133
000130 df b1 64 be 73 c2 fd 3d b7 43 cb 3e e9 ed 84 3e
       -0.22333477 0.12390604 0.397001 0.2596276
000140 87 ee 0b be 79 c0 77 be 43 37 da bd 7a b7 9f 3e
       -0.1366521 -0.24194516 -0.106550716 0.3119467
000150 ca 05 2f be fe 7f 0b 3f 6e 10 56 3e 45 f7 44 bd
       -0.17092052 0.54492176 0.20904705 -0.048087377
000160 a5 31 8d be 56 c7 96 be 78 83 4b 3e a7 19 f8 3e
       -0.27576938 -0.29448956 0.1987437 0.4845707
000170 8d 98 9e bd a6 55 74 3e 66 4e 5e 3e 21 87 d8 bc
       -0.077439405 0.23860797 0.21709594 -0.026431622
000180 98 e7 bd 3c b6 9f d0 3e b9 d9 58 be ad 9f f9 be
       0.023181722 0.4074685 -0.21176805 -0.48754635
000190 37 c8 56 3e 2b 09 bd be 82 7c 12 be 8a c1 9f 3e
       0.20974813 -0.36921057 -0.14305308 0.31202346
0001a0 9f d5 73 be 00 cd c8 3c 7e d8 2d be aa f4 31 3e
       -0.23811959 0.024511814 -0.16977116 0.17378488
0001b0 81 e3 16 bd 6e 50 d2 be 56 51 90 be 41 3f e1 3d
       -0.03683806 -0.41076988 -0.28187054 0.10998393
0001c0 54 25 e5 3e 3e f5 6c 3e 7c 25 87 be 58 07 a2 3d
       0.44755042 0.23140427 -0.26395786 0.07911557
0001d0 ef a4 40 3e 49 6f 73 3e 8b 0b b1 3d e9 55 aa be
       0.18812917 0.2377292 0.0864478 -0.3326867
0001e0 34 39 81 be 0f 36 42 3e f3 8e 8a be 5f 45 bb 3e
       -0.25238955 0.18965934 -0.27062187 0.36576363
0001f0 4e e3 ee 3e a4 08 31 3e 19 ac c7 3e cf 2d be 3e
       0.46657795 0.17288452 0.38998488 0.37144324
000200 ab 94 84 3d 37 26 9c 3e fd 13 c1 bd 55 6a be be
       0.06473669 0.30497906 -0.094276406 -0.371905
000210 82 34 bb 3e 2a 5e 94 be b6 1f 70 3d b3 55 cb 3e
       0.36563498 -0.2897809 0.058623992 0.3971382
000220 8b 98 09 be 35 b0 50 3e f9 85 dc 3e 2e 3a 0e 3f
       -0.13437097 0.20379718 0.43070963 0.55557525
000230 39 88 b4 3e 03 ab 3c be 1c f3 9a 3e 64 3d 3e be
       0.3526018 -0.18424611 0.30263603 -0.18578106
000240 d6 43 b5 3e 43 a3 82 3e 18 f4 c2 be bf 46 b9 3e
       0.35403317 0.25515184 -0.38076854 0.36186787
000250 38 f2 a6 3e 94 69 53 3e 3e 39 d3 3e 23 8c 33 3e
       0.32606673 0.20645744 0.4125461 0.17533927
000260 c8 3d 44 3e 2e b6 b6 bc 40 9c c3 be b1 84 ea be
       0.19164193 -0.022303667 -0.38205147 -0.4580436
000270 d9 4a ef bd 28 73 84 3e 87 bb bb 3b b4 2b cc be
       -0.11684198 0.25869107 0.005729142 -0.39877093
000280 5c 3a 15 3e 6d ad d5 be 95 db 7d 3d 47 4e aa 3e
       0.14573044 -0.41733876 0.061976988 0.33262846
000290 62 48 66 bb d6 1c bb be 1b 8c 44 be bc c6 26 be
       -0.0035138358 -0.36545438 -0.19194071 -0.16286749
0002a0 18 fc e9 bd c4 45 65 be eb 4a 8b 3e 30 f7 a8 be
       -0.11425036 -0.22389895 0.27205595 -0.3300109
0002b0 b7 90 b5 3e 35 4d 67 3e 95 c7 95 be 02 af ab 3d
       0.3546197 0.22588046 -0.29253832 0.083829895
0002c0 95 ba d1 be 41 0d 53 3e 5e 8c 99 3e 9f e5 b1 be
       -0.40962663 0.20610525 0.29989904 -0.347455
0002d0 13 25 d8 3e 06 75 d3 3e 15 2f a6 be bd 54 dc 3c
       0.42215785 0.4130022 -0.32457796 0.026895875
0002e0 32 4e 3c be db b6 9b 3e 96 9d 23 bd 30 e3 a0 3d
       -0.18389204 0.30412945 -0.039945208 0.078558326
0002f0 a7 87 40 3d ca 67 b6 3e 3b 86 90 3e 61 21 e2 bd
       0.04700437 0.3562606 0.2822741 -0.11041523
000300 6c e1 3b be 6c 0a 8e 3e dd e7 66 3e d4 12 df 3e
       -0.1834771 0.27742326 0.22549386 0.43569052
000310 2b 56 62 be 54 36 ff bb 5d 5c 12 3f 9f 62 ec ba
       -0.22103183 -0.007788459 0.57172185 -0.0018034762

sequential_6/dense_26/BiasAdd/ReadVariableOp f4 [2]
000000 96 bd 54 bd 93 bd 54 3d
       -0.051938616 0.051938605

sequential_6/dense_25/BiasAdd/ReadVariableOp f4 [10]
000000 dc fc 76 3d bd 91 4c 3d c7 2e 55 3d 24 91 94 3d
       0.06029974 0.049943674 0.052046563 0.07254246
000010 2d 55 ab 3d 54 a2 c7 3d 2e 60 25 bd 9b 4a c4 3d
       0.08365855 0.097477585 -0.040374927 0.09584542
000020 e9 c0 c9 bc cf 2c de 3c
       -0.02462812 0.027120976

sequential_6/dense_24/BiasAdd/ReadVariableOp f4 [20]
000000 b7 5b 43 bc 1c f0 36 bd 79 b7 d5 bc 86 f1 68 3c
       -0.011923722 -0.04466258 -0.026088463 0.01421774
000010 f6 2f af bc 0d cf 2c 3d 8a 5e 21 bd 84 0b 55 3d
       -0.021385174 0.042189647 -0.0393968 0.052012935
000020 c3 f2 86 3c 8a e6 05 bd 26 f7 8b bc 0a bc 98 3d
       0.01647318 -0.032690562 -0.017085623 0.074577406
000030 ab a5 8d 3c 5d 8e 6a bc 7f 9a b1 bc ce e2 94 bb
       0.01729091 -0.014316169 -0.021680115 -0.004543639
000040 2c 20 bf 3c 6b 85 88 bc 25 72 62 bd 37 b7 a9 bc
       0.02333077 -0.016665181 -0.055284638 -0.020717246

sequential_6/dense_24/MatMul i1 [20, 86] scale=0.0031969016 zero_point=0
000000 12 3d 38 cb c1 dc 4d d7 2d 1f 47 b8 be 46 d9 27
       0.05754423 0.195011 0.17902648 -0.16943578 -0.20140481 -0.11508846 0.24616143 -0.13107297 0.14386058 0.09910395 0.22698002 -0.23017693 -0.21099551 0.22378312 -0.12467916 0.12467916
000010 2c d0 4c be fe be 19 dc 16 23 d6 d2 e7 15 da e7
       0.14066367 -0.15345128 0.24296452 -0.21099551 -0.0063938033 -0.21099551 0.07992254 -0.11508846 0.070331834 0.11189156 -0.13426986 -0.14705747 -0.07992254 0.06713493 -0.12148226 -0.07992254
000020 d2 26 ca 17 11 0a 4c fc fc 3a d3 b5 e8 cc e6 f1
       -0.14705747 0.12148226 -0.1726327 0.07352874 0.05434733 0.03196902 0.24296452 -0.012787607 -0.012787607 0.18542029 -0.14386058 -0.23976763 -0.07672564 -0.16623889 -0.083119445 -0.047953524
000030 3b 3a c4 c6 bc e5 2a f6 fc 27 ce cc fd e7 39 26
       0.1886172 0.18542029 -0.1918141 -0.18542029 -0.21738932 -0.08631635 0.13426986 -0.03196902 -0.012787607 0.12467916 -0.15984508 -0.16623889 -0.009590705 -0.07992254 0.1822234 0.12148226
000040 f0 2e ee d7 f8 c1 08 d2 f1 fd 44 ff f9 ef 1d ef
       -0.051150426 0.14705747 -0.05754423 -0.13107297 -0.025575213 -0.20140481 0.025575213 -0.14705747 -0.047953524 -0.009590705 0.21738932 -0.0031969016 -0.02237831 -0.05434733 0.092710145 -0.05434733
000050 c8 1d c1 db b7 f2 cf f4 f3 cb 21 fb 3b 30 17 e2
       -0.17902648 0.092710145 -0.20140481 -0.11828536 -0.23337382 -0.04475662 -0.15664817 -0.03836282 -0.041559722 -0.16943578 0.105497755 -0.01598451 0.1886172 0.15345128 0.07352874 -0.09590705
000060 df da 6b d0 2a 38 ff 46 bf c7 15 2d 3a e2 b2 de
       -0.105497755 -0.12148226 0.34206846 -0.15345128 0.13426986 0.17902648 -0.0031969016 0.22378312 -0.2077986 -0.1822234 0.06713493 0.14386058 0.18542029 -0.09590705 -0.24935833 -0.10869466
000070 ff cb 22 fb 32 41 a5 43 14 29 c3 0a cf 2b ee d8
       -0.0031969016 -0.16943578 0.10869466 -0.01598451 0.15984508 0.2077986 -0.29091805 0.2141924 0.06393804 0.13107297 -0.195011 0.03196902 -0.15664817 0.13746677 -0.05754423 -0.12787607
000080 a7 e4 3a f9 1e cc f2 aa 06 dc af 16 0a c6 ab 2b
       -0.28452423 -0.08951324 0.18542029 -0.02237831 0.09590705 -0.16623889 -0.04475662 -0.27493355 0.01918141 -0.11508846 -0.25894904 0.070331834 0.03196902 -0.18542029 -0.27173665 0.13746677
000090 34 e5 78 37 06 ee 9c 12 60 da 16 2c f2 d2 20 fc
       0.16623889 -0.08631635 0.3836282 0.17582959 0.01918141 -0.05754423 -0.31969017 0.05754423 0.30690256 -0.12148226 0.070331834 0.14066367 -0.04475662 -0.14705747 0.10230085 -0.012787607
0000a0 65 05 23 f4 18 2d fb 38 23 3f 62 41 e0 b4 de de
       0.32288706 0.01598451 0.11189156 -0.03836282 0.07672564 0.14386058 -0.01598451 0.17902648 0.11189156 0.20140481 0.31329635 0.2077986 -0.10230085 -0.24296452 -0.10869466 -0.10869466
0000b0 d7 06 f0 1d 35 fe fd 38 d3 dd 3b e5 0c 3e d7 d3
       -0.13107297 0.01918141 -0.051150426 0.092710145 0.16943578 -0.0063938033 -0.009590705 0.17902648 -0.14386058 -0.11189156 0.1886172 -0.08631635 0.03836282 0.1982079 -0.13107297 -0.14386058
0000c0 0f d5 d4 11 d3 fb 34 fa 16 d6 0e e6 d9 d9 ff 02
       0.047953524 -0.13746677 -0.14066367 0.05434733 -0.14386058 -0.01598451 0.16623889 -0.01918141 0.070331834 -0.13426986 0.04475662 -0.083119445 -0.12467916 -0.12467916 -0.0031969016 0.0063938033
0000d0 d0 3f d3 12 25 10 d2 f6 23 dd 39 cd 03 1d e5 cf
       -0.15345128 0.20140481 -0.14386058 0.05754423 0.11828536 0.051150426 -0.14705747 -0.03196902 0.11189156 -0.11189156 0.1822234 -0.16304198 0.009590705 0.092710145 -0.08631635 -0.15664817
0000e0 ec c6 24 b6 d8 ca 07 d3 d6 18 f1 cc fa 0b 19 24
       -0.06393804 -0.18542029 0.11508846 -0.23657072 -0.12787607 -0.1726327 0.02237831 -0.14386058 -0.13426986 0.07672564 -0.047953524 -0.16623889 -0.01918141 0.035165917 0.07992254 0.11508846
0000f0 18 ed d3 06 28 e1 31 c9 33 f7 d3 25 1d be bb 25
       0.07672564 -0.06074113 -0.14386058 0.01918141 0.12787607 -0.09910395 0.15664817 -0.17582959 0.16304198 -0.028772116 -0.14386058 0.11828536 0.092710145 -0.21099551 -0.22058621 0.11828536
