model/keypoint_classifier/keypoint_classifier.tflite (tflite, 17680 bytes, 6 tensors)

sequential_24/dense_74/BiasAdd/ReadVariableOp f4 [21]
0	0xbe67d268	-0.22638857
1	0xbd3516f5	-0.044211347
2	0x3b6f1fe6	0.0036487519
3	0x3e430429	0.19044556
4	0x3d125e6e	0.035734586
5	0xbe9ee0d2	-0.310309
6	0xbbe87cff	-0.007094979
7	0x3e0aad9f	0.13542794
8	0x3cd38fd5	0.02582542
9	0x3e305558	0.17220056
10	0xbd942ee1	-0.07235504
11	0x3dfea5f1	0.124339946
12	0xbe5218b4	-0.20517236
13	0xbe150426	-0.14552364
14	0xbc9a78a8	-0.018856362
15	0xbc52565f	-0.012837975
16	0x3e2e54a6	0.17024478
17	0xbd677eae	-0.056517296
18	0x3e4e6d3d	0.20158859
19	0x3cafa1e3	0.021439498
20	0x3df6c633	0.12049522

sequential_24/dense_73/BiasAdd/ReadVariableOp f4 [50]
0	0x3ea2d6f6	0.31804627
1	0x3e9b35b5	0.30314413
2	0x3ed2e6bc	0.4119166
3	0x3e18f819	0.14938392
4	0x3e18ebb4	0.14933664
5	0x3e8a2475	0.2698094
6	0x3dbff730	0.09373319
7	0x3e3cc991	0.18436266
8	0x3e6920c6	0.22766408
9	0xbdf1349c	-0.117776126
10	0xbe3d80e6	-0.18506202
11	0x3e1f1fe0	0.15539503
12	0x3e340079	0.17578305
13	0x3e9ea5b7	0.30985805
14	0x3e48d7db	0.19613592
15	0x3d9f473b	0.07777258
16	0xbe9afa63	-0.30269155
17	0x3e4b8e33	0.19878463
18	0x3e83d30b	0.2574695
19	0x3ee8cd89	0.4546931
20	0x3b772ea9	0.003771702
21	0xbe37d0fe	-0.17950818
22	0x3dbf79a7	0.09349375
23	0x3e554f5b	0.20831053
24	0xbe2a8af4	-0.16654569
25	0x3e5fb521	0.21846439
26	0xbe3e7a25	-0.18601282
27	0x3d9c41bd	0.07629726
28	0x3dfa37d3	0.12217679
29	0x3e844c17	0.25839302
30	0xbb204da7	-0.0024460347
31	0xbe70bae0	-0.23508787
32	0xbd986afb	-0.0744228
33	0xbe77e7a9	-0.24209465
34	0x3e4454b5	0.19172938
35	0x3dedf855	0.11619631
36	0x3e1c2e05	0.1525193
37	0xbec8c085	-0.3920938
38	0x3e24b074	0.16082937
39	0x3e23e8dc	0.16006798
40	0xbe855a50	-0.26045465
41	0xbe452130	-0.19250941
42	0x3e4961c7	0.19666205
43	0xbc7a3693	-0.015271801
44	0x3ec9e0de	0.39429373
45	0x3e3eb40e	0.18623373
46	0x3eff3546	0.49845332
47	0x39846960	0.00025255512
48	0x3e17d99d	0.14829107
49	0x3d9e2223	0.07721355

sequential_24/dense_72/BiasAdd/ReadVariableOp f4 [100]
0	0x3d2293b4	0.039691642
1	0xbee9beee	-0.4565348
2	0x3e0c8a3a	0.13724604
3	0x3d636802	0.05551911
4	0xbeb63824	-0.35589707
5	0x3dc6998b	0.09697255
6	0xbe802ea5	-0.25035587
7	0xbea875a3	-0.3290225
8	0xbe83d173	-0.25745735
9	0xbce1be20	-0.027556479
10	0xbd460404	-0.048343673
11	0xbe4cca71	-0.199991
12	0xbe63a27b	-0.2222995
13	0xbdd9ac18	-0.106285274
14	0x3d16ad97	0.036786642
15	0x3df8dfb1	0.12152041
16	0x3bb00c31	0.005372547
17	0x3e53829c	0.20655292
18	0x3e90bf9d	0.2827119
19	0x3e56b866	0.2096878
20	0x3dc463ec	0.09589371
21	0x3e858266	0.2607605
22	0x3dbc773b	0.09202429
23	0x3db987b0	0.090590835
24	0xbdc493f4	-0.09598532
25	0x3e8c7e10	0.27439928
26	0xbbd7318f	-0.006567187
27	0x3e867ee8	0.26268697
28	0xbe8953f8	-0.26821876
29	0xbe59306f	-0.21209882
30	0x3e70af0a	0.23504272
31	0x3df8e4bb	0.12153002
32	0x3d2903ed	0.04126351
33	0xbea969d7	-0.33088562
34	0x3dc17c26	0.094475076
35	0xbd28963a	-0.041158892
36	0xbd6d0908	-0.05786994
37	0x3bf5670c	0.007489091
38	0xbecb4ff8	-0.3970945
39	0x3eb23285	0.34804168
40	0x3c8498ff	0.016186235
41	0xbe3cc779	-0.18435468
42	0xbea97d19	-0.33103254
43	0xbe1f900b	-0.15582292
44	0xbd53b79b	-0.05168877
45	0xbd40f77e	-0.047111027
46	0x3ca0671d	0.019580418
47	0xbeb9b23f	-0.36268803
48	0xbeb7e815	-0.35919252
49	0x3c9d4338	0.019197091
50	0xbed8f5f1	-0.42375138
51	0xbafa21d0	-0.0019083563
52	0xbe82613b	-0.25464806
53	0x3e6bf353	0.2304204
54	0x3d59bb21	0.053156976
55	0xbdd29028	-0.10281402
56	0x3e99babb	0.30025277
57	0xbe77af8d	-0.24188061
58	0xbe129446	-0.14314374
59	0x3d7d842f	0.06189364
60	0xbe0eb8d7	-0.13937698
61	0xbb48fa6b	-0.003066684
62	0x3e159eec	0.14611405
63	0x3d8bce2e	0.06826435
64	0x3d6a25ee	0.05716508
65	0xbe16c371	-0.14722992
66	0xbe32419c	-0.1740784
67	0xbc0ca665	-0.008584593
68	0x3cb3243a	0.02186786
69	0xbd22b707	-0.03972533
70	0xbb2a7005	-0.002600671
71	0xbe4de4fd	-0.20106883
72	0x3d6e8c2f	0.05823916
73	0x3e13caaf	0.14432786
74	0xbcc1ca60	-0.02365607
75	0xbdb5df83	-0.08880522
76	0xbdeee660	-0.11665034
77	0xbd9e2d1a	-0.07723446
78	0x3e8c4dcc	0.27403104
79	0xbaac8754	-0.001316289
80	0xbd93fa61	-0.0722549
81	0xbd9f0338	-0.07764286
82	0xbe12e1ae	-0.14343902
83	0x3e10246b	0.14076392
84	0xbe8c3612	-0.27385002
85	0x3d684aa5	0.05671181
86	0x3c598425	0.013276135
87	0xbe94720a	-0.28993255
88	0xbe27aa55	-0.1637357
89	0xbd875338	-0.066076696
90	0x3dbb0411	0.09131635
91	0xbde3b44e	-0.11118375
92	0x3dbbb77d	0.09165857
93	0x3d4275a2	0.047475465
94	0x3de8fa84	0.11375907
95	0xbe3b24e4	-0.18275791
96	0xbc62ade0	-0.0138354
97	0x3e5d2d2f	0.21599267
98	0xbe655d83	-0.22398953
99	0xbdc1a7b7	-0.09455817

sequential_24/dense_72/MatMul i1 [100, 86] scale=0.011865812 zero_point=0
0	0xfd	-0.035597436
1	0x63	1.1747154
2	0xff	-0.011865812
3	0x17	0.2729137
4	0xf2	-0.16612138
5	0x17	0.2729137
6	0x04	0.04746325
7	0x10	0.189853
8	0xf4	-0.14238974
9	0x07	0.08306069
10	0xf5	-0.13052393
11	0x08	0.0949265
12	0x0a	0.118658125
13	0x1a	0.3085111
14	0x04	0.04746325
15	0x10	0.189853
16	0xfb	-0.059329063
17	0x00	0.0
18	0xe8	-0.2847795
19	0xf7	-0.10679231
20	0x11	0.2017188
21	0x1b	0.32037693
22	0x1a	0.3085111
23	0x12	0.21358462
24	0x05	0.059329063
25	0x10	0.189853
26	0x0c	0.14238974
27	0x06	0.07119487
28	0x19	0.2966453
29	0x0c	0.14238974
30	0x0a	0.118658125
31	0x13	0.22545044
32	0x10	0.189853
33	0x12	0.21358462
34	0x13	0.22545044
35	0x0b	0.13052393
36	0x19	0.2966453
37	0x10	0.189853
38	0x1e	0.35597438
39	0x1c	0.33224276
40	0x1e	0.35597438
41	0x06	0.07119487
42	0x1b	0.32037693
43	0x09	0.10679231
44	0x0b	0.13052393
45	0xf5	-0.13052393
46	0xfc	-0.04746325
47	0xf7	-0.10679231
48	0x05	0.059329063
49	0xf6	-0.118658125
50	0x02	0.023731625
51	0xff	-0.011865812
52	0xea	-0.26104787
53	0x04	0.04746325
54	0x07	0.08306069
55	0xef	-0.2017188
56	0x0a	0.118658125
57	0x00	0.0
58	0x1a	0.3085111
59	0x0a	0.118658125
60	0x2a	0.49836412
61	0xf9	-0.08306069
62	0x0d	0.15425555
63	0xf1	-0.17798719
64	0x17	0.2729137
65	0xf5	-0.13052393
66	0x0e	0.16612138
67	0x04	0.04746325
68	0x0b	0.13052393
69	0xfd	-0.035597436
70	0x08	0.0949265
71	0xef	-0.2017188
72	0x14	0.23731625
73	0x00	0.0
74	0xe1	-0.36784017
75	0xfc	-0.04746325
76	0xd9	-0.46276668
77	0xf7	-0.10679231
78	0x00	0.0
79	0xf6	-0.118658125
80	0x15	0.24918206
81	0xf7	-0.10679231
82	0xf1	-0.17798719
83	0xf9	-0.08306069
84	0xde	-0.4034376
85	0xf2	-0.16612138
86	0x09	0.10679231
87	0x4e	0.92553335
88	0xe5	-0.32037693
89	0xf7	-0.10679231
90	0xd7	-0.4864983
91	0xf8	-0.0949265
92	0xe6	-0.3085111
93	0xf8	-0.0949265
94	0xe2	-0.35597438
95	0xfb	-0.059329063
96	0xf5	-0.13052393
97	0xf5	-0.13052393
98	0x04	0.04746325
99	0x02	0.023731625
100	0x1e	0.35597438
101	0x06	0.07119487
102	0x0f	0.17798719
103	0x0c	0.14238974
104	0x24	0.42716923
105	0x12	0.21358462
106	0x0e	0.16612138
107	0x00	0.0
108	0xe6	-0.3085111
109	0xfb	-0.059329063
110	0xf0	-0.189853
111	0xfd	-0.035597436
112	0xf0	-0.189853
113	0xff	-0.011865812
114	0x05	0.059329063
115	0xfd	-0.035597436
116	0xe2	-0.35597438
117	0x03	0.035597436
118	0xeb	-0.24918206
119	0xfb	-0.059329063
120	0xe5	-0.32037693
121	0xfc	-0.04746325
122	0x0b	0.13052393
123	0xfd	-0.035597436
124	0xef	-0.2017188
125	0xfd	-0.035597436
126	0xf5	-0.13052393
127	0xfe	-0.023731625
128	0xf9	-0.08306069
129	0xfb	-0.059329063
130	0x00	0.0
131	0x0b	0.13052393
132	0x16	0.26104787
133	0x06	0.07119487
134	0x1f	0.36784017
135	0x0e	0.16612138
136	0x26	0.45090088
137	0x0c	0.14238974
138	0x14	0.23731625
139	0x08	0.0949265
140	0x08	0.0949265
141	0x1b	0.32037693
142	0x1f	0.36784017
143	0x1c	0.33224276
144	0x22	0.4034376
145	0x15	0.24918206
146	0x16	0.26104787
147	0xfb	-0.059329063
148	0x05	0.059329063
149	0x1a	0.3085111
150	0x0a	0.118658125
151	0x15	0.24918206
152	0x03	0.035597436
153	0x09	0.10679231
154	0xe1	-0.36784017
155	0xf5	-0.13052393
156	0x00	0.0
157	0x23	0.41530344
158	0x0d	0.15425555
159	0x0b	0.13052393
160	0xfc	-0.04746325
161	0xfb	-0.059329063
162	0xeb	-0.24918206
163	0xfa	-0.07119487
164	0x09	0.10679231
165	0x1e	0.35597438
166	0x15	0.24918206
167	0x08	0.0949265
168	0x08	0.0949265
169	0x10	0.189853
170	0xfe	-0.023731625
171	0xfe	-0.023731625
172	0x04	0.04746325
173	0x7e	1.4950924
174	0x01	0.011865812
175	0x05	0.059329063
176	0x11	0.2017188
177	0x04	0.04746325
178	0x1f	0.36784017
179	0x0a	0.118658125
180	0x34	0.6170222
181	0x02	0.023731625
182	0x3a	0.6882171
183	0xff	-0.011865812
184	0x0f	0.17798719
185	0xf8	-0.0949265
186	0xff	-0.011865812
187	0xf7	-0.10679231
188	0x01	0.011865812
189	0xfd	-0.035597436
190	0xf5	-0.13052393
191	0x04	0.04746325
192	0xf3	-0.15425555
193	0xff	-0.011865812
194	0xf7	-0.10679231
195	0x01	0.011865812
196	0xfb	-0.059329063
197	0x02	0.023731625
198	0xfb	-0.059329063
199	0x03	0.035597436
200	0xe2	-0.35597438
201	0x00	0.0
202	0xfe	-0.023731625
203	0xfc	-0.04746325
204	0xfc	-0.04746325
205	0x01	0.011865812
206	0xff	-0.011865812
207	0xfe	-0.023731625
208	0xe0	-0.379706
209	0x00	0.0
210	0xf0	-0.189853
211	0xfc	-0.04746325
212	0xec	-0.23731625
213	0xff	-0.011865812
214	0xef	-0.2017188
215	0xff	-0.011865812
216	0x06	0.07119487
217	0xfd	-0.035597436
218	0x08	0.0949265
219	0xfc	-0.04746325
220	0x05	0.059329063
221	0xf7	-0.10679231
222	0xf0	-0.189853
223	0x01	0.011865812
224	0xdb	-0.43903506
225	0x00	0.0
226	0x25	0.43903506
227	0x04	0.04746325
228	0x1b	0.32037693
229	0x06	0.07119487
230	0x34	0.6170222
231	0x00	0.0
232	0x3b	0.70008296
233	0x0c	0.14238974
234	0x1c	0.33224276
235	0x04	0.04746325
236	0x17	0.2729137
237	0x05	0.059329063
238	0x17	0.2729137
239	0x02	0.023731625
240	0x0d	0.15425555
241	0xff	-0.011865812
242	0x10	0.189853
243	0x06	0.07119487
244	0xf1	-0.17798719
245	0xfc	-0.04746325
246	0xe5	-0.32037693
247	0x00	0.0
248	0xe6	-0.3085111
249	0xfe	-0.023731625
250	0xfc	-0.04746325
251	0x04	0.04746325
252	0xf6	-0.118658125
253	0x02	0.023731625
254	0xe0	-0.379706
255	0x01	0.011865812

sequential_24/dense_73/MatMul i1 [50, 100] scale=0.007865328 zero_point=0
0	0x04	0.031461313
1	0x00	0.0
2	0xdb	-0.29101714
3	0xd2	-0.3618051
4	0xfa	-0.04719197
5	0xf3	-0.102249265
6	0x00	0.0
7	0x10	0.12584525
8	0xea	-0.17303723
9	0x10	0.12584525
10	0x02	0.015730657
11	0x02	0.015730657
12	0xfc	-0.031461313
13	0x1c	0.2202292
14	0x1a	0.20449853
15	0x30	0.37753576
16	0xfd	-0.023595985
17	0x10	0.12584525
18	0x32	0.3932664
19	0xf3	-0.102249265
20	0x3b	0.46405438
21	0x05	0.03932664
22	0x28	0.31461313
23	0xfb	-0.03932664
24	0xf9	-0.0550573
25	0x2a	0.33034378
26	0xd3	-0.35393977
27	0x0f	0.11797993
28	0x04	0.031461313
29	0x27	0.3067478
30	0x22	0.26742116
31	0x19	0.1966332
32	0xf4	-0.09438394
33	0xb2	-0.6134956
34	0x0a	0.07865328
35	0x24	0.2831518
36	0x2d	0.35393977
37	0xf3	-0.102249265
38	0xd9	-0.3067478
39	0x16	0.17303723
40	0xef	-0.13371058
41	0xed	-0.14944124
42	0xe5	-0.21236387
43	0x24	0.2831518
44	0x22	0.26742116
45	0x07	0.0550573
46	0xe7	-0.1966332
47	0x0a	0.07865328
48	0xef	-0.13371058
49	0x03	0.023595985
50	0xeb	-0.16517189
51	0x0e	0.1101146
52	0x08	0.06292263
53	0x24	0.2831518
54	0x0f	0.11797993
55	0x09	0.07078795
56	0x3d	0.47978503
57	0xf4	-0.09438394
58	0x03	0.023595985
59	0x05	0.03932664
60	0x14	0.15730657
61	0xc8	-0.4404584
62	0x2c	0.34607446
63	0x10	0.12584525
64	0xd5	-0.33820912
65	0x02	0.015730657
66	0x1b	0.21236387
67	0x29	0.32247847
68	0x13	0.14944124
69	0x35	0.4168624
70	0xff	-0.007865328
71	0xfd	-0.023595985
72	0x17	0.18090256
73	0x0d	0.102249265
74	0xf5	-0.086518615
75	0x24	0.2831518
76	0xdd	-0.2752865
77	0x01	0.007865328
78	0x27	0.3067478
79	0xfc	-0.031461313
80	0xff	-0.007865328
81	0xe1	-0.24382518
82	0x16	0.17303723
83	0xf4	-0.09438394
84	0x0e	0.1101146
85	0xe5	-0.21236387
86	0xec	-0.15730657
87	0xf6	-0.07865328
88	0xe9	-0.18090256
89	0x01	0.007865328
90	0x3e	0.48765036
91	0x06	0.04719197
92	0x04	0.031461313
93	0xee	-0.1415759
94	0x30	0.37753576
95	0x06	0.04719197
96	0x2d	0.35393977
97	0xf8	-0.06292263
98	0xc9	-0.43259305
99	0x03	0.023595985
100	0xfe	-0.015730657
101	0xea	-0.17303723
102	0x25	0.29101714
103	0x01	0.007865328
104	0x06	0.04719197
105	0xe3	-0.22809452
106	0x02	0.015730657
107	0xe8	-0.18876788
108	0x0c	0.09438394
109	0x04	0.031461313
110	0xf9	-0.0550573
111	0xe0	-0.2516905
112	0x07	0.0550573
113	0x1e	0.23595986
114	0x20	0.2516905
115	0xd7	-0.32247847
116	0x0d	0.102249265
117	0x26	0.29888248
118	0x0d	0.102249265
119	0xf6	-0.07865328
120	0x03	0.023595985
121	0x22	0.26742116
122	0x00	0.0
123	0x15	0.16517189
124	0x15	0.16517189
125	0x07	0.0550573
126	0x3a	0.45618904
127	0x02	0.015730657
128	0x0b	0.086518615
129	0xf4	-0.09438394
130	0x1a	0.20449853
131	0x12	0.1415759
132	0xf0	-0.12584525
133	0x09	0.07078795
134	0xf9	-0.0550573
135	0x1f	0.24382518
136	0x02	0.015730657
137	0x0c	0.09438394
138	0xf9	-0.0550573
139	0x0f	0.11797993
140	0x2d	0.35393977
141	0xf9	-0.0550573
142	0x10	0.12584525
143	0xea	-0.17303723
144	0x08	0.06292263
145	0x16	0.17303723
146	0x0a	0.07865328
147	0xe6	-0.20449853
148	0x18	0.18876788
149	0xed	-0.14944124
150	0xf8	-0.06292263
151	0x0c	0.09438394
152	0x23	0.2752865
153	0x19	0.1966332
154	0xf9	-0.0550573
155	0xf4	-0.09438394
156	0x28	0.31461313
157	0x21	0.25955585
158	0x07	0.0550573
159	0x08	0.06292263
160	0xf8	-0.06292263
161	0x13	0.14944124
162	0x25	0.29101714
163	0x0d	0.102249265
164	0x2a	0.33034378
165	0x19	0.1966332
166	0xd9	-0.3067478
167	0xe8	-0.18876788
168	0xfd	-0.023595985
169	0xfd	-0.023595985
170	0x29	0.32247847
171	0x04	0.031461313
172	0xdc	-0.2831518
173	0xed	-0.14944124
174	0x01	0.007865328
175	0x1a	0.20449853
176	0x16	0.17303723
177	0x1c	0.2202292
178	0x08	0.06292263
179	0xea	-0.17303723
180	0xfc	-0.031461313
181	0x1a	0.20449853
182	0x15	0.16517189
183	0xf8	-0.06292263
184	0xe2	-0.23595986
185	0x06	0.04719197
186	0xfd	-0.023595985
187	0x13	0.14944124
188	0x18	0.18876788
189	0x03	0.023595985
190	0x1c	0.2202292
191	0xef	-0.13371058
192	0x0d	0.102249265
193	0x0b	0.086518615
194	0xfb	-0.03932664
195	0x02	0.015730657
196	0x11	0.13371058
197	0x1a	0.20449853
198	0x04	0.031461313
199	0x08	0.06292263
200	0x25	0.29101714
201	0x1b	0.21236387
202	0xfc	-0.031461313
203	0x04	0.031461313
204	0x11	0.13371058
205	0xf6	-0.07865328
206	0xe7	-0.1966332
207	0x12	0.1415759
208	0x10	0.12584525
209	0xfd	-0.023595985
210	0x15	0.16517189
211	0x01	0.007865328
212	0x28	0.31461313
213	0x26	0.29888248
214	0x23	0.2752865
215	0x1c	0.2202292
216	0xbd	-0.526977
217	0x1b	0.21236387
218	0xdd	-0.2752865
219	0xc8	-0.4404584
220	0xf9	-0.0550573
221	0x1d	0.22809452
222	0xda	-0.29888248
223	0x35	0.4168624
224	0xd8	-0.31461313
225	0x0d	0.102249265
226	0xee	-0.1415759
227	0xd6	-0.33034378
228	0x19	0.1966332
229	0x05	0.03932664
230	0xa3	-0.73147553
231	0xe3	-0.22809452
232	0xe7	-0.1966332
233	0x14	0.15730657
234	0xee	-0.1415759
235	0xf4	-0.09438394
236	0xf6	-0.07865328
237	0x14	0.15730657
238	0x27	0.3067478
239	0xfe	-0.015730657
240	0x1d	0.22809452
241	0x2f	0.36967042
242	0xe0	-0.2516905
243	0xf6	-0.07865328
244	0xfb	-0.03932664
245	0x1c	0.2202292
246	0x1d	0.22809452
247	0x01	0.007865328
248	0xe8	-0.18876788
249	0xf4	-0.09438394
250	0xfc	-0.031461313
251	0x21	0.25955585
252	0xef	-0.13371058
253	0x14	0.15730657
254	0xe6	-0.20449853
255	0x1a	0.20449853

sequential_24/dense_74/MatMul i1 [21, 50] scale=0.006465303 zero_point=0
0	0xec	-0.12930605
1	0xcf	-0.31679985
2	0xdc	-0.2327509
3	0x16	0.14223666
4	0xe6	-0.16809787
5	0x11	0.109910145
6	0x22	0.21982029
7	0xea	-0.14223666
8	0xe3	-0.18749379
9	0xeb	-0.13577136
10	0xf6	-0.064653024
11	0xe4	-0.18102849
12	0x30	0.31033453
13	0xc0	-0.41377938
14	0x0c	0.07758363
15	0xd3	-0.29093862
16	0x4c	0.49136302
17	0x9a	-0.6594609
18	0xb6	-0.47843242
19	0xf9	-0.04525712
20	0xd3	-0.29093862
21	0x1a	0.16809787
22	0xcc	-0.33619574
23	0x02	0.012930606
24	0xd8	-0.2586121
25	0xfa	-0.038791817
26	0x33	0.32973045
27	0x26	0.24568151
28	0xd7	-0.2650774
29	0xfa	-0.038791817
30	0x29	0.2650774
31	0xd5	-0.278008
32	0x06	0.038791817
33	0x1b	0.17456317
34	0xb7	-0.4719671
35	0xff	-0.006465303
36	0xfc	-0.025861211
37	0xfb	-0.032326512
38	0xfc	-0.025861211
39	0x16	0.14223666
40	0x2a	0.27154273
41	0x0e	0.09051424
42	0xdb	-0.23921621
43	0x2c	0.28447333
44	0xd4	-0.28447333
45	0xed	-0.122840755
46	0xeb	-0.13577136
47	0x45	0.4461059
48	0xb6	-0.47843242
49	0xdd	-0.22628559
50	0x96	-0.6853221
51	0x2b	0.278008
52	0xf9	-0.04525712
53	0xfc	-0.025861211
54	0xe5	-0.17456317
55	0xf1	-0.09697954
56	0x32	0.32326514
57	0x24	0.2327509
58	0xfa	-0.038791817
59	0xd6	-0.27154273
60	0x2b	0.278008
61	0x19	0.16163257
62	0xf2	-0.09051424
63	0x25	0.23921621
64	0x1f	0.20042439
65	0xdd	-0.22628559
66	0xba	-0.45257118
67	0xbd	-0.4331753
68	0x9a	-0.6594609
69	0xe1	-0.20042439
70	0x9e	-0.6335997
71	0xe9	-0.14870197
72	0xf3	-0.084048934
73	0x18	0.15516727
74	0xe9	-0.14870197
75	0x9a	-0.6594609
76	0x48	0.4655018
77	0x3a	0.37498757
78	0x17	0.14870197
79	0xca	-0.34912634
80	0x28	0.2586121
81	0x14	0.12930605
82	0x9d	-0.64006495
83	0xf9	-0.04525712
84	0x3a	0.37498757
85	0x04	0.025861211
86	0xf2	-0.09051424
87	0x0b	0.07111833
88	0x45	0.4461059
89	0xf2	-0.09051424
90	0x08	0.051722422
91	0x04	0.025861211
92	0xd1	-0.30386922
93	0xfd	-0.019395908
94	0xba	-0.45257118
95	0x04	0.025861211
96	0xb9	-0.4590365
97	0x12	0.11637545
98	0x95	-0.6917874
99	0xc8	-0.36205697
100	0x35	0.34266105
101	0xfa	-0.038791817
102	0xd2	-0.29740393
103	0x06	0.038791817
104	0xff	-0.006465303
105	0xd0	-0.31033453
106	0x45	0.4461059
107	0xdb	-0.23921621
108	0x0d	0.084048934
109	0x08	0.051722422
110	0x1f	0.20042439
111	0xe7	-0.16163257
112	0xf6	-0.064653024
113	0x2e	0.29740393
114	0x17	0.14870197
115	0xf9	-0.04525712
116	0xd9	-0.2521468
117	0x05	0.032326512
118	0x1d	0.18749379
119	0xf6	-0.064653024
120	0x22	0.21982029
121	0x12	0.11637545
122	0xd2	-0.29740393
123	0x27	0.2521468
124	0x08	0.051722422
125	0x01	0.006465303
126	0xfd	-0.019395908
127	0xdf	-0.21335499
128	0x0a	0.064653024
129	0xe6	-0.16809787
130	0xe5	-0.17456317
131	0x0c	0.07758363
132	0x29	0.2650774
133	0x0c	0.07758363
134	0xf8	-0.051722422
135	0xc8	-0.36205697
136	0x1f	0.20042439
137	0x1a	0.16809787
138	0xd8	-0.2586121
139	0xc9	-0.35559165
140	0x08	0.051722422
141	0xe7	-0.16163257
142	0x1d	0.18749379
143	0x31	0.31679985
144	0x1f	0.20042439
145	0xf3	-0.084048934
146	0xd3	-0.29093862
147	0xbe	-0.42670998
148	0x02	0.012930606
149	0x13	0.122840755
150	0xa1	-0.61420375
151	0xf6	-0.064653024
152	0x2a	0.27154273
153	0x31	0.31679985
154	0xf0	-0.103444844
155	0x0e	0.09051424
156	0x2f	0.30386922
157	0xce	-0.32326514
158	0x08	0.051722422
159	0x18	0.15516727
160	0xd5	-0.278008
161	0xce	-0.32326514
162	0xf0	-0.103444844
163	0x0c	0.07758363
164	0x01	0.006465303
165	0xca	-0.34912634
166	0xcd	-0.32973045
167	0xfe	-0.012930606
168	0x8d	-0.7435098
169	0x27	0.2521468
170	0x82	-0.8146281
171	0xfe	-0.012930606
172	0xe2	-0.19395909
173	0x47	0.4590365
174	0x09	0.058187723
175	0x18	0.15516727
176	0xf6	-0.064653024
177	0xd8	-0.2586121
178	0xf1	-0.09697954
179	0x1c	0.18102849
180	0xa7	-0.575412
181	0xdf	-0.21335499
182	0xf2	-0.09051424
183	0x0e	0.09051424
184	0x1a	0.16809787
185	0x1d	0.18749379
186	0xfd	-0.019395908
187	0x82	-0.8146281
188	0x3d	0.39438346
189	0x15	0.13577136
190	0xb7	-0.4719671
191	0xb4	-0.49136302
192	0x1c	0.18102849
193	0xf5	-0.07111833
194	0xdb	-0.23921621
195	0x3d	0.39438346
196	0x11	0.109910145
197	0x4c	0.49136302
198	0xe6	-0.16809787
199	0xd4	-0.28447333
200	0xd7	-0.2650774
201	0x20	0.20688969
202	0x31	0.31679985
203	0x10	0.103444844
204	0x49	0.4719671
205	0xd8	-0.2586121
206	0xc5	-0.38145286
207	0x4b	0.4848977
208	0x13	0.122840755
209	0xfe	-0.012930606
210	0x31	0.31679985
211	0xcf	-0.31679985
212	0xc4	-0.38791817
213	0xe5	-0.17456317
214	0xdd	-0.22628559
215	0x24	0.2327509
216	0x16	0.14223666
217	0xda	-0.24568151
218	0xde	-0.21982029
219	0x00	0.0
220	0xba	-0.45257118
221	0x22	0.21982029
222	0xb4	-0.49136302
223	0xfb	-0.032326512
224	0x12	0.11637545
225	0xf8	-0.051722422
226	0xe9	-0.14870197
227	0x13	0.122840755
228	0xd5	-0.278008
229	0xfd	-0.019395908
230	0x2d	0.29093862
231	0x13	0.122840755
232	0xaf	-0.5236895
233	0x1b	0.17456317
234	0xdf	-0.21335499
235	0x2a	0.27154273
236	0xd2	-0.29740393
237	0xe5	-0.17456317
238	0xff	-0.006465303
239	0x1b	0.17456317
240	0xe8	-0.15516727
241	0xed	-0.122840755
242	0xeb	-0.13577136
243	0xf6	-0.064653024
244	0xc0	-0.41377938
245	0x1f	0.20042439
246	0xce	-0.32326514
247	0xd9	-0.2521468
248	0xc4	-0.38791817
249	0xc0	-0.41377938
250	0xd7	-0.2650774
251	0xee	-0.11637545
252	0xed	-0.122840755
253	0xc9	-0.35559165
254	0xf4	-0.07758363
255	0xcf	-0.31679985
