model/keypoint_classifier/keypoint_classifier.tflite (tflite, 25424 bytes, 8 tensors)

sequential_4/dense_19/BiasAdd/ReadVariableOp f4 [34]
0	0xbd8db9e5	-0.06920222
1	0x3e110f36	0.14165959
2	0x3d507164	0.050889388
3	0xbd81cac3	-0.06337502
4	0x3e13a55f	0.14418553
5	0xbe33ef5e	-0.1757178
6	0x3cb0df7c	0.02159094
7	0x3ded36cb	0.115827166
8	0x3db9e581	0.090769775
9	0xbd998d2d	-0.0749763
10	0xbe5c1267	-0.21491395
11	0xbd12b0e4	-0.035813227
12	0xbd605dd5	-0.054776985
13	0xbd368259	-0.044557903
14	0x3d473a93	0.048639845
15	0x3d3f8ae9	0.046763334
16	0x3d22b255	0.039720852
17	0x3dc9996f	0.09843718
18	0x3d815508	0.063150465
19	0x3ca24d86	0.019812357
20	0x3dbd4f92	0.092436925
21	0xbcc6884d	-0.024234915
22	0xbe39fa47	-0.1816188
23	0xbda3d609	-0.07999808
24	0xbda5419b	-0.08069154
25	0xbe367c70	-0.17820907
26	0xbdfc0ee7	-0.1230753
27	0x3e101063	0.14068751
28	0xbd8060a9	-0.062684365
29	0xbef2e50e	-0.4744038
30	0x3b827713	0.00398148
31	0xbd068aa5	-0.032847065
32	0x3e2cdcab	0.16881053
33	0x3e3ee743	0.18642907

sequential_4/dense_18/BiasAdd/ReadVariableOp f4 [50]
0	0x3e379e2f	0.17931436
1	0x3d83d942	0.06437923
2	0x3dabd01e	0.083893046
3	0xbd9b66aa	-0.07587941
4	0x3e957291	0.2918897
5	0x3eb068a2	0.34454829
6	0x3e519d28	0.20470107
7	0x3e6ae37e	0.22938344
8	0x3e6fcbf8	0.23417652
9	0x3e1a9a3a	0.15097895
10	0x3eeb2e19	0.45933607
11	0xbccdd76b	-0.025127133
12	0x3dffd146	0.124910876
13	0x3e890966	0.26764983
14	0xbdfa7d00	-0.12230873
15	0xbb7f7e9e	-0.0038985382
16	0x3eaec7f0	0.34136915
17	0x3e008fc0	0.12554836
18	0xbd1bf665	-0.038076777
19	0x3e2eff9c	0.17089695
20	0x3d616272	0.055025525
21	0x3e994aa5	0.29939762
22	0x3e4ee15b	0.20203154
23	0x3e40adc5	0.18816288
24	0x3de36dfb	0.111049615
25	0x3eacffb5	0.3378884
26	0x3e1a34da	0.15059224
27	0x3df22d14	0.11825004
28	0x3deaf23b	0.11471983
29	0x3e58b6f7	0.21163546
30	0x3e958479	0.2920263
31	0x3de60184	0.11230758
32	0x3d9ab634	0.07554284
33	0x3e122605	0.14272316
34	0x3dad55bf	0.084636204
35	0x3e56a20f	0.20960258
36	0x3da95997	0.08269041
37	0x3e2d93cc	0.16950911
38	0xbc97d4b0	-0.018534034
39	0x3d932c23	0.07186153
40	0xbc1c15cd	-0.009526682
41	0x3eb674af	0.35635898
42	0x3b7dae6a	0.0038708695
43	0x3ea17ae6	0.31539077
44	0x3dba6716	0.09101693
45	0x3e14dc31	0.14537121
46	0x3da88242	0.0822797
47	0xbd907127	-0.07052832
48	0x3eaa4c64	0.33261406
49	0x3e1dc16e	0.15405819

sequential_4/dense_17/BiasAdd/ReadVariableOp f4 [100]
0	0x3d820476	0.06348507
1	0x3e174144	0.1477099
2	0x3cb7aa1e	0.022419985
3	0x3e2b1f0e	0.16711065
4	0x3d112072	0.035431333
5	0x3dee03b4	0.116218
6	0x3cac81ff	0.02105808
7	0x3de98977	0.114031725
8	0x3d3ada6f	0.04561847
9	0x3d231683	0.03981639
10	0x3d828f74	0.06375018
11	0x3df3d79f	0.11906361
12	0x3d899cdd	0.067193724
13	0x3de3e4e6	0.11127643
14	0xbe81d26a	-0.25355846
15	0x3e15c564	0.1462608
16	0x3d1bc8d2	0.038033314
17	0x3e10f9fa	0.14157858
18	0x3da42ee8	0.08016759
19	0xbd8f8699	-0.07008094
20	0x3d2d608f	0.042328414
21	0x3c08ebde	0.008357016
22	0x3d66f680	0.056387424
23	0x3e82a548	0.25516725
24	0xbd93f360	-0.072241545
25	0x3d9a62ad	0.07538352
26	0x3dd4cbd4	0.1039044
27	0x3d393424	0.04521574
28	0x3dad3124	0.084566385
29	0x3e1d3055	0.15350468
30	0x3dd7066e	0.10499273
31	0xbcafb326	-0.02144773
32	0xbd500016	-0.050781332
33	0x3d950288	0.072758734
34	0x3e51bb1a	0.2048153
35	0x3ca962c1	0.020676972
36	0x3c0421d1	0.008064703
37	0xbbf6b5d7	-0.007529001
38	0xbd57a329	-0.052645836
39	0x3dd7437f	0.10510921
40	0x3e84a62e	0.25908035
41	0x3e5078d8	0.20358598
42	0x3e8119e0	0.25215054
43	0xbd641350	-0.05568248
44	0x3e7144fd	0.23561473
45	0x3daff59f	0.085917704
46	0x3dae299e	0.085040316
47	0x3e78ecfd	0.24309154
48	0x3df5766f	0.1198548
49	0x3cac90e0	0.021065176
50	0x3d9f8195	0.07788388
51	0xbd28b5b0	-0.041188896
52	0x3e0f6b44	0.14005762
53	0x3d2d0ebb	0.042250376
54	0x3d84c879	0.064835496
55	0xbd1ad882	-0.037804134
56	0xbce35d35	-0.027754406
57	0x3e040657	0.12893043
58	0x3dd2409f	0.10266232
59	0xbda5aaeb	-0.08089241
60	0xbb2ee2e4	-0.002668553
61	0xbb80ec74	-0.0039344374
62	0x3c8ab1fc	0.016930573
63	0x3db066af	0.08613335
64	0x3e1a1c2d	0.1504981
65	0xbd30b22d	-0.04313867
66	0x3d174ebe	0.03694033
67	0x3d9aa4ab	0.07550939
68	0xbd5ebcd5	-0.054379303
69	0x3e128d65	0.1431175
70	0x3d68cdd5	0.05683692
71	0xbc20b91c	-0.0098097585
72	0xbccc923f	-0.02497208
73	0xbd1ea37d	-0.038730133
74	0x3b6cd7cd	0.003613937
75	0x3af6827e	0.00188072
76	0x3cf5b82a	0.029995043
77	0xbce99e87	-0.028517975
78	0x3c0c3018	0.008556388
79	0xbc68c646	-0.014207428
80	0x3d028a67	0.031870272
81	0xbda086f5	-0.07838241
82	0x3dc10593	0.09424891
83	0x3dd61fd4	0.104552895
84	0x3e31c830	0.17361522
85	0xbd0baa7c	-0.034098133
86	0x3e263c6b	0.16233985
87	0x3e7324be	0.23744485
88	0x3e0a4b7c	0.13505358
89	0x3e0472b7	0.12934385
90	0x3e3627e8	0.1778866
91	0x3e1545e3	0.14577441
92	0x3e0092d4	0.1255601
93	0x3e330956	0.1748403
94	0x3e056ecb	0.13030545
95	0x3d168c09	0.03675464
96	0xbd066d7e	-0.032819264
97	0x3cf48a93	0.029851234
98	0x3c2b1250	0.010441378
99	0x3e1b563a	0.15169612

sequential_4/dense_16/BiasAdd/ReadVariableOp f4 [80]
0	0x3d2d93f7	0.04237744
1	0xbae73358	-0.0017639203
2	0x3d1fdfc0	0.039031744
3	0xbd6a2046	-0.057159685
4	0xbe090aab	-0.13382976
5	0x3d99d050	0.075104356
6	0x3cf6ec13	0.030141866
7	0xbc8f6a3f	-0.017506717
8	0xbe2d3991	-0.16916491
9	0x3d1ec479	0.03876159
10	0xbd7defe1	-0.061996344
11	0xbc8f04c5	-0.017458329
12	0x3e03dadb	0.12876455
13	0xbd6636da	-0.056204654
14	0xbda09dca	-0.07842596
15	0x3ca2c201	0.019867899
16	0xbc5d40e1	-0.013504238
17	0xbd781259	-0.060564373
18	0xbe103c16	-0.14085421
19	0xbe0923a0	-0.13392496
20	0x3dbbb760	0.091658354
21	0xbd298d67	-0.041394617
22	0xbd3e6935	-0.046487052
23	0x3cf3eff5	0.029777506
24	0x3bbf9d93	0.0058476417
25	0xbda786a0	-0.081799746
26	0xbe8e6dc5	-0.27818123
27	0xbe891647	-0.2677481
28	0xbc9b1aae	-0.01893362
29	0x00000000	0.0
30	0xbe5d7434	-0.21626359
31	0xbe5829ab	-0.21109645
32	0xbd3ab2c6	-0.045580648
33	0xbb8d6c0a	-0.004315858
34	0xbdbb740b	-0.09152993
35	0xbe2b8d1f	-0.16753052
36	0x3cbf80fc	0.023376934
37	0xbe0e20fd	-0.13879772
38	0x3dbe6930	0.09297407
39	0xbdf7128f	-0.12064087
40	0xbe0b58fe	-0.13608167
41	0xbd8af474	-0.06784907
42	0xbe35a87d	-0.17740054
43	0xbd074ade	-0.033030383
44	0xbe717d61	-0.23582985
45	0x3e0910a6	0.13385257
46	0x3d95518e	0.07290946
47	0xbc365897	-0.01112952
48	0xbe37b74a	-0.17941013
49	0xbe12ae91	-0.14324404
50	0xbe4d4fc1	-0.20049955
51	0xbc2ba431	-0.010476158
52	0xbc3a8c18	-0.01138594
53	0xbcd7d7ab	-0.026347956
54	0xbd96821c	-0.07349035
55	0xbe091a24	-0.13388878
56	0xbc6f3882	-0.014600875
57	0xbea9726b	-0.33095106
58	0x3d8fd8d0	0.070237756
59	0xbd983995	-0.07432858
60	0xbe3b1749	-0.18270601
61	0xbcd5c0fb	-0.026092997
62	0xbe438868	-0.19095004
63	0x3c4ae996	0.012384793
64	0xbdf02257	-0.117253
65	0xbe1f1a38	-0.15537345
66	0x3cdd62ca	0.027024645
67	0xbd9684b7	-0.07349532
68	0xbe54b843	-0.20773415
69	0xbdf383e0	-0.118903875
70	0xbd9582ac	-0.07300314
71	0xbd7b3a0d	-0.06133466
72	0xbd9e13fa	-0.07718654
73	0x3d43ea85	0.047831077
74	0xbe1e6658	-0.15468729
75	0xbe02ec6e	-0.12785503
76	0xbd38d42e	-0.045124225
77	0xbd6879ce	-0.056756787
78	0xbe2b8a94	-0.16752082
79	0xbd9e51a6	-0.07730417

sequential_4/dense_16/MatMul i1 [80, 86] scale=0.010209751 zero_point=0
0	0xfe	-0.020419503
1	0x10	0.16335602
2	0x02	0.020419503
3	0x0a	0.10209751
4	0xe5	-0.2756633
5	0x15	0.21440478
6	0xcf	-0.5002778
7	0xf2	-0.14293651
8	0xd8	-0.40839005
9	0xe0	-0.32671204
10	0xc0	-0.6534241
11	0xe3	-0.2960828
12	0xd2	-0.46964857
13	0x0e	0.14293651
14	0xef	-0.17356578
15	0x05	0.051048756
16	0x26	0.38797054
17	0x0a	0.10209751
18	0x1c	0.28587303
19	0xfe	-0.020419503
20	0xe9	-0.23482428
21	0x05	0.051048756
22	0x07	0.07146826
23	0x05	0.051048756
24	0x12	0.18377553
25	0xf4	-0.12251702
26	0x0f	0.15314627
27	0xfa	-0.06125851
28	0x10	0.16335602
29	0x04	0.040839005
30	0x15	0.21440478
31	0xe5	-0.2756633
32	0x27	0.3981803
33	0xf6	-0.10209751
34	0x0e	0.14293651
35	0x0c	0.12251702
36	0x15	0.21440478
37	0x08	0.08167801
38	0x2b	0.4390193
39	0xf1	-0.15314627
40	0x2a	0.42880955
41	0xfd	-0.030629255
42	0x30	0.49006808
43	0xfa	-0.06125851
44	0xe4	-0.28587303
45	0x08	0.08167801
46	0xfb	-0.051048756
47	0x14	0.20419502
48	0xe1	-0.3165023
49	0x0c	0.12251702
50	0xee	-0.18377553
51	0x01	0.010209751
52	0xed	-0.19398527
53	0xe8	-0.24503404
54	0x0d	0.13272677
55	0x10	0.16335602
56	0xf8	-0.08167801
57	0x11	0.17356578
58	0x12	0.18377553
59	0x00	0.0
60	0x01	0.010209751
61	0xf8	-0.08167801
62	0x0e	0.14293651
63	0x08	0.08167801
64	0x01	0.010209751
65	0x13	0.19398527
66	0x12	0.18377553
67	0x0f	0.15314627
68	0x15	0.21440478
69	0xf6	-0.10209751
70	0x0d	0.13272677
71	0x0f	0.15314627
72	0x04	0.040839005
73	0xfb	-0.051048756
74	0xec	-0.20419502
75	0x0c	0.12251702
76	0xf6	-0.10209751
77	0x02	0.020419503
78	0x16	0.22461453
79	0x02	0.020419503
80	0x01	0.010209751
81	0x04	0.040839005
82	0xf8	-0.08167801
83	0xfd	-0.030629255
84	0xfb	-0.051048756
85	0xed	-0.19398527
86	0x0a	0.10209751
87	0xb1	-0.80657035
88	0x29	0.4185998
89	0xf4	-0.12251702
90	0x1d	0.2960828
91	0x03	0.030629255
92	0x12	0.18377553
93	0xf8	-0.08167801
94	0xef	-0.17356578
95	0x19	0.25524378
96	0xe5	-0.2756633
97	0x12	0.18377553
98	0xf9	-0.07146826
99	0x03	0.030629255
100	0xe0	-0.32671204
101	0x1d	0.2960828
102	0xdc	-0.36755106
103	0x11	0.17356578
104	0xe5	-0.2756633
105	0x0d	0.13272677
106	0x14	0.20419502
107	0xf7	-0.091887765
108	0xea	-0.22461453
109	0x0d	0.13272677
110	0x0d	0.13272677
111	0xf6	-0.10209751
112	0xfb	-0.051048756
113	0x18	0.24503404
114	0x0b	0.112307265
115	0xf2	-0.14293651
116	0xea	-0.22461453
117	0x13	0.19398527
118	0x08	0.08167801
119	0xff	-0.010209751
120	0xe6	-0.26545355
121	0x16	0.22461453
122	0xfb	-0.051048756
123	0xff	-0.010209751
124	0xf3	-0.13272677
125	0x10	0.16335602
126	0x12	0.18377553
127	0x10	0.16335602
128	0x0c	0.12251702
129	0xff	-0.010209751
130	0x08	0.08167801
131	0xea	-0.22461453
132	0x03	0.030629255
133	0xf9	-0.07146826
134	0x1f	0.3165023
135	0x06	0.06125851
136	0x28	0.40839005
137	0xf9	-0.07146826
138	0x0c	0.12251702
139	0x0f	0.15314627
140	0x0e	0.14293651
141	0x04	0.040839005
142	0x0b	0.112307265
143	0x03	0.030629255
144	0xf1	-0.15314627
145	0x0c	0.12251702
146	0xcd	-0.5206973
147	0xf2	-0.14293651
148	0x12	0.18377553
149	0x01	0.010209751
150	0x06	0.06125851
151	0xe6	-0.26545355
152	0xdb	-0.3777608
153	0xee	-0.18377553
154	0xc8	-0.57174605
155	0xe3	-0.2960828
156	0x00	0.0
157	0xeb	-0.21440478
158	0x17	0.23482428
159	0xf4	-0.12251702
160	0x21	0.33692178
161	0xf5	-0.112307265
162	0x13	0.19398527
163	0xe3	-0.2960828
164	0x1c	0.28587303
165	0xe6	-0.26545355
166	0x06	0.06125851
167	0x03	0.030629255
168	0x07	0.07146826
169	0xf3	-0.13272677
170	0x27	0.3981803
171	0x01	0.010209751
172	0xf6	-0.10209751
173	0xc5	-0.6023753
174	0x1a	0.26545355
175	0x13	0.19398527
176	0x06	0.06125851
177	0xf3	-0.13272677
178	0x02	0.020419503
179	0xf1	-0.15314627
180	0x08	0.08167801
181	0xed	-0.19398527
182	0xfb	-0.051048756
183	0xe7	-0.25524378
184	0x04	0.040839005
185	0xe9	-0.23482428
186	0xf4	-0.12251702
187	0xfc	-0.040839005
188	0x10	0.16335602
189	0x0e	0.14293651
190	0x08	0.08167801
191	0xf5	-0.112307265
192	0x16	0.22461453
193	0xfa	-0.06125851
194	0xfb	-0.051048756
195	0xff	-0.010209751
196	0x10	0.16335602
197	0xed	-0.19398527
198	0x06	0.06125851
199	0xff	-0.010209751
200	0x0e	0.14293651
201	0x00	0.0
202	0xf1	-0.15314627
203	0x01	0.010209751
204	0xf5	-0.112307265
205	0xed	-0.19398527
206	0x17	0.23482428
207	0xf7	-0.091887765
208	0x06	0.06125851
209	0x05	0.051048756
210	0x0e	0.14293651
211	0xea	-0.22461453
212	0x12	0.18377553
213	0x01	0.010209751
214	0x02	0.020419503
215	0xef	-0.17356578
216	0xfa	-0.06125851
217	0x05	0.051048756
218	0x12	0.18377553
219	0xf0	-0.16335602
220	0x16	0.22461453
221	0xf2	-0.14293651
222	0x25	0.3777608
223	0xf0	-0.16335602
224	0x18	0.24503404
225	0xf6	-0.10209751
226	0x0a	0.10209751
227	0x04	0.040839005
228	0xe0	-0.32671204
229	0x0a	0.10209751
230	0xd8	-0.40839005
231	0x15	0.21440478
232	0xde	-0.34713155
233	0x1d	0.2960828
234	0xe4	-0.28587303
235	0x18	0.24503404
236	0xf9	-0.07146826
237	0x1a	0.26545355
238	0x01	0.010209751
239	0x0c	0.12251702
240	0xf2	-0.14293651
241	0x07	0.07146826
242	0xd7	-0.4185998
243	0x18	0.24503404
244	0xe1	-0.3165023
245	0x19	0.25524378
246	0xf4	-0.12251702
247	0x1a	0.26545355
248	0xf9	-0.07146826
249	0x11	0.17356578
250	0xf0	-0.16335602
251	0x19	0.25524378
252	0xf4	-0.12251702
253	0x02	0.020419503
254	0xe9	-0.23482428
255	0x1b	0.2756633

sequential_4/dense_17/MatMul i1 [100, 80] scale=0.008927262 zero_point=0
0	0x00	0.0
1	0x06	0.053563572
2	0xf3	-0.11605441
3	0xf6	-0.089272626
4	0xf9	-0.062490836
5	0x1a	0.23210882
6	0x19	0.22318156
7	0x0e	0.12498167
8	0x09	0.08034536
9	0x0c	0.107127145
10	0xee	-0.16069072
11	0xed	-0.16961798
12	0xf7	-0.08034536
13	0xfe	-0.017854525
14	0xfd	-0.026781786
15	0xd3	-0.4017268
16	0x0f	0.13390894
17	0x08	0.0714181
18	0xe1	-0.27674514
19	0xcf	-0.43743587
20	0x10	0.1428362
21	0x02	0.017854525
22	0xf9	-0.062490836
23	0xdc	-0.32138145
24	0xee	-0.16069072
25	0xee	-0.16069072
26	0xfc	-0.03570905
27	0xf8	-0.0714181
28	0x16	0.19639978
29	0x0f	0.13390894
30	0xf6	-0.089272626
31	0xf7	-0.08034536
32	0x4a	0.6606174
33	0xea	-0.19639978
34	0x16	0.19639978
35	0x03	0.026781786
36	0xef	-0.15176345
37	0x29	0.36601776
38	0xe8	-0.21425429
39	0x00	0.0
40	0xf6	-0.089272626
41	0xef	-0.15176345
42	0x0d	0.11605441
43	0xdd	-0.3124542
44	0xff	-0.008927262
45	0xe8	-0.21425429
46	0xe1	-0.27674514
47	0x1d	0.2588906
48	0xf9	-0.062490836
49	0x01	0.008927262
50	0x21	0.29459965
51	0x07	0.062490836
52	0x08	0.0714181
53	0x08	0.0714181
54	0xda	-0.33923596
55	0x08	0.0714181
56	0xde	-0.3035269
57	0x1c	0.24996334
58	0xfb	-0.044636313
59	0x34	0.46421763
60	0x47	0.6338356
61	0x1d	0.2588906
62	0x3d	0.544563
63	0x13	0.16961798
64	0x06	0.053563572
65	0xef	-0.15176345
66	0xe7	-0.22318156
67	0xcf	-0.43743587
68	0x03	0.026781786
69	0x10	0.1428362
70	0xe8	-0.21425429
71	0xfd	-0.026781786
72	0xd9	-0.34816325
73	0xf4	-0.107127145
74	0x16	0.19639978
75	0x04	0.03570905
76	0xe6	-0.23210882
77	0xef	-0.15176345
78	0xf5	-0.09819989
79	0x1d	0.2588906
80	0xec	-0.17854525
81	0xe6	-0.23210882
82	0xd9	-0.34816325
83	0x0e	0.12498167
84	0x31	0.43743587
85	0xf6	-0.089272626
86	0xe8	-0.21425429
87	0x0a	0.089272626
88	0x12	0.16069072
89	0x06	0.053563572
90	0x1a	0.23210882
91	0xf3	-0.11605441
92	0xd0	-0.42850858
93	0x03	0.026781786
94	0xd7	-0.36601776
95	0xfc	-0.03570905
96	0xf4	-0.107127145
97	0x04	0.03570905
98	0xea	-0.19639978
99	0x06	0.053563572
100	0x05	0.044636313
101	0x01	0.008927262
102	0xfa	-0.053563572
103	0xff	-0.008927262
104	0xf3	-0.11605441
105	0x08	0.0714181
106	0x21	0.29459965
107	0xf4	-0.107127145
108	0xf1	-0.13390894
109	0x05	0.044636313
110	0x32	0.44636312
111	0xf7	-0.08034536
112	0xd5	-0.38387227
113	0x0e	0.12498167
114	0x07	0.062490836
115	0x27	0.34816325
116	0x01	0.008927262
117	0x01	0.008927262
118	0xd8	-0.3570905
119	0x13	0.16961798
120	0x12	0.16069072
121	0xf2	-0.12498167
122	0x02	0.017854525
123	0x05	0.044636313
124	0xfc	-0.03570905
125	0xf9	-0.062490836
126	0x18	0.21425429
127	0xf5	-0.09819989
128	0x32	0.44636312
129	0x15	0.1874725
130	0x33	0.45529038
131	0xef	-0.15176345
132	0xda	-0.33923596
133	0xfa	-0.053563572
134	0xe0	-0.2856724
135	0x14	0.17854525
136	0xe0	-0.2856724
137	0x23	0.3124542
138	0xbf	-0.5802721
139	0xf0	-0.1428362
140	0xe9	-0.20532703
141	0x0b	0.09819989
142	0x18	0.21425429
143	0x25	0.3303087
144	0xf7	-0.08034536
145	0x0b	0.09819989
146	0xf4	-0.107127145
147	0xf8	-0.0714181
148	0x11	0.15176345
149	0x25	0.3303087
150	0xf0	-0.1428362
151	0xf0	-0.1428362
152	0x00	0.0
153	0xe0	-0.2856724
154	0x22	0.3035269
155	0xfb	-0.044636313
156	0x04	0.03570905
157	0xee	-0.16069072
158	0x1f	0.27674514
159	0xe8	-0.21425429
160	0x07	0.062490836
161	0x4a	0.6606174
162	0xf5	-0.09819989
163	0xf5	-0.09819989
164	0x10	0.1428362
165	0x06	0.053563572
166	0xed	-0.16961798
167	0xcd	-0.45529038
168	0xf4	-0.107127145
169	0xda	-0.33923596
170	0xe9	-0.20532703
171	0x05	0.044636313
172	0xf7	-0.08034536
173	0xfc	-0.03570905
174	0xc8	-0.4999267
175	0x00	0.0
176	0x08	0.0714181
177	0xff	-0.008927262
178	0x18	0.21425429
179	0x1a	0.23210882
180	0x24	0.32138145
181	0xc6	-0.5177812
182	0xfe	-0.017854525
183	0x30	0.42850858
184	0x2f	0.41958132
185	0xe6	-0.23210882
186	0xed	-0.16961798
187	0xfd	-0.026781786
188	0xe6	-0.23210882
189	0xfc	-0.03570905
190	0xf6	-0.089272626
191	0x19	0.22318156
192	0xe9	-0.20532703
193	0x37	0.49099943
194	0xe6	-0.23210882
195	0xd0	-0.42850858
196	0x2f	0.41958132
197	0x0f	0.13390894
198	0x2d	0.4017268
199	0x00	0.0
200	0x19	0.22318156
201	0x1f	0.27674514
202	0x04	0.03570905
203	0xfb	-0.044636313
204	0x11	0.15176345
205	0x0d	0.11605441
206	0xf3	-0.11605441
207	0x22	0.3035269
208	0xfd	-0.026781786
209	0xfd	-0.026781786
210	0xf8	-0.0714181
211	0x2b	0.38387227
212	0x0e	0.12498167
213	0x03	0.026781786
214	0xf3	-0.11605441
215	0xf3	-0.11605441
216	0x1a	0.23210882
217	0x03	0.026781786
218	0xe0	-0.2856724
219	0x0b	0.09819989
220	0x07	0.062490836
221	0x0a	0.089272626
222	0xfc	-0.03570905
223	0x09	0.08034536
224	0x07	0.062490836
225	0xff	-0.008927262
226	0xea	-0.19639978
227	0x09	0.08034536
228	0xf8	-0.0714181
229	0xff	-0.008927262
230	0xfa	-0.053563572
231	0x23	0.3124542
232	0xfc	-0.03570905
233	0x23	0.3124542
234	0xdc	-0.32138145
235	0xfb	-0.044636313
236	0xf9	-0.062490836
237	0xe5	-0.24103609
238	0xf3	-0.11605441
239	0xf3	-0.11605441
240	0x11	0.15176345
241	0xdb	-0.3303087
242	0xf9	-0.062490836
243	0xf6	-0.089272626
244	0xd2	-0.41065407
245	0xfc	-0.03570905
246	0x17	0.20532703
247	0xe3	-0.2588906
248	0x05	0.044636313
249	0x03	0.026781786
250	0x09	0.08034536
251	0xfa	-0.053563572
252	0xdf	-0.29459965
253	0x0d	0.11605441
254	0xd8	-0.3570905
255	0xf3	-0.11605441

sequential_4/dense_18/MatMul i1 [50, 100] scale=0.0073715616 zero_point=0
0	0x1a	0.1916606
1	0x2c	0.32434872
2	0x19	0.18428904
3	0xf9	-0.051600933
4	0x01	0.0073715616
5	0xda	-0.28011933
6	0xfe	-0.014743123
7	0xee	-0.1326881
8	0x1e	0.22114685
9	0xf5	-0.08108718
10	0xe3	-0.21377529
11	0xeb	-0.1548028
12	0x1c	0.20640373
13	0xfe	-0.014743123
14	0x0e	0.103201866
15	0xff	-0.0073715616
16	0xf7	-0.06634405
17	0x0b	0.08108718
18	0xfb	-0.036857806
19	0xef	-0.12531655
20	0x0f	0.110573426
21	0x15	0.1548028
22	0x1e	0.22114685
23	0x28	0.29486245
24	0xe5	-0.19903216
25	0xed	-0.14005966
26	0x23	0.25800467
27	0x05	0.036857806
28	0x06	0.04422937
29	0x0b	0.08108718
30	0xe2	-0.22114685
31	0x00	0.0
32	0xf2	-0.103201866
33	0xe3	-0.21377529
34	0x30	0.35383496
35	0x0e	0.103201866
36	0xf1	-0.110573426
37	0xe3	-0.21377529
38	0xf3	-0.0958303
39	0x0c	0.08845874
40	0xe8	-0.17691748
41	0x0b	0.08108718
42	0x16	0.16217436
43	0x31	0.36120653
44	0x28	0.29486245
45	0xee	-0.1326881
46	0x10	0.117944986
47	0x0f	0.110573426
48	0xf7	-0.06634405
49	0xdb	-0.27274778
50	0x28	0.29486245
51	0xf6	-0.07371561
52	0xff	-0.0073715616
53	0x10	0.117944986
54	0x08	0.058972493
55	0x1e	0.22114685
56	0xf4	-0.08845874
57	0xf9	-0.051600933
58	0xe8	-0.17691748
59	0xf8	-0.058972493
60	0xf2	-0.103201866
61	0x05	0.036857806
62	0xc3	-0.44966525
63	0xd6	-0.3096056
64	0x02	0.014743123
65	0x0d	0.0958303
66	0xf4	-0.08845874
67	0xf1	-0.110573426
68	0x12	0.1326881
69	0xf4	-0.08845874
70	0x1c	0.20640373
71	0xea	-0.16217436
72	0x1e	0.22114685
73	0x0a	0.07371561
74	0xe4	-0.20640373
75	0xf3	-0.0958303
76	0xf2	-0.103201866
77	0x09	0.06634405
78	0xf3	-0.0958303
79	0xf1	-0.110573426
80	0x27	0.2874909
81	0xf2	-0.103201866
82	0x1b	0.19903216
83	0xff	-0.0073715616
84	0xf8	-0.058972493
85	0x02	0.014743123
86	0x0e	0.103201866
87	0x1b	0.19903216
88	0xfb	-0.036857806
89	0x11	0.12531655
90	0x01	0.0073715616
91	0x14	0.14743122
92	0x0f	0.110573426
93	0x06	0.04422937
94	0x06	0.04422937
95	0xdc	-0.2653762
96	0x04	0.029486246
97	0x0f	0.110573426
98	0xd9	-0.2874909
99	0xf8	-0.058972493
100	0x18	0.17691748
101	0x12	0.1326881
102	0xed	-0.14005966
103	0xfe	-0.014743123
104	0x2c	0.32434872
105	0x18	0.17691748
106	0xbe	-0.48652306
107	0x10	0.117944986
108	0x1e	0.22114685
109	0x01	0.0073715616
110	0xe5	-0.19903216
111	0xe0	-0.23588997
112	0xf5	-0.08108718
113	0x1e	0.22114685
114	0x1f	0.22851841
115	0x07	0.051600933
116	0x18	0.17691748
117	0xbb	-0.5086377
118	0x18	0.17691748
119	0x41	0.47915152
120	0x1a	0.1916606
121	0xe9	-0.16954592
122	0xf8	-0.058972493
123	0x11	0.12531655
124	0x48	0.5307524
125	0x16	0.16217436
126	0x08	0.058972493
127	0xf4	-0.08845874
128	0xf2	-0.103201866
129	0xf6	-0.07371561
130	0xf0	-0.117944986
131	0x20	0.23588997
132	0x02	0.014743123
133	0xc8	-0.41280746
134	0x1f	0.22851841
135	0x28	0.29486245
136	0x35	0.39069277
137	0x13	0.14005966
138	0x29	0.30223402
139	0xcb	-0.39069277
140	0x17	0.16954592
141	0xf1	-0.110573426
142	0x03	0.022114685
143	0x22	0.2506331
144	0xc3	-0.44966525
145	0xfa	-0.04422937
146	0x17	0.16954592
147	0xec	-0.14743122
148	0xe8	-0.17691748
149	0xe6	-0.1916606
150	0xe7	-0.18428904
151	0xed	-0.14005966
152	0x18	0.17691748
153	0xd5	-0.31697714
154	0xed	-0.14005966
155	0x18	0.17691748
156	0x0a	0.07371561
157	0x17	0.16954592
158	0x18	0.17691748
159	0xf3	-0.0958303
160	0xd7	-0.30223402
161	0xf8	-0.058972493
162	0x0e	0.103201866
163	0x56	0.6339543
164	0x06	0.04422937
165	0xe2	-0.22114685
166	0xfb	-0.036857806
167	0xd4	-0.32434872
168	0x0e	0.103201866
169	0xef	-0.12531655
170	0xf9	-0.051600933
171	0xe2	-0.22114685
172	0x0b	0.08108718
173	0x1e	0.22114685
174	0xe3	-0.21377529
175	0x16	0.16217436
176	0xfd	-0.022114685
177	0xd0	-0.35383496
178	0x15	0.1548028
179	0x0a	0.07371561
180	0x0c	0.08845874
181	0xf2	-0.103201866
182	0xf9	-0.051600933
183	0x37	0.4054359
184	0x07	0.051600933
185	0x20	0.23588997
186	0x07	0.051600933
187	0xff	-0.0073715616
188	0x18	0.17691748
189	0x08	0.058972493
190	0xf1	-0.110573426
191	0x15	0.1548028
192	0xdc	-0.2653762
193	0x02	0.014743123
194	0xe1	-0.22851841
195	0xb8	-0.5307524
196	0x0f	0.110573426
197	0xa1	-0.70029837
198	0x09	0.06634405
199	0xc7	-0.420179
200	0x10	0.117944986
201	0xe5	-0.19903216
202	0x13	0.14005966
203	0x03	0.022114685
204	0xfd	-0.022114685
205	0x3c	0.4422937
206	0xe7	-0.18428904
207	0x1f	0.22851841
208	0xe7	-0.18428904
209	0x01	0.0073715616
210	0x11	0.12531655
211	0x2b	0.31697714
212	0x0a	0.07371561
213	0xf8	-0.058972493
214	0x05	0.036857806
215	0xf6	-0.07371561
216	0x14	0.14743122
217	0x1c	0.20640373
218	0xe0	-0.23588997
219	0x33	0.37594965
220	0x25	0.27274778
221	0x1d	0.21377529
222	0xf7	-0.06634405
223	0x04	0.029486246
224	0x20	0.23588997
225	0xf1	-0.110573426
226	0xee	-0.1326881
227	0x0e	0.103201866
228	0x16	0.16217436
229	0x13	0.14005966
230	0x1c	0.20640373
231	0xe9	-0.16954592
232	0xef	-0.12531655
233	0x04	0.029486246
234	0x0d	0.0958303
235	0xf4	-0.08845874
236	0xea	-0.16217436
237	0x25	0.27274778
238	0x18	0.17691748
239	0xfe	-0.014743123
240	0x11	0.12531655
241	0x2b	0.31697714
242	0x09	0.06634405
243	0xe5	-0.19903216
244	0x1e	0.22114685
245	0xe6	-0.1916606
246	0x11	0.12531655
247	0x06	0.04422937
248	0x09	0.06634405
249	0xe2	-0.22114685
250	0xf2	-0.103201866
251	0xfc	-0.029486246
252	0xf9	-0.051600933
253	0xf2	-0.103201866
254	0xe6	-0.1916606
255	0xf8	-0.058972493

sequential_4/dense_19/MatMul i1 [34, 50] scale=0.00819685 zero_point=0
0	0xfd	-0.024590552
1	0xe8	-0.19672441
2	0xe0	-0.2622992
3	0xe2	-0.2459055
4	0x81	-1.041
5	0xcd	-0.41803935
6	0x34	0.4262362
7	0x09	0.073771656
8	0xbb	-0.5655827
9	0xc6	-0.47541732
10	0xf7	-0.073771656
11	0xce	-0.40984252
12	0xd9	-0.31967717
13	0x0a	0.0819685
14	0x00	0.0
15	0xeb	-0.17213386
16	0x23	0.28688976
17	0xf9	-0.057377953
18	0x1a	0.2131181
19	0xda	-0.3114803
20	0xf4	-0.09836221
21	0x28	0.327874
22	0x13	0.15574016
23	0xe7	-0.20492126
24	0x03	0.024590552
25	0xde	-0.2786929
26	0xbd	-0.549189
27	0x13	0.15574016
28	0x00	0.0
29	0x11	0.13934645
30	0x06	0.049181104
31	0x03	0.024590552
32	0xe5	-0.22131495
33	0x26	0.3114803
34	0x0c	0.09836221
35	0x0c	0.09836221
36	0xc3	-0.50000787
37	0xf4	-0.09836221
38	0xc4	-0.491811
39	0xe8	-0.19672441
40	0xf0	-0.1311496
41	0xcb	-0.43443307
42	0xfe	-0.0163937
43	0x14	0.163937
44	0x2a	0.34426773
45	0x0d	0.10655905
46	0x03	0.024590552
47	0xec	-0.163937
48	0xe5	-0.22131495
49	0x26	0.3114803
50	0xca	-0.4426299
51	0xea	-0.18033071
52	0xfa	-0.049181104
53	0xd0	-0.39344883
54	0xe0	-0.2622992
55	0xe1	-0.25410235
56	0x02	0.0163937
57	0xc5	-0.48361418
58	0xf7	-0.073771656
59	0x20	0.2622992
60	0xfb	-0.04098425
61	0xda	-0.3114803
62	0x16	0.18033071
63	0xf6	-0.0819685
64	0x1a	0.2131181
65	0xec	-0.163937
66	0x07	0.057377953
67	0xed	-0.15574016
68	0x18	0.19672441
69	0xcb	-0.43443307
70	0xf4	-0.09836221
71	0x07	0.057377953
72	0xc5	-0.48361418
73	0xcb	-0.43443307
74	0xd2	-0.3770551
75	0x2e	0.3770551
76	0xe7	-0.20492126
77	0xf7	-0.073771656
78	0xeb	-0.17213386
79	0xe8	-0.19672441
80	0x00	0.0
81	0xeb	-0.17213386
82	0x33	0.41803935
83	0x26	0.3114803
84	0x25	0.30328345
85	0xf8	-0.0655748
86	0xed	-0.15574016
87	0x07	0.057377953
88	0xc8	-0.45902362
89	0xe5	-0.22131495
90	0xff	-0.00819685
91	0x2c	0.36066142
92	0x30	0.39344883
93	0xd4	-0.36066142
94	0xdc	-0.29508662
95	0xf7	-0.073771656
96	0xcb	-0.43443307
97	0xcc	-0.4262362
98	0x23	0.28688976
99	0xfc	-0.0327874
100	0xe5	-0.22131495
101	0x2a	0.34426773
102	0x1c	0.22951181
103	0xde	-0.2786929
104	0xd2	-0.3770551
105	0x0c	0.09836221
106	0x20	0.2622992
107	0xd2	-0.3770551
108	0x1f	0.25410235
109	0xfa	-0.049181104
110	0x17	0.18852755
111	0xeb	-0.17213386
112	0xf0	-0.1311496
113	0xf9	-0.057377953
114	0x1c	0.22951181
115	0x0f	0.12295275
116	0xc4	-0.491811
117	0x0f	0.12295275
118	0xec	-0.163937
119	0xfc	-0.0327874
120	0xe6	-0.2131181
121	0x01	0.00819685
122	0xaf	-0.6639449
123	0x17	0.18852755
124	0xf5	-0.090165354
125	0x1c	0.22951181
126	0x2a	0.34426773
127	0x14	0.163937
128	0x0b	0.090165354
129	0xd6	-0.34426773
130	0xe6	-0.2131181
131	0xdd	-0.28688976
132	0x20	0.2622992
133	0xd8	-0.327874
134	0xcc	-0.4262362
135	0x17	0.18852755
136	0x00	0.0
137	0xf4	-0.09836221
138	0xf2	-0.114755906
139	0xeb	-0.17213386
140	0x0f	0.12295275
141	0xfe	-0.0163937
142	0xed	-0.15574016
143	0xca	-0.4426299
144	0x06	0.049181104
145	0x2f	0.38525197
146	0x09	0.073771656
147	0x1d	0.23770866
148	0x1d	0.23770866
149	0xff	-0.00819685
150	0x10	0.1311496
151	0xdb	-0.30328345
152	0x17	0.18852755
153	0xd6	-0.34426773
154	0xdd	-0.28688976
155	0x00	0.0
156	0xfb	-0.04098425
157	0x06	0.049181104
158	0xff	-0.00819685
159	0x05	0.04098425
160	0xdc	-0.29508662
161	0xd4	-0.36066142
162	0x15	0.17213386
163	0x0d	0.10655905
164	0x17	0.18852755
165	0xe1	-0.25410235
166	0xfa	-0.049181104
167	0xf9	-0.057377953
168	0x26	0.3114803
169	0xd2	-0.3770551
170	0x1f	0.25410235
171	0x08	0.0655748
172	0xe9	-0.18852755
173	0xf3	-0.10655905
174	0x27	0.31967717
175	0x19	0.20492126
176	0xf1	-0.12295275
177	0x07	0.057377953
178	0xb2	-0.63935435
179	0xe3	-0.23770866
180	0xc2	-0.5082047
181	0xc0	-0.5245984
182	0x19	0.20492126
183	0x24	0.29508662
184	0xe0	-0.2622992
185	0xf9	-0.057377953
186	0x03	0.024590552
187	0x1a	0.2131181
188	0x03	0.024590552
189	0xcd	-0.41803935
190	0x16	0.18033071
191	0x2d	0.36885828
192	0x00	0.0
193	0xe5	-0.22131495
194	0xd3	-0.36885828
195	0x20	0.2622992
196	0xcb	-0.43443307
197	0xe1	-0.25410235
198	0xd4	-0.36066142
199	0xda	-0.3114803
200	0x06	0.049181104
201	0xcb	-0.43443307
202	0xd8	-0.327874
203	0x19	0.20492126
204	0xbf	-0.53279525
205	0xce	-0.40984252
206	0xf6	-0.0819685
207	0x2d	0.36885828
208	0xb0	-0.655748
209	0x2e	0.3770551
210	0xdc	-0.29508662
211	0xd8	-0.327874
212	0x01	0.00819685
213	0x2d	0.36885828
214	0xd9	-0.31967717
215	0xec	-0.163937
216	0x13	0.15574016
217	0xbc	-0.5573858
218	0xd1	-0.38525197
219	0xde	-0.2786929
220	0x18	0.19672441
221	0x08	0.0655748
222	0xeb	-0.17213386
223	0x24	0.29508662
224	0xdc	-0.29508662
225	0xba	-0.5737795
226	0x02	0.0163937
227	0xc4	-0.491811
228	0xf5	-0.090165354
229	0x31	0.40164566
230	0x14	0.163937
231	0xe3	-0.23770866
232	0xe9	-0.18852755
233	0x0e	0.114755906
234	0x09	0.073771656
235	0x29	0.33607087
236	0xce	-0.40984252
237	0x0a	0.0819685
238	0xd2	-0.3770551
239	0xf9	-0.057377953
240	0xe2	-0.2459055
241	0xdf	-0.27049607
242	0xf2	-0.114755906
243	0x0a	0.0819685
244	0xde	-0.2786929
245	0x0b	0.090165354
246	0xdc	-0.29508662
247	0xe7	-0.20492126
248	0x0b	0.090165354
249	0x00	0.0
250	0x28	0.327874
251	0x1d	0.23770866
252	0x22	0.2786929
253	0xf7	-0.073771656
254	0x02	0.0163937
255	0xe4	-0.22951181
