model/keypoint_classifier/keypoint_classifier.tflite (tflite, 4880 bytes, 6 tensors)

sequential/dense_2/MatMul f4 [2, 10]
0	0x3d840bdd	0.06447575
1	0xbed37b1d	-0.41304865
2	0x3ed53088	0.4163859
3	0x3d8e8bf6	0.06960289
4	0x3e090e71	0.13384415
5	0xbeb252b6	-0.34828728
6	0x3efa9abf	0.48946187
7	0xbe977809	-0.29583767
8	0x3e0c0aa1	0.1367593
9	0xbf518342	-0.8184091
10	0xbe36278d	-0.17788525
11	0x3e94a8be	0.2903499
12	0xbeb7e294	-0.35915053
13	0x3eba04e9	0.3633187
14	0xbd1f0229	-0.03882042
15	0xbf58b5e5	-0.8465255
16	0xbbc601b5	-0.006042684
17	0xbf2c05cb	-0.6719634
18	0x3f3d74f8	0.74006605
19	0x3ef13613	0.47111568

sequential/dense_1/MatMul f4 [10, 20]
0	0xbe940af5	-0.2891461
1	0xbe7028dc	-0.23453087
2	0xbe644791	-0.22292925
3	0xbe506d1d	-0.20354123
4	0x3e86df8e	0.26342434
5	0x3e904994	0.28181136
6	0x3e01fa34	0.12693101
7	0x3c17cf56	0.009265741
8	0x3de07c50	0.10961211
9	0x3e44187b	0.19149964
10	0xbee3624f	-0.4441094
11	0x3eb0df69	0.34545448
12	0xbd16b76f	-0.03679603
13	0x3ec28d28	0.3799832
14	0x3f05b664	0.5223143
15	0x3e11c532	0.1423538
16	0xbe4a2651	-0.19741179
17	0x3e22cd8c	0.15898722
18	0xbec64370	-0.38723326
19	0x3ef33dfb	0.47508225
20	0x3d8ec079	0.06970305
21	0x3e8a6e28	0.27037168
22	0x3e78de3c	0.24303526
23	0x3e2c03a9	0.16798271
24	0x3e82f6b4	0.25578845
25	0x3c44efcd	0.012020064
26	0x3edfae34	0.43687594
27	0x3eac0673	0.3359867
28	0x3e4d7f66	0.2006813
29	0x3f0b4ed1	0.5441714
30	0x3e62395a	0.2209219
31	0xbdfbc20a	-0.122928694
32	0xbefe3ed5	-0.49657312
33	0x3ecd27b7	0.40069363
34	0x3e07de13	0.13268308
35	0xbe019db0	-0.1265781
36	0x3d0b2a02	0.03397561
37	0xbe1e3019	-0.15448035
38	0xbe2a8aa9	-0.16654457
39	0xbe419594	-0.18904716
40	0xbec44bf1	-0.3833919
41	0x3e58bdef	0.21166204
42	0xbea659d2	-0.32490402
43	0x3b1de91a	0.0024095238
44	0xbd88e505	-0.06684307
45	0xbd5ca698	-0.053869814
46	0xbe67c9db	-0.22635596
47	0x3db2b564	0.08726004
48	0x3ef81409	0.48452786
49	0xbc325668	-0.010884859
50	0x3d21d043	0.039505254
51	0x3e17892a	0.14798418
52	0x3db8e6f6	0.09028427
53	0x3e02543e	0.12727448
54	0x3ec9905d	0.39367953
55	0x3e0d9799	0.13827361
56	0x3eb353b9	0.35024813
57	0x3e4ea215	0.20179017
58	0xbee69b48	-0.45040345
59	0x3eb4124b	0.35170206
60	0xbde02db6	-0.10946219
61	0x3e951f87	0.29125616
62	0xbeb7b92a	-0.35883456
63	0xbe471787	-0.19442569
64	0x3e4c0bbe	0.19926354
65	0x3e67d436	0.22639546
66	0xbe815cb2	-0.25266033
67	0xbdeb8aba	-0.11501069
68	0xbc362993	-0.0111183105
69	0xbe479a33	-0.19492416
70	0xbe96712f	-0.29383227
71	0x3e349412	0.1763461
72	0xbec213b6	-0.37905663
73	0xbd29dc93	-0.04147012
74	0x3d3319f2	0.043725915
75	0x3d4bd0f9	0.04975984
76	0xbeb70f02	-0.35753638
77	0x3e11d21b	0.14240305
78	0xbe907218	-0.28212047
79	0x3ea35816	0.31903142
80	0xbd7e6380	-0.06210661
81	0xbca5812a	-0.020203192
82	0x3e129a03	0.14316563
83	0x3e9f01fc	0.310562
84	0x3e94e358	0.290797
85	0xbed65974	-0.41865122
86	0xbd3188f1	-0.043343488
87	0xbcc803f0	-0.02441594
88	0xbdb622cf	-0.08893358
89	0xbe437d9c	-0.19090885
90	0xbe99b57c	-0.30021274
91	0x3eb4d3c7	0.35317823
92	0x3e5d3976	0.21603951
93	0x3ed2e3ba	0.41189367
94	0x3f0e257a	0.55525935
95	0x3d832bfd	0.064048745
96	0x3e913737	0.28362438
97	0xbd494a4a	-0.049143113
98	0xbeb0fa05	-0.3456575
99	0x3ee02c33	0.4378372
100	0xbea6b762	-0.32561785
101	0x3f0243ba	0.5088459
102	0xbec347ee	-0.38140815
103	0xbdc9098e	-0.098162755
104	0xbe6dd5d0	-0.23226094
105	0xbe461aff	-0.19346236
106	0xbd69fb0b	-0.05712418
107	0xbe717d25	-0.23582895
108	0x3e406efd	0.18792339
109	0xbe0af5e4	-0.13570362
110	0xbe605851	-0.2190869
111	0x3ef42ae2	0.47688967
112	0x3ebceedd	0.36900988
113	0x3e7c3d06	0.24632654
114	0xbd5dd160	-0.054154754
115	0xbd13800b	-0.036010783
116	0x3ee457d9	0.44598272
117	0x3e7950fb	0.24347298
118	0xbe861bb6	-0.26193017
119	0x3ebd553e	0.36979097
120	0x3de2879c	0.11061022
121	0x3d59b1c9	0.053148065
122	0x3e34b30c	0.17646426
123	0x3f14a910	0.5807047
124	0xbde9ae0a	-0.114101484
125	0xbe6d1e4d	-0.2315609
126	0x3db08ac6	0.08620219
127	0xbd88ecc4	-0.066857845
128	0x3ef3bfd9	0.47607306
129	0xbed029fa	-0.40657026
130	0xbe6ff9bd	-0.23435111
131	0x3f4009fe	0.75015247
132	0xbe3d014f	-0.1845753
133	0x3d8c4ebc	0.06850955
134	0x3f187693	0.5955593
135	0x3e95008c	0.2910198
136	0x3ebfdd7f	0.37473676
137	0xbe22c734	-0.15896302
138	0x39e956b8	0.00044505834
139	0x3ef201c1	0.47266963
140	0xbe3abb07	-0.18235408
141	0x3edd5cca	0.43234855
142	0x3e274d7b	0.1633815
143	0xbd383363	-0.04497088
144	0xbe9f3e44	-0.31102192
145	0x3e38fae3	0.18064456
146	0xbe6a590d	-0.22885533
147	0xbe8f71c0	-0.28016472
148	0xbe14053d	-0.14455123
149	0xbd73d069	-0.059524927
150	0xbe65e3af	-0.22450136
151	0x3d91ea28	0.0712474
152	0x3ebfc387	0.37453863
153	0xbcb6d83b	-0.022319904
154	0x3f2f0b4a	0.683766
155	0x3f1cbaf7	0.61222786
156	0x3e99ce45	0.30040184
157	0x3e22b0c0	0.15887737
158	0x3c828426	0.015932154
159	0x3ed28759	0.41118887
160	0x3e9da425	0.30789295
161	0xbcf8b9c7	-0.030362023
162	0x3ee59a6f	0.44844386
163	0xbe0cc05c	-0.13745254
164	0x3eaf79ac	0.34272516
165	0x3ec1b8e8	0.37836385
166	0x3f1124ee	0.56696975
167	0x3ed2e70c	0.411919
168	0xbe2474fb	-0.1606025
169	0x3eeb1eea	0.45922023
170	0x3e955b72	0.2917133
171	0xbee70e5a	-0.45128137
172	0x3de05def	0.109554164
173	0xbe076c9d	-0.13225026
174	0xbe99ef48	-0.3006537
175	0xbead0622	-0.3379374
176	0x3defdbaf	0.11711823
177	0x3e65d717	0.22445332
178	0x3dba6bb0	0.09102571
179	0x3d8072a9	0.0627187
180	0x3e5889e4	0.21146351
181	0x3ebc5347	0.36782286
182	0x3e561b46	0.20908841
183	0xbe2c74f7	-0.16841494
184	0x3e59f284	0.21283919
185	0x3edf603e	0.43628114
186	0x3d578bce	0.052623563
187	0x3eb7feee	0.35936683
188	0x3e7bb824	0.24581963
189	0x3e8c0af5	0.2735211
190	0x3dd8b85d	0.105820395
191	0x3ca42cbb	0.02004086
192	0xbec82c67	-0.39096376
193	0x3e9cac95	0.3060042
194	0xbe5d8bf3	-0.21635418
195	0xbe8182f4	-0.25295222
196	0xbeeda191	-0.46412328
197	0x3e250c28	0.16117918
198	0x3f0dd024	0.5539572
199	0xbe35acc6	-0.17741689

sequential/dense/BiasAdd/ReadVariableOp f4 [20]
0	0xbd1ec397	-0.038760748
1	0xbc9fe562	-0.019518558
2	0xbd95cfe1	-0.073150404
3	0x3d07b047	0.033127096
4	0xbd81e7ff	-0.06343078
5	0xbd71401e	-0.058899038
6	0xbd44e2f3	-0.048068
7	0xbcd8a8c8	-0.026447669
8	0x3da99dde	0.08282064
9	0xbd3ee04e	-0.046600632
10	0xbd80a559	-0.062815376
11	0x3dcc185a	0.09965582
12	0x3d90c03b	0.07067915
13	0x3cb2b212	0.021813426
14	0x3e15f714	0.14645034
15	0x3debb174	0.11508456
16	0x3dc24c0a	0.094871596
17	0x3cccdf7e	0.025008913
18	0xbd4ab7c0	-0.049491644
19	0x3deebbfe	0.116569504

sequential/dense_2/BiasAdd/ReadVariableOp f4 [2]
0	0x3dd68640	0.10474825
1	0xbdd68643	-0.10474827

sequential/dense_1/BiasAdd/ReadVariableOp f4 [10]
0	0x3e0c947e	0.1372852
1	0xbda5b9c7	-0.08092075
2	0x3e0c0d4d	0.13676949
3	0xbd9ffff1	-0.07812489
4	0x3e0abab3	0.13547783
5	0x3e2b92d6	0.16755232
6	0x3e4f98db	0.20273153
7	0x3e0ff7fe	0.14059445
8	0xbd6e2337	-0.058139052
9	0xbd0837ed	-0.03325646

sequential/dense/MatMul i1 [20, 84] scale=0.0029867876 zero_point=0
0	0xe5	-0.08064327
1	0x50	0.23894301
2	0x10	0.0477886
3	0xe9	-0.06869611
4	0xa5	-0.27179766
5	0xfc	-0.01194715
6	0x0d	0.03882824
7	0x23	0.10453757
8	0x1b	0.08064327
9	0x0a	0.029867876
10	0x12	0.053762175
11	0xef	-0.05077539
12	0x1e	0.089603625
13	0xea	-0.06570933
14	0xb8	-0.2150487
15	0x44	0.20310156
16	0x1a	0.07765648
17	0x24	0.10752435
18	0x3a	0.17323367
19	0x55	0.25387695
20	0xe5	-0.08064327
21	0xff	-0.0029867876
22	0x0e	0.041815028
23	0xa8	-0.26283732
24	0x08	0.0238943
25	0x09	0.026881088
26	0x3f	0.18816762
27	0x38	0.16726011
28	0x2e	0.13739222
29	0x31	0.14635259
30	0x0a	0.029867876
31	0xb2	-0.23296943
32	0xea	-0.06570933
33	0xd4	-0.13141866
34	0xce	-0.14933938
35	0x07	0.020907514
36	0xd1	-0.14037901
37	0xd7	-0.122458294
38	0x22	0.10155078
39	0xe1	-0.092590414
40	0xbb	-0.20608835
41	0x13	0.056748964
42	0x0a	0.029867876
43	0x22	0.10155078
44	0xf9	-0.020907514
45	0x27	0.11648472
46	0x57	0.25985053
47	0x54	0.25089017
48	0x1d	0.08661684
49	0xde	-0.10155078
50	0x2b	0.12843187
51	0xf9	-0.020907514
52	0xe5	-0.08064327
53	0xf5	-0.032854665
54	0xc7	-0.1702469
55	0x37	0.16427332
56	0x1e	0.089603625
57	0xbb	-0.20608835
58	0xfa	-0.017920725
59	0x25	0.11051114
60	0x20	0.0955772
61	0xd3	-0.13440543
62	0x4b	0.22400907
63	0x14	0.059735753
64	0xbf	-0.1941412
65	0xe7	-0.07466969
66	0x41	0.1941412
67	0x39	0.1702469
68	0xd6	-0.12544508
69	0x0a	0.029867876
70	0xe5	-0.08064327
71	0x3f	0.18816762
72	0xec	-0.059735753
73	0x00	0.0
74	0x36	0.16128653
75	0xd6	-0.12544508
76	0xc0	-0.1911544
77	0x38	0.16726011
78	0x42	0.19712798
79	0x3f	0.18816762
80	0x4a	0.22102228
81	0xfe	-0.005973575
82	0xc3	-0.18219404
83	0xdc	-0.10752435
84	0x29	0.122458294
85	0xe0	-0.0955772
86	0xcd	-0.15232617
87	0x0f	0.044801813
88	0xe6	-0.07765648
89	0x4e	0.23296943
90	0xfc	-0.01194715
91	0x53	0.24790338
92	0x04	0.01194715
93	0xd6	-0.12544508
94	0x23	0.10453757
95	0xf4	-0.03584145
96	0xbc	-0.20310156
97	0x2e	0.13739222
98	0x20	0.0955772
99	0xeb	-0.06272254
100	0xfb	-0.014933938
101	0xcd	-0.15232617
102	0xbc	-0.20310156
103	0x16	0.06570933
104	0xcd	-0.15232617
105	0xda	-0.11349793
106	0x0b	0.032854665
107	0xd3	-0.13440543
108	0xc6	-0.17323367
109	0x4e	0.23296943
110	0x34	0.15531296
111	0xdb	-0.11051114
112	0x0c	0.03584145
113	0x25	0.11051114
114	0xcf	-0.14635259
115	0xae	-0.24491659
116	0xbc	-0.20310156
117	0x44	0.20310156
118	0x13	0.056748964
119	0xd7	-0.122458294
120	0xbd	-0.20011477
121	0x0a	0.029867876
122	0x15	0.06272254
123	0xfb	-0.014933938
124	0xdd	-0.10453757
125	0xe3	-0.08661684
126	0xc7	-0.1702469
127	0x24	0.10752435
128	0xd2	-0.13739222
129	0x48	0.2150487
130	0xf3	-0.03882824
131	0xc7	-0.1702469
132	0xb7	-0.21803549
133	0x22	0.10155078
134	0xcd	-0.15232617
135	0x4a	0.22102228
136	0xd0	-0.1433658
137	0x13	0.056748964
138	0xd3	-0.13440543
139	0x31	0.14635259
140	0x34	0.15531296
141	0x55	0.25387695
142	0xe8	-0.0716829
143	0x3f	0.18816762
144	0x33	0.15232617
145	0x26	0.11349793
146	0x06	0.017920725
147	0x54	0.25089017
148	0x1f	0.092590414
149	0xf6	-0.029867876
150	0x00	0.0
151	0xc0	-0.1911544
152	0x06	0.017920725
153	0xe4	-0.083630055
154	0xc5	-0.17622046
155	0xe2	-0.089603625
156	0xfe	-0.005973575
157	0xf4	-0.03584145
158	0xd5	-0.12843187
159	0x2b	0.12843187
160	0xfa	-0.017920725
161	0x2e	0.13739222
162	0x47	0.21206191
163	0x2d	0.13440543
164	0xf2	-0.041815028
165	0xbb	-0.20608835
166	0x35	0.15829974
167	0x32	0.14933938
168	0x4c	0.22699586
169	0xfa	-0.017920725
170	0xc5	-0.17622046
171	0x17	0.06869611
172	0xde	-0.10155078
173	0x1f	0.092590414
174	0xc6	-0.17323367
175	0x2b	0.12843187
176	0xf9	-0.020907514
177	0x1c	0.083630055
178	0xe4	-0.083630055
179	0x2e	0.13739222
180	0xcb	-0.15829974
181	0xa8	-0.26283732
182	0xf7	-0.026881088
183	0xaa	-0.25686374
184	0x33	0.15232617
185	0x09	0.026881088
186	0x51	0.2419298
187	0xd7	-0.122458294
188	0x27	0.11648472
189	0xae	-0.24491659
190	0xd6	-0.12544508
191	0xc5	-0.17622046
192	0xf2	-0.041815028
193	0xde	-0.10155078
194	0x3d	0.18219404
195	0xfc	-0.01194715
196	0x03	0.0089603625
197	0x07	0.020907514
198	0x38	0.16726011
199	0x11	0.05077539
200	0x09	0.026881088
201	0x00	0.0
202	0xef	-0.05077539
203	0x94	-0.32257307
204	0x20	0.0955772
205	0xb9	-0.21206191
206	0xf3	-0.03882824
207	0xff	-0.0029867876
208	0x49	0.21803549
209	0x0d	0.03882824
210	0x36	0.16128653
211	0x08	0.0238943
212	0x02	0.005973575
213	0x69	0.3136127
214	0x00	0.0
215	0x1e	0.089603625
216	0x34	0.15531296
217	0x52	0.24491659
218	0x17	0.06869611
219	0x05	0.014933938
220	0x5d	0.27777123
221	0xdc	-0.10752435
222	0x3e	0.18518083
223	0xba	-0.20907514
224	0x37	0.16427332
225	0x2f	0.14037901
226	0xb8	-0.2150487
227	0x07	0.020907514
228	0x32	0.14933938
229	0xee	-0.053762175
230	0x1a	0.07765648
231	0xd0	-0.1433658
232	0x16	0.06570933
233	0xe9	-0.06869611
234	0xbc	-0.20310156
235	0xbb	-0.20608835
236	0xa3	-0.27777123
237	0xf5	-0.032854665
238	0x05	0.014933938
239	0xc0	-0.1911544
240	0xa8	-0.26283732
241	0x04	0.01194715
242	0xb0	-0.23894301
243	0x8f	-0.337507
244	0xbb	-0.20608835
245	0x12	0.053762175
246	0xb4	-0.22699586
247	0xbe	-0.19712798
248	0x9f	-0.2897184
249	0xc5	-0.17622046
250	0x11	0.05077539
251	0xff	-0.0029867876
252	0xdc	-0.10752435
253	0x47	0.21206191
254	0x14	0.059735753
255	0xaf	-0.2419298
