model/keypoint_classifier/keypoint_classifier.tflite (tflite, 19752 bytes, 6 tensors)

sequential_20/dense_62/MatMul f4 [16, 50]
0	0x3cb47426	0.02202804
1	0xbcc1c35b	-0.023652723
2	0xbcc5b650	-0.024134785
3	0x3e1d17c9	0.15341105
4	0xbe96ed1c	-0.29477775
5	0xbd78fabb	-0.06078599
6	0x3ed83e13	0.4223486
7	0xbe3e6780	-0.1859417
8	0xbe9ea16c	-0.3098253
9	0x3d20b866	0.039238356
10	0x3e80a9a1	0.25129417
11	0xbe4b6b04	-0.19865042
12	0x3dd1c3ea	0.10242446
13	0xbecf6e76	-0.40513963
14	0xbd99da2d	-0.07512317
15	0xbf18f887	-0.5975422
16	0x3e643088	0.22284138
17	0x3cb4e159	0.02208011
18	0xbeb8bbaa	-0.36080676
19	0xbe7f2bcc	-0.24919051
20	0x3ebda60e	0.37040752
21	0x3e905651	0.28190854
22	0xbe95abbf	-0.29232594
23	0xbebd27bd	-0.3694438
24	0x3d10560b	0.035238307
25	0xbdda8842	-0.1067052
26	0xbeb8922b	-0.36049017
27	0xbe8c69db	-0.2742451
28	0xbcd6fa15	-0.026242295
29	0xbe625b95	-0.22105248
30	0xbe7f73cc	-0.24946517
31	0xbd77bb7f	-0.060481545
32	0xbe250c3f	-0.16117953
33	0xbec81ded	-0.39085332
34	0xbda14124	-0.07873753
35	0xbe4e345a	-0.20137158
36	0x3ec19243	0.378069
37	0x3c7f0cb3	0.015566993
38	0x3e9cacd2	0.306006
39	0x3ecc3a39	0.3988817
40	0xbee71a2a	-0.4513715
41	0x3e99e356	0.30056256
42	0xbe5d22d5	-0.21595319
43	0x3dee01df	0.11621451
44	0x3e9a2f06	0.30114
45	0x3e43f1c7	0.191352
46	0xbe991043	-0.2989522
47	0xbe61fab9	-0.220683
48	0x3ea156e1	0.31511596
49	0x3e097ee7	0.13427316
50	0xbeff80d0	-0.49902964
51	0xbee171bf	-0.44032094
52	0xbef027c2	-0.46905333
53	0x3e2bdd25	0.16783579
54	0xbdfca01a	-0.123352244
55	0xbe9b0780	-0.3027916
56	0xbe87d3ee	-0.26528877
57	0x3ed7193b	0.42011437
58	0x3c2b955b	0.010472621
59	0xbeb8ca9a	-0.36092073
60	0xbe3714bb	-0.17879002
61	0x3dca4849	0.098770685
62	0xbdddfa80	-0.10838795
63	0x3de1c21d	0.11023352
64	0xbdf3c3c4	-0.11902574
65	0x3ea62ac3	0.324545
66	0xbd75cb3c	-0.060008273
67	0xbe01d566	-0.12679061
68	0x3e269aa6	0.16269931
69	0x3ea58a67	0.32332155
70	0x3ed76224	0.42067063
71	0xbe9327c2	-0.2874127
72	0x3e490ef5	0.19634612
73	0xbeb54d4a	-0.3541053
74	0x3c456016	0.012046834
75	0xbf05f7ef	-0.5233144
76	0xbe844e5f	-0.25841042
77	0xbc65f423	-0.0140352575
78	0xbe534f49	-0.20635714
79	0xbebd7be9	-0.37008598
80	0x3e024c75	0.12724479
81	0xbe12591a	-0.14291802
82	0xbe25bbb2	-0.16184881
83	0x3efd5214	0.49476683
84	0xbe0f6672	-0.14003924
85	0xbf000200	-0.5000305
86	0x3dad9acd	0.084767915
87	0xbec688b6	-0.38776177
88	0x3ef109b6	0.4707772
89	0xbeb213af	-0.34780642
90	0xbeccd814	-0.40008605
91	0x3ec56696	0.3855483
92	0x3cb25b5a	0.021772075
93	0xbedd30e1	-0.43201354
94	0x3b90614a	0.004406129
95	0xbee2e52b	-0.44315466
96	0xbef5b873	-0.47992286
97	0xbe8ab57f	-0.27091596
98	0x3e5149e2	0.2043834
99	0x3e2b59d5	0.16733487
100	0xbe112e3e	-0.14177796
101	0x3e8a4c92	0.27011544
102	0xbd8a2ad8	-0.06746453
103	0xbc6722f3	-0.014107454
104	0x3e896d58	0.26841235
105	0xbe837286	-0.25673312
106	0x3d9bce75	0.07607738
107	0x3d8e5f38	0.06951755
108	0x3e571bf0	0.21006751
109	0xbefdaa88	-0.49544168
110	0xbeb8584f	-0.36004874
111	0x3e3ad9d0	0.18247151
112	0x3dc4948f	0.09598648
113	0xbe96dbb8	-0.29464507
114	0xbea53f04	-0.3227464
115	0x3d595cb6	0.05306693
116	0x3d977f0f	0.073972814
117	0xbe3b4e37	-0.18291555
118	0x3e85c0cc	0.26123655
119	0x3e916456	0.28396863
120	0x3e1555af	0.14583467
121	0xbda3dddb	-0.080013
122	0xbe2796ad	-0.16366072
123	0x3eab01c3	0.33399782
124	0x3e1f0dbc	0.15532583
125	0x3e9d3265	0.3070251
126	0xbbf54151	-0.007484593
127	0x3e377417	0.17915379
128	0xbe126197	-0.1429504
129	0xbe78e5aa	-0.2430636
130	0xbd7323d6	-0.059360348
131	0xbb521ab3	-0.003205937
132	0xbefdfbe2	-0.49606234
133	0xbe907d41	-0.2822056
134	0xbe54f169	-0.20795216
135	0x3d8e1e27	0.06939345
136	0xbe1c67b8	-0.1527394
137	0xbcfe1668	-0.031016544
138	0xbe0fb931	-0.14035489
139	0xbe2a2cf7	-0.16618715
140	0x3e8134aa	0.25235492
141	0x3ea3d95c	0.3200177
142	0x3e8b3f45	0.27196708
143	0x3dea2996	0.11433713
144	0x3e7c2652	0.24623993
145	0xbd9b697c	-0.07588479
146	0x3e15fa8f	0.14646362
147	0x3e1d0955	0.15335591
148	0xbe426a8d	-0.18985958
149	0x3ea65f74	0.324947
150	0xbeaf2ba3	-0.3421298
151	0xbf0c16e4	-0.5472243
152	0x3e2060f8	0.1566199
153	0xbe577de3	-0.21044116
154	0xbed0c38f	-0.407742
155	0xbef5b4bf	-0.4798946
156	0xbdf43a7b	-0.11925217
157	0x3da00f73	0.07815447
158	0x3e0ee9b0	0.13956332
159	0x3dec2a9a	0.11531563
160	0xbef3ce6e	-0.4761843
161	0x3e078e05	0.1323777
162	0xbed6484e	-0.4185204
163	0xbe7dfc70	-0.24803329
164	0x3ea3e1fb	0.32008347
165	0x3e458073	0.1928728
166	0x3ee0d2d8	0.4391086
167	0x3ef5f710	0.48040056
168	0xbf02a755	-0.5103658
169	0x3da7a42b	0.081856094
170	0x3e9746bc	0.29546154
171	0xbf070c94	-0.5275357
172	0x3dc82078	0.09771818
173	0x3df69a0c	0.12041101
174	0xbeeb92f8	-0.46010566
175	0xbd30d77e	-0.04317426
176	0x3e4e2048	0.20129502
177	0xbeda0c71	-0.42587617
178	0xbe105bf8	-0.14097583
179	0x3ea65abc	0.324911
180	0x3d2e36a6	0.042532586
181	0xbeb4047b	-0.35159668
182	0x3dc08af4	0.09401503
183	0x3e5315bb	0.20613758
184	0x3e9937a9	0.29925278
185	0xbe2939d1	-0.16525961
186	0xbe19ac03	-0.15007024
187	0x3ed747e0	0.42047024
188	0x3e149dd5	0.14513333
189	0xbed56ca3	-0.41684446
190	0xbe9d0b3b	-0.3067263
191	0x3dacb07d	0.084321
192	0xbf286525	-0.65779334
193	0xbd3ca73d	-0.04605793
194	0xbe25fe82	-0.16210368
195	0xbf5cd2cd	-0.86259156
196	0xbd8d4075	-0.0689706
197	0xbdcabdaa	-0.09899457
198	0xbe41d341	-0.18928243
199	0xbe4804fb	-0.1953315
200	0xbe9722e5	-0.2951881
201	0xbe88be51	-0.267077
202	0x3e675012	0.22589138
203	0x3ed33601	0.4125214
204	0xbf00d84f	-0.5033006
205	0xbe81166c	-0.2521242
206	0x3eac560a	0.33659393
207	0x3d09446f	0.03351253
208	0xbe38982d	-0.180268
209	0xbd091994	-0.03347166
210	0x3cd07484	0.025446184
211	0xbd675ba9	-0.0564839
212	0xbd8b1920	-0.067919016
213	0x3cf8e777	0.030383809
214	0xbec92ee9	-0.39293602
215	0xbdb78766	-0.08961372
216	0xbec06a42	-0.37581068
217	0xbf15bedb	-0.5849435
218	0xbe65753e	-0.22408006
219	0xbe26d56f	-0.16292356
220	0x3d8b50c7	0.068025164
221	0xbe77a9bd	-0.24185844
222	0x3cfc6061	0.030807676
223	0xbe6e9760	-0.23299932
224	0xbee09aca	-0.43868095
225	0xbe073c68	-0.13206637
226	0xbee29ea7	-0.44261667
227	0xbe9d2b3a	-0.30697042
228	0x3e6c7ea5	0.23095186
229	0x3e715906	0.23569116
230	0x3eb38b2b	0.35067114
231	0xbe8127e8	-0.2522576
232	0x3efbb11d	0.49158564
233	0x3c69752f	0.01424913
234	0x3ed45ec3	0.41478547
235	0x3dcfe1e8	0.1015051
236	0xbd390fda	-0.045181133
237	0xbe2aa6de	-0.16665217
238	0xbd083dd3	-0.033262085
239	0x3ddcc40b	0.1077958
240	0xbdbd0016	-0.09228532
241	0xbedf43e9	-0.436065
242	0xbe9baa1c	-0.3040322
243	0xbd55ba75	-0.052179772
244	0x3ec32971	0.38117555
245	0xbdae4379	-0.08508963
246	0x3e8c0565	0.27347866
247	0xbdd9dc26	-0.10637693
248	0x3e026574	0.12734014
249	0x3e025ba5	0.12730272
250	0x3e0845cb	0.13307874
251	0x3e9169bd	0.28400984
252	0x3e267994	0.16257316
253	0xbe043d2a	-0.12913957
254	0xbeea7c54	-0.4579798
255	0x3e9a2ee7	0.3011391

sequential_20/dense_62/BiasAdd/ReadVariableOp f4 [16]
0	0xbe24afe4	-0.16082722
1	0x3d6c216f	0.057649072
2	0x3d555fa7	0.052093174
3	0x3e3a3dfb	0.18187706
4	0x3da9df0b	0.08294495
5	0xbe601bb9	-0.21885575
6	0x3b2f5a28	0.0026756618
7	0x3da49cb7	0.080377035
8	0x3d164c85	0.03669407
9	0x3e2d4801	0.16921999
10	0xbe04d2e6	-0.12971076
11	0x3d53446c	0.051578924
12	0xbd892712	-0.06696905
13	0xbd4cc0ef	-0.049988683
14	0x3daa00bf	0.083009236
15	0xbd26370d	-0.040579844

sequential_20/dense_61/BiasAdd/ReadVariableOp f4 [50]
0	0x3dadf14d	0.0849329
1	0xbc57d188	-0.013172515
2	0x3d1d687e	0.03842973
3	0x3e0f8976	0.14017281
4	0x3e6981f8	0.22803485
5	0xbdd91d0a	-0.10601242
6	0x3df190db	0.11795207
7	0x3df0e5f7	0.11762612
8	0x3db756d7	0.0895211
9	0x3e5da436	0.21644673
10	0x3dba15e4	0.090862066
11	0x3e30d2ae	0.17267868
12	0x3d87764c	0.0661436
13	0x3e8e5580	0.27799606
14	0x3e49a719	0.19692649
15	0x3e93b0c4	0.288458
16	0x3e3827c6	0.17983922
17	0x3ca9c88e	0.020725515
18	0x3deae16a	0.114687756
19	0x3e95aa98	0.29231715
20	0x3e56d945	0.20981319
21	0xbdc595b8	-0.09647697
22	0x3d9d1114	0.07669273
23	0x3dd5770e	0.104230985
24	0x3d9da75e	0.076979384
25	0x3e88ffa8	0.2675755
26	0x3ea3ee88	0.32017922
27	0xbe3e0b1a	-0.18558922
28	0xbdd84ad3	-0.105611466
29	0x3ea0717e	0.31336588
30	0x3e67a351	0.22620894
31	0x3ce0e562	0.027453128
32	0x3e502c3b	0.20329373
33	0x3e7ba765	0.24575575
34	0x3e0781d0	0.13233113
35	0x3e6c6c69	0.2308823
36	0x3d5a9de3	0.05337323
37	0x3e816304	0.25270855
38	0xbb822965	-0.00397222
39	0xbe586d32	-0.21135405
40	0x3e07ded5	0.13268597
41	0x3e094d98	0.13408506
42	0x3e37c2bf	0.17945383
43	0xbaf2e97e	-0.0018532721
44	0xbe1cb46b	-0.15303199
45	0xbd3e8945	-0.04651763
46	0x3e2842d1	0.16431738
47	0xbddcfc08	-0.10790259
48	0xbd428b7f	-0.047496315
49	0x3e039e3e	0.12853333

sequential_20/dense_60/BiasAdd/ReadVariableOp f4 [100]
0	0xbe8bbacd	-0.27290955
1	0x3de7ba04	0.113147765
2	0xbd6e2262	-0.05813826
3	0x3d869efa	0.06573291
4	0xbd81313d	-0.063082196
5	0xbe1535f4	-0.14571363
6	0xbe49ee7f	-0.19719885
7	0xbd97b933	-0.07408371
8	0xbd18eabc	-0.037333235
9	0x3d37dbfe	0.044887535
10	0x3de5a11e	0.11212371
11	0xbe9deab8	-0.3084314
12	0xbd4c9fc7	-0.049957063
13	0xbdaa10e9	-0.083040066
14	0x3e639e67	0.22228394
15	0x3d9dc7f5	0.077041544
16	0xbca11539	-0.01966344
17	0xbc99069f	-0.018679915
18	0xbd8ffd26	-0.07030706
19	0xbc35e1c9	-0.011101195
20	0x3e148b84	0.14506346
21	0xbe3ead57	-0.18620811
22	0x3d79f1c2	0.061021574
23	0xbe81bbd0	-0.25338602
24	0xbe246ee7	-0.16057931
25	0xbc29fce0	-0.0103752315
26	0x3d084680	0.03327036
27	0xbdd4eed7	-0.103971176
28	0xbe8c2d4e	-0.27378315
29	0xbdedad5d	-0.11605332
30	0xbe4a9348	-0.19782746
31	0xbe624e4f	-0.22100185
32	0x3e804408	0.25051904
33	0xbe69e18c	-0.22839946
34	0xbe31f82d	-0.17379828
35	0x3e4eec49	0.20207323
36	0x3e35f231	0.1776817
37	0xbeb30c59	-0.34970358
38	0xbd06e96f	-0.032937463
39	0xbe416e1b	-0.18889658
40	0xbd949b86	-0.07256226
41	0xbe0bc98c	-0.13651103
42	0x3b5a0d16	0.003327196
43	0xbd8a7e05	-0.067623176
44	0xbe66c3f5	-0.22535689
45	0x3e7fa71b	0.2496609
46	0x3ab2aba8	0.001363148
47	0xbd5e9f6e	-0.054351263
48	0xbea3cca8	-0.31992078
49	0xbd1c8dd4	-0.038221195
50	0xbddf4ed3	-0.109037064
51	0xbe25e7d0	-0.1620171
52	0xbe637759	-0.22213496
53	0x3b164f86	0.0022935583
54	0x3e3f4e59	0.18682231
55	0x3e23f72d	0.16012259
56	0xbd188517	-0.0372363
57	0x3d7cd35d	0.06172501
58	0x3cec1684	0.02881933
59	0x3ca57531	0.020197483
60	0x3d6d6823	0.05796064
61	0xbd8f87b6	-0.07008307
62	0x3e0c960d	0.13729115
63	0xbe0a05ba	-0.13478747
64	0x3ce118ca	0.02747764
65	0x3db58308	0.08862883
66	0xbd770176	-0.060304128
67	0xbe07397b	-0.13205521
68	0x3df3fe4b	0.11913737
69	0x3e627a9e	0.22117087
70	0x3cccf5d4	0.025019564
71	0x3ab047aa	0.0013449092
72	0x3ce917f4	0.028453805
73	0x3d8e4946	0.069475695
74	0xbe3148df	-0.17312954
75	0x3e024d97	0.1272491
76	0x3e8ac868	0.27106023
77	0x3d0f52a1	0.03499091
78	0xbc6bfde7	-0.014403797
79	0x3dbf63da	0.09345217
80	0xbe86027c	-0.2617377
81	0x3d6dc44d	0.058048535
82	0x3c1711e5	0.009220575
83	0x3e147857	0.14499031
84	0xbe0d7f7f	-0.13818167
85	0xbe06d8a0	-0.13168573
86	0x3e3f4523	0.18678717
87	0xbe233ea3	-0.15941863
88	0x3d899614	0.06718078
89	0xbdcc815e	-0.09985612
90	0xbd2c34da	-0.04204259
91	0x3cc6b24c	0.02425494
92	0xbde009a1	-0.109393366
93	0xbe4a596b	-0.19760673
94	0x3e03bacc	0.12864226
95	0xbd78ce35	-0.06074353
96	0xbcfda09b	-0.030960372
97	0xbe8c9ca0	-0.27463245
98	0xbd843b70	-0.06456649
99	0x3e0f8f08	0.14019406

sequential_20/dense_60/MatMul i1 [100, 86] scale=0.009765079 zero_point=0
0	0x0a	0.097650796
1	0x66	0.9960381
2	0xf0	-0.15624127
3	0xf6	-0.097650796
4	0xf1	-0.1464762
5	0x03	0.029295238
6	0x06	0.058590475
7	0x04	0.039060317
8	0x08	0.078120634
9	0x0a	0.097650796
10	0x0c	0.11718095
11	0xff	-0.009765079
12	0xee	-0.17577143
13	0xfe	-0.019530158
14	0x06	0.058590475
15	0x05	0.048825398
16	0x1a	0.25389206
17	0x11	0.16600634
18	0x05	0.048825398
19	0x11	0.16600634
20	0xfb	-0.048825398
21	0x04	0.039060317
22	0xd9	-0.3808381
23	0x08	0.078120634
24	0xe6	-0.25389206
25	0xfc	-0.039060317
26	0xed	-0.1855365
27	0x13	0.1855365
28	0xf5	-0.10741587
29	0x09	0.087885715
30	0xd4	-0.42966348
31	0xfe	-0.019530158
32	0xe3	-0.2831873
33	0x02	0.019530158
34	0xcd	-0.49801904
35	0x0b	0.10741587
36	0xda	-0.371073
37	0xfa	-0.058590475
38	0xcc	-0.5077841
39	0x00	0.0
40	0xd1	-0.45895872
41	0x07	0.06835555
42	0xda	-0.371073
43	0xf4	-0.11718095
44	0xee	-0.17577143
45	0x08	0.078120634
46	0xf9	-0.06835555
47	0x0c	0.11718095
48	0xf6	-0.097650796
49	0xfc	-0.039060317
50	0x09	0.087885715
51	0xf7	-0.087885715
52	0x26	0.371073
53	0x03	0.029295238
54	0x20	0.31248254
55	0xf6	-0.097650796
56	0x45	0.67379045
57	0xf3	-0.12694603
58	0x4e	0.7616762
59	0xeb	-0.20506667
60	0x2b	0.41989842
61	0x04	0.039060317
62	0x0a	0.097650796
63	0xf6	-0.097650796
64	0x23	0.34177777
65	0xfd	-0.029295238
66	0x1e	0.2929524
67	0xff	-0.009765079
68	0x22	0.33201268
69	0x08	0.078120634
70	0xfe	-0.019530158
71	0xfe	-0.019530158
72	0x08	0.078120634
73	0x0a	0.097650796
74	0x29	0.40036824
75	0x04	0.039060317
76	0x34	0.5077841
77	0x01	0.009765079
78	0xff	-0.009765079
79	0x03	0.029295238
80	0xee	-0.17577143
81	0xf7	-0.087885715
82	0x00	0.0
83	0xff	-0.009765079
84	0x17	0.22459683
85	0x0f	0.1464762
86	0xee	-0.17577143
87	0xb2	-0.7616762
88	0x04	0.039060317
89	0xfd	-0.029295238
90	0xe2	-0.2929524
91	0x06	0.058590475
92	0xe2	-0.2929524
93	0xf9	-0.06835555
94	0xf1	-0.1464762
95	0xf8	-0.078120634
96	0xf4	-0.11718095
97	0xf6	-0.097650796
98	0x11	0.16600634
99	0x02	0.019530158
100	0x23	0.34177777
101	0xfc	-0.039060317
102	0x4c	0.742146
103	0xfc	-0.039060317
104	0x47	0.69332063
105	0xf2	-0.1367111
106	0x1a	0.25389206
107	0x00	0.0
108	0x37	0.53707933
109	0x03	0.029295238
110	0x1e	0.2929524
111	0x02	0.019530158
112	0x03	0.029295238
113	0xf4	-0.11718095
114	0x2f	0.45895872
115	0x07	0.06835555
116	0x47	0.69332063
117	0x05	0.048825398
118	0x42	0.64449525
119	0xff	-0.009765079
120	0x28	0.39060318
121	0xf7	-0.087885715
122	0x32	0.48825395
123	0xfe	-0.019530158
124	0x44	0.66402537
125	0x04	0.039060317
126	0x4f	0.7714413
127	0xfd	-0.029295238
128	0x30	0.4687238
129	0xfe	-0.019530158
130	0xff	-0.009765079
131	0x08	0.078120634
132	0xf5	-0.10741587
133	0x10	0.15624127
134	0xe6	-0.25389206
135	0x08	0.078120634
136	0xed	-0.1855365
137	0x10	0.15624127
138	0xf1	-0.1464762
139	0x07	0.06835555
140	0xe1	-0.30271745
141	0xfb	-0.048825398
142	0xe7	-0.24412698
143	0x04	0.039060317
144	0xdd	-0.34177777
145	0xfd	-0.029295238
146	0xed	-0.1855365
147	0xfd	-0.029295238
148	0xfc	-0.039060317
149	0x0a	0.097650796
150	0xde	-0.33201268
151	0x06	0.058590475
152	0xe6	-0.25389206
153	0x03	0.029295238
154	0x07	0.06835555
155	0x06	0.058590475
156	0x02	0.019530158
157	0x05	0.048825398
158	0x01	0.009765079
159	0x13	0.1855365
160	0xfe	-0.019530158
161	0x0d	0.12694603
162	0xf7	-0.087885715
163	0x15	0.20506667
164	0xf2	-0.1367111
165	0x0a	0.097650796
166	0xfd	-0.029295238
167	0x02	0.019530158
168	0x03	0.029295238
169	0x03	0.029295238
170	0xf3	-0.12694603
171	0x13	0.1855365
172	0x00	0.0
173	0xfa	-0.058590475
174	0x02	0.019530158
175	0xe8	-0.2343619
176	0x0f	0.1464762
177	0xe6	-0.25389206
178	0xfb	-0.048825398
179	0xe4	-0.2734222
180	0x01	0.009765079
181	0xf3	-0.12694603
182	0xff	-0.009765079
183	0xfe	-0.019530158
184	0x08	0.078120634
185	0xe6	-0.25389206
186	0x05	0.048825398
187	0xf6	-0.097650796
188	0x05	0.048825398
189	0xe4	-0.2734222
190	0x07	0.06835555
191	0xec	-0.19530159
192	0x0f	0.1464762
193	0xfe	-0.019530158
194	0xfa	-0.058590475
195	0xf2	-0.1367111
196	0x10	0.15624127
197	0x00	0.0
198	0x08	0.078120634
199	0xf9	-0.06835555
200	0xfd	-0.029295238
201	0xef	-0.16600634
202	0xff	-0.009765079
203	0xe7	-0.24412698
204	0xfd	-0.029295238
205	0xf1	-0.1464762
206	0x03	0.029295238
207	0x00	0.0
208	0x07	0.06835555
209	0xee	-0.17577143
210	0xff	-0.009765079
211	0xff	-0.009765079
212	0xfe	-0.019530158
213	0xea	-0.21483174
214	0x0e	0.1367111
215	0x02	0.019530158
216	0xf8	-0.078120634
217	0xf8	-0.078120634
218	0xfa	-0.058590475
219	0xf3	-0.12694603
220	0xec	-0.19530159
221	0x0a	0.097650796
222	0xd7	-0.40036824
223	0x07	0.06835555
224	0xd5	-0.41989842
225	0x06	0.058590475
226	0x0b	0.10741587
227	0x04	0.039060317
228	0x30	0.4687238
229	0xe9	-0.22459683
230	0x35	0.5175492
231	0xe4	-0.2734222
232	0x25	0.36130792
233	0xde	-0.33201268
234	0x01	0.009765079
235	0x04	0.039060317
236	0x23	0.34177777
237	0x0b	0.10741587
238	0x34	0.5077841
239	0x13	0.1855365
240	0x34	0.5077841
241	0x26	0.371073
242	0x18	0.2343619
243	0xf7	-0.087885715
244	0x28	0.39060318
245	0xf7	-0.087885715
246	0x22	0.33201268
247	0x04	0.039060317
248	0x22	0.33201268
249	0xf6	-0.097650796
250	0x04	0.039060317
251	0x03	0.029295238
252	0x06	0.058590475
253	0x0b	0.10741587
254	0x22	0.33201268
255	0x0b	0.10741587

sequential_20/dense_61/MatMul i1 [50, 100] scale=0.0055460664 zero_point=0
0	0x32	0.2773033
1	0x0b	0.061006732
2	0x28	0.22184266
3	0x26	0.21075052
4	0x0f	0.083191
5	0x38	0.31057972
6	0xe3	-0.16083592
7	0xf0	-0.08873706
8	0x1d	0.16083592
9	0x0b	0.061006732
10	0x1e	0.166382
11	0x02	0.011092133
12	0x33	0.2828494
13	0xc3	-0.33831006
14	0xfc	-0.022184266
15	0xfa	-0.033276398
16	0x36	0.2994876
17	0x01	0.0055460664
18	0x54	0.46586958
19	0x0a	0.055460665
20	0x4f	0.43813926
21	0xf0	-0.08873706
22	0x1b	0.1497438
23	0xf2	-0.07764493
24	0x1b	0.1497438
25	0xe6	-0.14419773
26	0x39	0.31612578
27	0x27	0.2162966
28	0xfc	-0.022184266
29	0xc6	-0.32167184
30	0x1a	0.14419773
31	0x05	0.027730333
32	0x0b	0.061006732
33	0x13	0.10537526
34	0x11	0.09428313
35	0x14	0.11092133
36	0xfd	-0.016638199
37	0xf8	-0.04436853
38	0xfd	-0.016638199
39	0x11	0.09428313
40	0x1a	0.14419773
41	0x0c	0.066552795
42	0x92	-0.6100673
43	0x22	0.18856625
44	0x2f	0.26066512
45	0xd9	-0.2162966
46	0xa5	-0.504692
47	0x19	0.13865165
48	0x0b	0.061006732
49	0xbe	-0.36604038
50	0x10	0.08873706
51	0x17	0.12755953
52	0xf9	-0.038822465
53	0x14	0.11092133
54	0x2c	0.24402693
55	0x15	0.116467394
56	0xd6	-0.23293479
57	0x03	0.016638199
58	0xe6	-0.14419773
59	0xea	-0.122013465
60	0x11	0.09428313
61	0x1d	0.16083592
62	0xed	-0.10537526
63	0x15	0.116467394
64	0xfa	-0.033276398
65	0xe6	-0.14419773
66	0xf1	-0.083191
67	0x05	0.027730333
68	0xfd	-0.016638199
69	0x11	0.09428313
70	0x2c	0.24402693
71	0x05	0.027730333
72	0xfe	-0.011092133
73	0x19	0.13865165
74	0x05	0.027730333
75	0xed	-0.10537526
76	0x31	0.27175725
77	0x06	0.033276398
78	0xbd	-0.37158644
79	0x12	0.0998292
80	0xe5	-0.1497438
81	0x20	0.17747413
82	0x11	0.09428313
83	0xf3	-0.072098866
84	0x0c	0.066552795
85	0xee	-0.0998292
86	0x40	0.35494825
87	0xfe	-0.011092133
88	0xe9	-0.12755953
89	0x04	0.022184266
90	0x2c	0.24402693
91	0x0a	0.055460665
92	0xfb	-0.027730333
93	0x07	0.038822465
94	0x10	0.08873706
95	0xb7	-0.40486285
96	0xbd	-0.37158644
97	0x0f	0.083191
98	0x39	0.31612578
99	0x06	0.033276398
100	0xcf	-0.27175725
101	0x75	0.6488898
102	0xf7	-0.0499146
103	0xd9	-0.2162966
104	0x05	0.027730333
105	0xff	-0.0055460664
106	0xf8	-0.04436853
107	0x0f	0.083191
108	0xe1	-0.17192806
109	0x20	0.17747413
110	0x19	0.13865165
111	0xe6	-0.14419773
112	0x0b	0.061006732
113	0x21	0.18302019
114	0x22	0.18856625
115	0x3f	0.3494022
116	0xf6	-0.055460665
117	0xd1	-0.26066512
118	0x15	0.116467394
119	0x02	0.011092133
120	0xd8	-0.22184266
121	0x1b	0.1497438
122	0xbf	-0.36049432
123	0x08	0.04436853
124	0xe4	-0.15528986
125	0x15	0.116467394
126	0xd7	-0.22738872
127	0x06	0.033276398
128	0xed	-0.10537526
129	0x42	0.36604038
130	0xfc	-0.022184266
131	0xfb	-0.027730333
132	0x3c	0.332764
133	0xf8	-0.04436853
134	0xd3	-0.24957299
135	0x10	0.08873706
136	0x1c	0.15528986
137	0xca	-0.2994876
138	0xf4	-0.066552795
139	0xd7	-0.22738872
140	0xf5	-0.061006732
141	0xb0	-0.44368532
142	0x04	0.022184266
143	0x19	0.13865165
144	0xe1	-0.17192806
145	0x34	0.28839546
146	0x33	0.2828494
147	0xf1	-0.083191
148	0x29	0.22738872
149	0x01	0.0055460664
150	0xe7	-0.13865165
151	0xf4	-0.066552795
152	0xfe	-0.011092133
153	0x02	0.011092133
154	0x1a	0.14419773
155	0x3e	0.34385613
156	0xf1	-0.083191
157	0xf5	-0.061006732
158	0x00	0.0
159	0x0b	0.061006732
160	0x45	0.3826786
161	0x9e	-0.5435145
162	0x22	0.18856625
163	0xc5	-0.3272179
164	0xfb	-0.027730333
165	0x4d	0.4270471
166	0x3f	0.3494022
167	0xe3	-0.16083592
168	0x08	0.04436853
169	0x23	0.19411233
170	0xe5	-0.1497438
171	0x32	0.2773033
172	0x00	0.0
173	0x5b	0.504692
174	0xce	-0.2773033
175	0x2a	0.23293479
176	0x4a	0.4104089
177	0x34	0.28839546
178	0xf3	-0.072098866
179	0x35	0.29394153
180	0x07	0.038822465
181	0x3d	0.33831006
182	0xef	-0.09428313
183	0xef	-0.09428313
184	0x15	0.116467394
185	0x22	0.18856625
186	0x41	0.36049432
187	0xe0	-0.17747413
188	0xfc	-0.022184266
189	0xeb	-0.116467394
190	0x09	0.0499146
191	0xd8	-0.22184266
192	0xe4	-0.15528986
193	0xb2	-0.4325932
194	0x28	0.22184266
195	0x0a	0.055460665
196	0xed	-0.10537526
197	0xc2	-0.34385613
198	0x27	0.2162966
199	0xf9	-0.038822465
200	0x09	0.0499146
201	0x0c	0.066552795
202	0x0f	0.083191
203	0x0a	0.055460665
204	0x35	0.29394153
205	0xe3	-0.16083592
206	0xfd	-0.016638199
207	0xec	-0.11092133
208	0x2b	0.23848085
209	0x2e	0.25511906
210	0x23	0.19411233
211	0x06	0.033276398
212	0x3e	0.34385613
213	0xff	-0.0055460664
214	0x10	0.08873706
215	0xfb	-0.027730333
216	0x39	0.31612578
217	0xda	-0.21075052
218	0x48	0.3993168
219	0x18	0.13310559
220	0x0c	0.066552795
221	0xf7	-0.0499146
222	0x1f	0.17192806
223	0x19	0.13865165
224	0x20	0.17747413
225	0x41	0.36049432
226	0x17	0.12755953
227	0x11	0.09428313
228	0x18	0.13310559
229	0x03	0.016638199
230	0x0e	0.07764493
231	0xf2	-0.07764493
232	0xf6	-0.055460665
233	0x08	0.04436853
234	0xfa	-0.033276398
235	0x01	0.0055460664
236	0xfa	-0.033276398
237	0xe6	-0.14419773
238	0x22	0.18856625
239	0xe1	-0.17192806
240	0xe4	-0.15528986
241	0x19	0.13865165
242	0x00	0.0
243	0xe7	-0.13865165
244	0xfb	-0.027730333
245	0xed	-0.10537526
246	0x2c	0.24402693
247	0x3e	0.34385613
248	0x00	0.0
249	0xef	-0.09428313
250	0x1a	0.14419773
251	0x16	0.122013465
252	0xff	-0.0055460664
253	0xfd	-0.016638199
254	0x05	0.027730333
255	0xf6	-0.055460665
